data/model.pt (torch, 289867 bytes, 26 tensors)

weight f4 [12, 3, 5, 5]
000000 c7 f2 b2 3c b1 9d b8 bd d7 15 b5 bd 23 fe eb bd
       0.02184428 -0.09014452 -0.08842056 -0.11523082
000010 b5 f3 95 bd 0d 21 69 bc 36 76 98 3d a5 b7 b7 3b
       -0.07321874 -0.014229071 0.07444422 0.005606609
000020 f0 00 00 bd af cf 30 3b e7 77 25 3b bc 3f 2a 3d
       -0.031250894 0.0026979258 0.002524847 0.041564688
000030 47 60 f4 3d ab 21 75 bd 70 91 95 bd 9c 57 9f bd
       0.11932426 -0.05984656 -0.073031306 -0.07780382
000040 45 15 03 bd 77 66 49 3c af 9e a0 3d b9 0e b8 3d
       -0.032002706 0.012292496 0.078427665 0.08987183
000050 16 e6 35 3d 21 e5 bd 3c 0e 06 42 3d f7 e2 b2 bc
       0.04440888 0.023180546 0.047369055 -0.02183674
000060 59 db 4f bd 20 f3 b5 3d 68 0c 2e 3c 52 11 7c bd
       -0.050746296 0.08884263 0.010623075 -0.061539955
000070 39 89 a7 3d fd fc d0 bd 57 0b 34 bc c1 c6 af bb
       0.0818047 -0.10204504 -0.010989032 -0.0053642695
000080 97 8d 0b 3d e4 fb d4 bd d6 c4 9f 3d cc fd 9b bd
       0.034070577 -0.10399607 0.07801215 -0.07616767
000090 72 c6 7a 3d 14 33 2d 3d 8e d7 ac 3d 6b 74 f4 3d
       0.06122441 0.04228504 0.08439551 0.119362675
0000a0 9b a1 fa 3d e5 dc 07 3d d4 0f 63 bd a4 cf ae bd
       0.12237855 0.033169646 -0.055435017 -0.08535698
0000b0 e0 11 d3 bc e8 be 55 3c ba 7d ce 3d bf 74 8a 3d
       -0.02576536 0.013046004 0.10082574 0.06760549
0000c0 9c 6d 63 bd 2a 96 6f 3b 12 3b 49 3d e9 05 c7 bd
       -0.055524454 0.003655801 0.0491286 -0.09717924
0000d0 fb 89 06 bd ea 3f f0 3c c3 2c 20 bd d9 e5 42 bd
       -0.032846432 0.029327352 -0.039105188 -0.04758248
0000e0 cd 94 b1 3c 6b c6 13 bd 99 cd 31 bb 69 1a cb 3d
       0.021677399 -0.036077898 -0.0027130602 0.09917147
0000f0 a1 61 eb 3d 37 b5 24 bd 13 7e e4 3d bf b5 93 bd
       0.114932306 -0.040211882 0.11156859 -0.072124
000100 ac 18 bc 3d 6a f2 9c 3d 12 f3 bd 3d d9 b5 60 bd
       0.09184393 0.07663424 0.092748776 -0.054860923
000110 9e af a2 bd ee 08 c6 bd 1f 39 9a bd 3d 46 f7 3c
       -0.079436526 -0.09669672 -0.07530426 0.03018486
000120 3e 21 d3 bd a8 82 ab bc 1c 1d ba 3c 92 74 19 bd
       -0.10309075 -0.020936325 0.022718959 -0.037464686
000130 d9 f0 ba 3a cb 53 ba 3d 34 eb a5 3d 27 36 57 3c
       0.0014262452 0.090980135 0.08101502 0.0131354695
000140 35 59 c6 3d b7 b4 f5 3d 2d fe a6 bc 3e 4e b5 3d
       0.09684984 0.11997359 -0.020384872 0.08852814
000150 d9 12 12 3c d2 02 87 3d 72 cc 34 3d a4 ea d1 3b
       0.008915626 0.06592335 0.044140287 0.006406145
000160 2d a9 17 3d ba 62 e4 3d 87 45 18 3c 72 93 82 bd
       0.037026573 0.11151643 0.00929392 -0.06375779
000170 ee 28 31 3d 54 d4 c0 3d 73 94 d4 bd 6d 13 91 bd
       0.043251924 0.094154984 -0.10379877 -0.07083783
000180 29 82 5c bd c0 58 8c bd 22 e7 7e bc f8 10 bc 3d
       -0.053835068 -0.06852865 -0.015558036 0.09182924
000190 cf a1 cd bd fd c1 c5 3d 7f e1 ca bd c5 36 8b 3c
       -0.10040628 0.09656141 -0.09906291 0.01699389
0001a0 7e 26 35 bb 80 d1 c9 bd a0 91 0b bc da 76 25 3d
       -0.0027641351 -0.09854412 -0.008518606 0.04039655
0001b0 c2 dc e3 3d 07 a9 b5 bd 7d 8b 17 bd 4b ba e4 3d
       0.111260906 -0.0887013 -0.03699826 0.11168345
0001c0 49 e3 b1 3b 9d 7a aa 3d 58 4f 8f bd f3 de c0 3d
       0.005428706 0.08324168 -0.069975555 0.09417524
0001d0 c5 56 9d bd 9e b6 05 3d e2 ec 9f 3d 15 ef 2d bd
       -0.076825656 0.03264486 0.07808854 -0.042464335
0001e0 4b 90 c8 bd ea 73 58 3d c5 1d 23 3c 0e 3d 0a 3d
       -0.09793147 0.05284492 0.009955828 0.033749633
0001f0 ff ab df bd e3 e5 d8 3d 37 9e dc bd e8 90 be bd
       -0.109214775 0.105907224 -0.107723646 -0.093049824
000200 ad 2d 88 bc db 92 d9 3d b0 ff 34 bd f6 d8 4e bc
       -0.016623342 0.106237136 -0.044189155 -0.01262497
000210 03 01 e8 bd f9 9a 65 bd 12 ba 15 bd 62 26 de bd
       -0.11328318 -0.056055997 -0.036554404 -0.10847165
000220 db 82 35 bd d9 6a 92 bc 17 3b 03 3d 96 05 1e bd
       -0.044314247 -0.017873215 0.032038774 -0.038579546
000230 c5 66 2f 3d 58 bc a1 bd 17 44 e3 bd 43 bb f0 bb
       0.042822618 -0.07897252 -0.110969715 -0.007346542
000240 b7 23 a8 3c 5a 08 8e 3d 87 da 9f bd 37 f1 c0 bd
       0.020524843 0.06935187 -0.07805353 -0.09421008
000250 c9 a4 ba bd 05 d4 90 bb c2 75 32 bd 9b e0 0b bd
       -0.091134615 -0.004419806 -0.043569334 -0.034149747
000260 63 8b 67 bd 65 08 b0 3d ae c8 d4 bd b6 c5 7e 3d
       -0.056529414 0.08595351 -0.10389839 0.06220027
000270 7b b3 bb bc 2c 87 2a 3b e2 28 6e 3d d4 30 b1 3d
       -0.022912731 0.002602051 0.058144458 0.08651891
000280 dc 89 31 3d 13 2b 6d bd 1b ab d7 3d 46 b4 c8 bd
       0.043344364 -0.057902407 0.10530683 -0.098000094
000290 31 29 db 3c d4 7f e6 3d c4 05 37 bc ce 7d 4c bc
       0.02675304 0.1125485 -0.011170808 -0.012481166
0002a0 37 e0 c3 3d 36 11 ab bd 76 da 1a bd f6 82 96 bd
       0.0956425 -0.08352892 -0.037805997 -0.073491976
0002b0 be 40 6e 3c 60 50 5a 3d b3 6a c1 bc 38 6a eb 3d
       0.014541803 0.053299308 -0.023610448 0.11494869
0002c0 89 32 68 bd 1b 5a b2 3d 06 ac 03 bd 48 7e d5 bc
       -0.05668882 0.087085925 -0.032146476 -0.026061192
0002d0 e1 e8 99 3c 59 8a 88 3d 7f 9e 96 bd be 62 a1 bd
       0.018787803 0.06667013 -0.073544495 -0.07880162
0002e0 74 5c da 3d 01 1b b4 bc a8 8f 01 3d fd de 77 3d
       0.10662165 -0.021985533 0.031631142 0.060515393
0002f0 6f be a9 3d d5 d5 bf 3d 85 da ed 3d 27 f8 a6 bd
       0.082882755 0.09366957 0.11613945 -0.081528
000300 27 6f 8e 3d c2 c5 b6 3d 07 90 9f bd 2a cf 2c bd
       0.069547944 0.08924438 -0.07791143 -0.042189755
000310 f9 17 9f 3c 65 ca b8 3d a4 90 c6 bd a1 80 22 3c
       0.01942061 0.09022979 -0.09695557 0.009918363
000320 5e 7b 0f 3a c8 35 e3 3c 74 d4 ce bc 5b fa 1e bd
       0.00054734 0.027735606 -0.02524779 -0.038812976
000330 97 d7 e0 bd c6 20 04 3d 94 82 a1 3d 8f 7c e1 3c
       -0.109786205 0.032257818 0.07886234 0.027525214
000340 1e d4 6c bc 69 dc bc 3c f8 e1 1d bc fd 33 b9 bd
       -0.01445487 0.023054319 -0.009636395 -0.09043119
000350 e6 54 17 bd 8d 2d 7f bd 3a 17 98 bd 1f db 94 bd
       -0.0369462 -0.0622993 -0.07426305 -0.072683565
000360 ae 14 b1 3a 4a 2a c2 bd e2 45 0d 38 22 8a a6 3d
       0.0013510191 -0.09480722 3.3682103e-05 0.081318155
000370 eb 9b 25 bd b1 8a b3 3d 34 e1 b5 bd 56 16 8e bc
       -0.040431898 0.08766688 -0.08880845 -0.017344635
000380 7c 43 8b 3d d8 6d 9a 3d d4 ab 09 3c cb ca bf bd
       0.06799981 0.07540482 0.008402783 -0.093648516
000390 00 ee ae 3d a5 b2 cb 3d 4d c0 21 3d d3 fe 97 bd
       0.08541489 0.09946183 0.039490033 -0.07421651
0003a0 4d 0b 9d 3d f6 64 ce bd 55 4a a4 bd ae cb 96 3d
       0.07668171 -0.100778505 -0.0802199 0.073630676
0003b0 e1 4e 9a 3d 70 ca a1 3c 49 02 e1 3d b7 4e ce 3d
       0.07534576 0.01974985 0.10986764 0.100736074
0003c0 8f 33 db bc 18 c2 0b 3b b5 26 bd 3d 65 6e 1e bd
       -0.026757983 0.0021325406 0.092358984 -0.0386795
0003d0 b0 a2 c2 bd f4 8f a5 bd 94 af 6d 3d 0b fc 0c bc
       -0.095036864 -0.080840975 0.058028772 -0.008605014
0003e0 96 82 d1 bc ba 93 de bd 89 1a 95 bd 98 ee ac 3c
       -0.025574964 -0.1086802 -0.07280452 0.021109864
0003f0 59 25 2a bd 35 90 19 3d 1a ae 06 bc 65 b8 d8 3d
       -0.041539524 0.037491042 -0.00822022 0.105820455

bias f4 [12]
000000 65 3c 5e bd ae 19 23 bd 00 ce 67 bd 90 a2 bc 3c
       -0.054256815 -0.039819412 -0.05659294 0.023026735
000010 52 5b bf bd 44 e6 c7 3d 41 f3 be 3d a1 1d 63 bd
       -0.0934359 0.097607166 0.09323741 -0.05544818
000020 d6 c8 b6 3d 15 1e d0 bd 1b 80 e5 bd 07 54 b1 bd
       0.08925025 -0.10161988 -0.11206075 -0.08658605

weight f4 [12]
000000 84 44 82 3f 2c 66 80 3f 1b d3 7f 3f 6c ed 80 3f
       1.0177159 1.003118 0.99931496 1.0072455
000010 e8 98 80 3f d8 5a 7d 3f d7 49 81 3f 12 0c 82 3f
       1.0046663 0.9896674 1.0100659 1.0159934
000020 84 da 80 3f 54 60 81 3f d3 a0 81 3f b1 2c 81 3f
       1.0066686 1.0107522 1.0127205 1.0091764

bias f4 [12]
000000 d5 45 c9 3b 12 01 ad 3b 02 d4 ad 39 89 04 d9 39
       0.006142358 0.0052796686 0.0003315509 0.00041392844
000010 c0 53 a4 3a cc 5d a3 ba 2f 60 89 3b 8f 9c aa 3b
       0.0012537166 -0.0012463867 0.004192374 0.0052066515
000020 eb f1 96 3b 18 76 d8 3b c2 92 be 3a a6 79 02 3c
       0.0046064756 0.0066058747 0.0014539587 0.007963574

running_mean f4 [12]
000000 2c e0 29 be 99 fd 76 be 98 76 cf 3d 20 97 e9 3d
       -0.16589421 -0.24120177 0.10130042 0.11405778
000010 57 35 94 be d0 33 19 3f 84 70 3f 3e 4a 02 3f be
       -0.28946945 0.59844685 0.18695265 -0.18653217
000020 87 bf a7 3e 9a 25 7a 36 b6 c7 27 3b 1c 16 6c bd
       0.3276331 3.727479e-06 0.0025601215 -0.057638273

running_var f4 [12]
000000 ce 1f 54 3c 92 be 66 3d 4a 64 5f 3c a0 67 c0 3b
       0.012947036 0.056334086 0.013634751 0.005871728
000010 20 ac 92 3c 38 bd 99 3d 45 c4 a3 3c 48 01 4f 3c
       0.017904341 0.07506794 0.01999105 0.012634583
000020 99 44 f7 3c 33 5c 4e 3c 69 8a 08 3c 87 f0 94 3c
       0.030184077 0.012595224 0.008333781 0.018181099

weight f4 [12, 12, 5, 5]
000000 03 d7 7d bd a2 e1 03 3c 24 e9 7c bc 78 b7 3e 3d
       -0.06197263 0.0080494005 -0.015436444 0.04656169
000010 d3 d2 fe bc ac 54 69 bd 33 69 32 bc a1 4c aa b9
       -0.031106388 -0.056965515 -0.010889339 -0.0003248202
000020 89 00 1d 3d 99 b4 8a bc 5e ed f5 bc 92 63 45 3b
       0.03833059 -0.016931819 -0.030020412 0.0030119163
000030 3d b3 48 3d e3 30 c9 3c c3 26 d1 3c a5 70 6a 3c
       0.04899906 0.024559444 0.025531178 0.014309083
000040 00 c7 06 bd 17 04 8a bc b0 06 e6 3b a6 e3 22 3d
       -0.032904625 -0.016847653 0.00701984 0.039767884
000050 d3 29 1f bc 8c 0c 12 3d ab 8b a6 bc 60 da d3 3a
       -0.0097145615 0.035656497 -0.02033027 0.0016163103
000060 b6 e5 8f bc ac 7a fc bc 0b d0 f1 3c 70 09 2b 3b
       -0.01756559 -0.030820213 0.029518148 0.0026098154
000070 88 35 c7 bc 05 69 3b bd 0c fb cd 3a 03 bc 0f 3d
       -0.024317518 -0.04575445 0.0015715077 0.03509141
000080 b6 2c 5b bd 2b b2 91 bc a5 c2 30 bc 72 f6 8e 3c
       -0.053509437 -0.017785152 -0.010788594 0.017451499
000090 2c 0f 13 3d 2e 33 2d bd 80 cb 3a 3d b4 bc 64 3d
       0.03590314 -0.042285137 0.04560423 0.055844024
0000a0 9d e5 3b bd 41 8e 67 3c 7b 6a 87 bc b9 15 4b 3d
       -0.045873273 0.014133037 -0.016530266 0.049581263
0000b0 0d 13 cd 3c 60 75 89 3b f7 a6 5b 3d 4c a9 24 bc
       0.025033498 0.0041949004 0.053626027 -0.010050129
0000c0 d4 92 a4 3c 71 be c5 3c 9a 4d 42 bc 33 7f 09 3d
       0.020089544 0.024138661 -0.011859322 0.033568572
0000d0 60 a6 58 bd f7 85 43 3d d9 6e 4a bd 5c 05 1b 3d
       -0.052893043 0.04773518 -0.04942212 0.037846908
0000e0 0f 58 0b bd d1 44 8d bc 8b 8e 41 bc f7 1b 73 3d
       -0.034019526 -0.017244728 -0.01181377 0.05935284
0000f0 bd ba dd bc b4 8a c9 3c 63 53 50 bd 50 01 9f 3c
       -0.027066583 0.024602272 -0.050860774 0.019409806
000100 24 8c 47 3c eb 40 27 bc 5b e2 29 3d 89 f6 92 3b
       0.012179408 -0.010208349 0.041475635 0.0044849557
000110 f2 6f 31 3d 97 f9 28 bc 85 6a 6d bb e5 69 ca 3b
       0.04331965 -0.010313413 -0.003622682 0.0061771744
000120 91 d1 a9 3c f1 ea db 3c 4d 10 01 3d b2 31 08 3d
       0.020729812 0.026845427 0.031509686 0.03325052
000130 61 ad 9c bb 88 ce 45 bd e2 bc 3c bd fc 85 22 bd
       -0.0047814106 -0.048292667 -0.04607857 -0.03967856
000140 2a b9 16 3c c5 5e 1f 3d a5 91 38 3d 61 6b b8 3c
       0.00919942 0.03890874 0.045060772 0.02251214
000150 0e 33 4f bd d3 ce f8 bc ea 02 c1 3c 0f 11 2d 3d
       -0.0505858 -0.030372059 0.02356096 0.042252596
000160 55 1f 39 bc b5 58 a9 bc ed a2 4a bd 65 7f 03 3d
       -0.011298974 -0.020672182 -0.049471784 0.032103915
000170 20 10 00 bc 39 66 43 3d 2b 34 55 bd b2 39 0d bd
       -0.0078163445 0.04770491 -0.052051704 -0.03447885
000180 db 79 30 3d 69 63 22 bd 31 f9 32 3d 4d 21 25 3d
       0.04308496 -0.039645586 0.04369468 0.04031496
000190 99 d9 01 3d b3 06 a0 3c b8 91 4d bd f3 ad a3 3c
       0.031701658 0.019534444 -0.050187796 0.019980406
0001a0 c8 a7 26 bd 19 ca 9d 3c 04 e0 65 bd 1d 30 54 3b
       -0.040687352 0.019261407 -0.05612184 0.003237731
0001b0 ea 8c 24 bb 7b e8 71 bd 9d a6 85 ba 2a 10 0b 3d
       -0.0025108405 -0.0590596 -0.0010196749 0.033950962
0001c0 4f f0 17 3d 87 26 b1 bc c1 4d 7d bd 41 c3 47 bd
       0.03709441 -0.021624817 -0.06184173 -0.048770193
0001d0 39 d5 34 bd bf 49 4b bc db ae 2a 3d 97 14 f0 bc
       -0.044148657 -0.012407719 0.04167066 -0.029306693
0001e0 27 5a 59 bd 1a e5 4e bd e3 e2 fa 3c 7a 9f 3d 3c
       -0.05306449 -0.050511457 0.030625766 0.011573667
0001f0 a7 96 d2 bc 7c 0e c8 3c 12 03 9c bc e4 a8 33 bc
       -0.025706602 0.02442097 -0.019044433 -0.01096556
000200 1c 4d 36 bc e0 d6 28 3d d4 4a 2b 3c 93 ac 63 3d
       -0.011126783 0.041220546 0.010454852 0.0555845
000210 47 18 e7 3c f7 f1 e6 bc 28 ba 2d 3c aa 8c 66 3d
       0.028209819 -0.02819155 0.010603465 0.05628649
000220 8c 0f c9 3b 2b de 71 3c 4b 38 6b bc d7 29 4f 3d
       0.0061358865 0.014762442 -0.014356683 0.05057701
000230 4e 5e c7 3c e8 1f 5d ba a7 bf 86 bc 67 e4 2e 3d
       0.02433696 -0.00084352354 -0.016448809 0.04269829
000240 cd 31 c9 3c 59 d0 0d 3d 69 91 e8 3c ec b6 0e bd
       0.02455988 0.034622524 0.02838965 -0.034842417
000250 5b 63 54 3d 45 d4 26 bd 14 84 4d 3c c8 59 9a 3c
       0.051852565 -0.04072978 0.012543697 0.01884164
000260 72 1b f9 bc 7b fb 06 bb 3b 82 ee 39 99 19 3d bc
       -0.030408595 -0.0020596671 0.00045491927 -0.0115417475
000270 46 87 e6 3c 42 da 59 bd 4d 9b d0 3c 9d 8e 4b bd
       0.028140675 -0.053186662 0.025464678 -0.049696553
000280 25 c4 03 bd 01 fd 51 3d 90 b4 fa b8 f8 c4 95 bb
       -0.03216948 0.051266674 -0.00011954561 -0.0045705996
000290 84 fd eb 3c 91 cf 84 bc d1 a0 1c bc 65 03 48 bd
       0.02880741 -0.016212257 -0.009559826 -0.048831362
0002a0 b8 74 3b bd ab e3 23 bd c7 75 ea bc b4 f5 51 bd
       -0.04576561 -0.040012043 -0.028620614 -0.05125971
0002b0 53 7c 57 3d 56 e6 9c 3a fd 7f 2c bc 7c 21 49 3d
       0.0526088 0.0011970501 -0.010528562 0.0491042
0002c0 bd 2b 01 bd 0a 96 d2 3b b6 72 1b 3d 38 71 f8 bc
       -0.031535853 0.0064265775 0.037951194 -0.030327424
0002d0 a2 0e 52 3c f4 e5 11 bd 41 c0 db bc 19 4b 9a bc
       0.012820872 -0.03561969 -0.026825072 -0.018834637
0002e0 55 85 8b bc 80 40 9a bc b4 7a c8 3c 7a 14 be 3c
       -0.017031351 -0.018829584 0.024472572 0.023203123
0002f0 62 f3 37 bd 5e 95 66 bd 18 ee 01 bd 5d 9d 3e bd
       -0.044909842 -0.05629479 -0.031721205 -0.046536792
000300 67 c2 8d bc 8f ec 77 3c 72 cd 58 3c 28 0f 86 bc
       -0.017304612 0.015132084 0.013232576 -0.016364649
000310 02 37 84 bd c1 33 f9 3a 7c e5 dc 3c fd a2 3f bd
       -0.064558044 0.0019012616 0.026964895 -0.046786297
000320 65 ea 82 3d b1 19 84 3c ce 5f a5 bb e6 d0 3c 3d
       0.063923635 0.016125532 -0.005046821 0.04609766
000330 85 e3 04 3d c6 81 87 3b f4 b6 ed 3c 9b 08 53 3d
       0.032443542 0.0041353432 0.029017903 0.05152188
000340 cd 89 21 3d 56 dd 65 3d ff 49 0f bd 96 4b a6 bc
       0.039438058 0.056119286 -0.034982678 -0.020299714
000350 44 81 5c 3d c7 83 68 3d 76 f8 1d 3a ee 32 32 bd
       0.053834215 0.056766298 0.0006026098 -0.0435056
000360 13 e8 d5 bc 18 14 5d 3d 76 d9 53 3c 3d 6b 6f b9
       -0.026111638 0.05397424 0.012930265 -0.00022832766
000370 e2 e3 c3 3c 78 c1 07 3d 26 f1 fd bc d0 2f 89 bc
       0.023912374 0.03314349 -0.030998778 -0.016746432
000380 01 85 f5 bc d5 37 0a 3d 1e 74 50 bd 3a 71 8f 3c
       -0.029970648 0.03374465 -0.050891988 0.017510045
000390 e4 fd af 3c 3b 89 26 3d 10 4b 27 bc a5 9e 7e 3d
       0.02148337 0.040658217 -0.010210767 0.062163014
0003a0 d9 f2 78 3d a6 66 01 3a eb 1b 78 3d 8c d4 e4 3c
       0.060778473 0.0004936255 0.0605735 0.027933381
0003b0 d2 78 47 3d 04 8c 18 3c df f0 04 bd 8a 65 b9 3c
       0.048699208 0.009310726 -0.032456275 0.022631425
0003c0 ab 5d 97 bb ed 25 39 3d 80 7b 73 3d ca da 51 bc
       -0.0046193204 0.045202184 0.05944395 -0.012808511
0003d0 b4 8e 11 3b 3f 25 69 3d b9 b6 78 3d cc 2a 22 bd
       0.0022210302 0.056920286 0.060721133 -0.039591596
0003e0 1f f6 90 bb 2c 56 63 3d 1a 2d 3b 3d 5c 0f 35 3d
       -0.004423871 0.0555021 0.04569731 0.0442041
0003f0 8c 7d d5 bc 42 e8 fa bc 7d 68 4e bd 92 b5 2d bc
       -0.026060842 -0.030628327 -0.050392617 -0.010602372

bias f4 [12]
000000 6f 42 05 bd 61 09 bc 3c aa 13 12 bd 00 ca 70 3d
       -0.03253406 0.022953691 -0.035663284 0.058786392
000010 51 e7 e7 bc ef 35 f6 bc e5 43 3c bb a1 fe 50 3c
       -0.028308542 -0.030055014 -0.0028726992 0.012756021
000020 ea bc 12 bd e6 93 c3 3c ba c5 32 3c d5 f6 62 3d
       -0.035824694 0.023874234 0.0109113995 0.05541118

weight f4 [12]
000000 b9 b1 80 3f ac 61 81 3f b7 23 82 3f ff 3a 80 3f
       1.0054237 1.0107932 1.0167149 1.0018004
000010 8f a2 81 3f 50 53 81 3f 72 64 80 3f 6e 90 81 3f
       1.0127734 1.010355 1.0030653 1.0122201
000020 43 0a 82 3f 51 3c 80 3f 21 49 81 3f 96 36 81 3f
       1.0159382 1.0018407 1.0100442 1.0094783

bias f4 [12]
000000 5a 07 66 3a 97 48 66 3b 80 e7 35 3b 72 b3 63 3b
       0.0008774899 0.0035138482 0.0027756393 0.003474441
000010 43 27 0a ba 58 ed 82 3b f2 f0 0d 3b 51 e8 6e 3a
       -0.00052701327 0.0039955787 0.0021658507 0.00091135973
000020 4e c6 af 3a 3e b9 97 b9 9f ee f0 3b 39 30 f9 3a
       0.001341054 -0.0002893898 0.0073526646 0.0019011564

running_mean f4 [12]
000000 1d da 55 3c c1 68 be be 31 25 d2 be a9 f3 70 3e
       0.013052491 -0.37189296 -0.41044 0.23530449
000010 c2 1d ef 3d ec df 65 be 1e 36 8f be b4 d7 f1 bd
       0.11675598 -0.224487 -0.27970976 -0.1180872
000020 a9 3e 4c bd 3a 75 7f bc 98 4a 1e bf a2 d4 82 3e
       -0.049864445 -0.015591914 -0.6183257 0.2555285

running_var f4 [12]
000000 58 10 26 3e de ff 03 3e 88 0c a0 3d f4 ca 2f 3e
       0.16217172 0.12890574 0.0781489 0.17167264
000010 7c 2c ca 3d aa d9 af 3d e5 a2 51 3e 4a e6 a5 3d
       0.09871766 0.08586438 0.20472296 0.08100565
000020 00 ea 7a 3d 5d a5 3c 3e e4 d6 7b 3e e0 d6 bb 3d
       0.061258316 0.18422456 0.24593693 0.091718435

weight f4 [24, 12, 5, 5]
000000 af cb dc bb 81 2d 66 3d 88 3d 3d bd 5f c7 2f 3b
       -0.006738148 0.05619574 -0.04620126 0.0026821715
000010 70 7c f4 3b c4 1c 4d 3d 1c bf ec bc 8d 8f 27 3d
       0.007461123 0.05007626 -0.028899722 0.040908385
000020 3d 4e 38 bd 4f 17 c9 ba 1a c2 1b bd 04 32 47 bd
       -0.04499649 -0.001534203 -0.038026907 -0.048631683
000030 ca 94 ce 3c 91 e3 e6 bc e7 ef 23 3c 6d 05 6e bb
       0.025217433 -0.028184684 0.010005928 -0.0036319152
000040 3b e1 37 3d ae 6e 62 3c b0 db db 3c 7b 71 c6 3c
       0.04489253 0.013820333 0.026838154 0.024224034
000050 74 2e 05 bd 3b cf f7 3c 24 17 2a 3c 36 a0 3e 3d
       -0.032515004 0.030250182 0.010381494 0.046539508
000060 53 62 e8 3b 65 47 d4 3c 37 ce 0f 3d f2 8b 59 bd
       0.0070917993 0.02591295 0.03510877 -0.053111978
000070 e5 75 4a bd 52 04 98 ba 36 3d db 3c 8f f2 5d 3c
       -0.04942884 -0.0011597967 0.026762586 0.0135466
000080 30 ee fc bc e9 71 12 bd bc e2 50 3d f7 01 98 3c
       -0.030875295 -0.035753164 0.05099748 0.018555624
000090 ee b7 20 bd 53 69 23 ba c2 6d 65 bd 43 fc 91 3c
       -0.03923791 -0.0006233651 -0.056012876 0.017820483
0000a0 7c 19 ca bc fc 90 3d bc 28 a4 8f 3c 36 c0 b8 bc
       -0.024670355 -0.0115702115 0.01753433 -0.02255259
0000b0 77 69 3f 3d dd 88 10 3d 27 10 98 3c 7c f7 fa 3c
       0.04673144 0.035286773 0.01856239 0.030635588
0000c0 cf 8e a2 bc af 5d 52 bd dd b4 45 3d 0d ac ce 3c
       -0.019843487 -0.051358875 0.048268188 0.025228525
0000d0 ba 51 13 3d dd 11 1a bd 3f cc 3d ba cb 26 16 bd
       0.035966612 -0.037614692 -0.0007240213 -0.03665809
0000e0 ff 18 22 bc 29 5c ab bc ad be 3b bd d3 d2 ef 3c
       -0.009893655 -0.020917969 -0.04583614 0.029275334
0000f0 1b 15 91 3b 38 f0 f9 3c 83 c0 69 bd d5 43 76 bc
       0.004427565 0.030510053 -0.05706836 -0.015030821
000100 14 1c 6f bd e0 26 3b bd 79 ed 7c bc c5 c6 00 bd
       -0.058376387 -0.04569137 -0.015437477 -0.03143956
000110 21 d0 28 bd 7a cc 1b bd b9 4e fd 3c 73 da b3 bc
       -0.041214112 -0.0380368 0.030921327 -0.02195475
000120 96 28 47 bc b6 fb 58 3d 29 0c 02 3d 0a 79 53 bd
       -0.012155673 0.052974425 0.031749878 -0.051629104
000130 f4 77 d1 3b 15 7d ea bb d7 f5 e6 3c 48 05 3b bd
       0.0063924734 -0.007156024 0.028193397 -0.045659333
000140 69 70 02 bd d3 47 45 bd 78 58 5a bc d6 cb 91 3c
       -0.031845484 -0.0481642 -0.013326757 0.017797392
000150 cd 3f 9e 3b 4f b0 3a 3c af d4 74 bd 86 4e 0f bb
       0.004829383 0.011394574 -0.059773143 -0.0021866872
000160 1c 07 38 bd 64 cf 0f bd 1e d4 f8 3c 3a 75 5f bd
       -0.044928655 -0.035109892 0.030374583 -0.054555155
000170 8f 7a 38 bb 4f 4b 18 bc b2 28 00 3c 71 9f 0b 3d
       -0.0028149222 -0.009295299 0.0078222025 0.034087602
000180 60 ec 1f 3d 96 92 d4 3c 13 ea e5 bc ad b1 1e bc
       0.039043784 0.025948804 -0.028065717 -0.009685916
000190 5e 96 18 3d 50 b6 57 bb 7f bb 12 3c e4 a4 6c 3d
       0.037252776 -0.0032915063 0.008955835 0.05777444
0001a0 a0 4e ca 3c 9c a0 4e bd fa a8 24 3b 49 a2 44 3c
       0.024695694 -0.050446138 0.0025125132 0.012001582
0001b0 c9 2f eb 3b a4 93 d5 3c a5 21 1e 3d 1b cb f0 3c
       0.0071773273 0.026071377 0.038606305 0.029393723
0001c0 82 d1 65 bc fc ba 71 3d 51 c2 57 3c ac c5 43 3d
       -0.014027001 0.059016213 0.013168887 0.047795936
0001d0 68 3a 0f bd c4 ec 22 3b af 1f 5d 3d d6 b4 65 3d
       -0.03496781 0.0024860362 0.053985294 0.05608066
0001e0 5e b2 fc 3c a7 8e d5 3b 0f d9 0c 3d a4 ea 07 bd
       0.03084677 0.0065172496 0.03438669 -0.033182755
0001f0 1d b2 18 3d 2f be af 3c 43 2c f7 bc 1e c3 0f bc
       0.037279237 0.021452991 -0.030172473 -0.008774547
000200 ca 15 38 bd f9 25 24 bd 6f 6f 84 3c 08 4e 06 3d
       -0.044942655 -0.040075276 0.016166417 0.03278926
000210 db 2d 7d 3c 40 6d 0e bd 2e 57 b9 3b 62 7f 3c bd
       0.015452827 -0.034772158 0.0056561446 -0.04601992
000220 df 64 86 bc de c3 2c 3c 25 d6 de 3b 0b 47 ee ba
       -0.016405521 0.010544745 0.0068004304 -0.0018179131
000230 1d 02 52 bd 4a ea 0a 3d 76 fc 0a bd fc 3d 22 3d
       -0.051271547 0.03391484 -0.03393217 0.039609894
000240 17 6f 94 3c c2 4d a1 3c e1 0f bf 3c 64 7e fd 3c
       0.018119378 0.019690398 0.023323001 0.030944057
000250 b5 22 20 bd 04 cf f9 ba c9 48 95 3a 41 44 de 3c
       -0.0390956 -0.0019058888 0.001138949 0.027132155
000260 80 f9 55 3b 7b 81 44 bc ef 77 23 3d 34 d3 0e 3d
       0.0032649934 -0.011993761 0.0399093 0.034869388
000270 8b 1d d7 bc a2 b9 80 bb 5a 80 b4 3c 25 e4 8f 3b
       -0.026259204 -0.003928379 0.022033859 0.0043912106
000280 52 52 42 3c 96 f4 c9 3a e7 e4 af 3c 46 ed 52 3d
       0.011860447 0.0015407975 0.021471454 0.051495813
000290 24 a6 19 3d 35 1c 3b bc 8c 9c 49 bd 6d 2a 21 bc
       0.03751196 -0.011420299 -0.04922156 -0.009836775
0002a0 fd 4c fd 3c 65 eb 01 3d 09 4d 9c bc 80 50 13 3c
       0.0309205 0.03171863 -0.019079702 0.008991361
0002b0 dc 28 4b bd fc e3 56 bd 0f b1 25 3d 2b 5c 8a 3b
       -0.049599513 -0.052463517 0.04045206 0.004222413
0002c0 09 b3 25 bd e8 9b 29 bd 55 1b 58 bd 7b 7b 12 bc
       -0.040453944 -0.04140845 -0.05276044 -0.008940573
0002d0 d0 ae c6 3c 1a 1e c4 3a 8b 37 a6 3c 5f 64 38 bd
       0.024253279 0.0014962584 0.020290157 -0.045017596
0002e0 de 25 58 3b 49 51 0a 3d f6 63 86 3c cb 0b 10 3d
       0.0032981555 0.033768926 0.016405087 0.035167497
0002f0 d1 cc fe 3c 56 98 b2 3c ad a6 71 3d 50 f5 5b bd
       0.031103523 0.021801155 0.058996845 -0.053700745
000300 0b 62 3e ba d0 c7 6b 3b 5d 13 3d bc 5a a9 24 3d
       -0.00072625343 0.0035977252 -0.011540261 0.04020057
000310 62 b0 02 3c 7b 99 92 3c a1 a5 a2 bb 9c cf 4d 3c
       0.007976623 0.01789545 -0.004963592 0.012561705
000320 74 a9 f9 3b 59 8c a3 3c b0 88 0d 3d f1 83 1e bd
       0.0076190773 0.019964384 0.034554183 -0.038700048
000330 c5 da d1 3c 8a e3 3d bd 6f 62 66 3d ef 41 e6 bc
       0.025617013 -0.046359576 0.056246217 -0.028107611
000340 8d 03 b5 bc e5 8e 37 bd 5b 7f 1e 3d 57 01 1e 3d
       -0.02209642 -0.04481401 0.038695674 0.038575497
000350 a8 bc 75 3d c0 fd 62 3d 7c 3b be bb 6c 7e 12 bb
       0.05999437 0.055417776 -0.005805431 -0.0022353185
000360 5d 13 a6 bb 36 4c 56 3c 98 38 cd bc 5c 77 34 3d
       -0.0050682263 0.013079694 -0.0250514 0.044059142
000370 c3 15 59 bd 68 3d 54 bd fb 8f 4b bc 45 78 3b bc
       -0.05299927 -0.051816374 -0.012424464 -0.011442249
000380 f4 a4 7c bc c0 9b 2e bd 6e 8a dd bc 75 46 df bc
       -0.015420187 -0.042629004 -0.027043547 -0.027255276
000390 1b ae 1e 3d 8d a3 0b bd d2 a2 2c 3d ba 45 8b bc
       0.03874026 -0.03409152 0.042147465 -0.017001022
0003a0 78 d3 51 3b a3 ef 3d bd 29 c7 16 3d 0d ed 67 bc
       0.0032016914 -0.046371114 0.036811028 -0.014155638
0003b0 14 75 e8 3c 06 84 05 3d 5e 38 83 bb 09 41 08 bd
       0.02837614 0.03259661 -0.004004522 -0.033265147
0003c0 47 39 ff bc da 4a 34 3d b0 a6 31 bd d1 6d b3 bc
       -0.031155242 0.044016697 -0.043371856 -0.02190295
0003d0 8a d7 31 bd 04 2c 3e 3d 96 4e 54 3d 97 4c e0 bc
       -0.043418445 0.046428695 0.051832758 -0.02738027
0003e0 1e 7a 1c bd 63 9c 6d bd c7 51 57 3d 3e e5 d1 3c
       -0.038202398 -0.05801047 0.052568223 0.025622007
0003f0 4d af 22 bd 89 2d fc 3c 6d 91 9c bc ae 7d b3 3a
       -0.03971796 0.030783432 -0.019112313 0.0013694072

bias f4 [24]
000000 9d 93 36 3d 6a e2 6a 3d 52 98 9c bc 1b 2d 21 3c
       0.04457437 0.05734483 -0.0191156 0.009837414
000010 f9 c9 e4 3c ba 87 03 3d 60 09 b9 3c 9e 8a 5a 3d
       0.02792834 0.03211186 0.022587478 0.053354852
000020 0f 14 fe 3c 67 f5 5d bd 8f 8b 30 3c ca 29 4c bd
       0.031015424 -0.054189112 0.010775461 -0.04984454
000030 45 ed 28 3b cc 35 e3 bb 74 57 fa bc 3e 54 8d bb
       0.002577619 -0.0069339033 -0.030559279 -0.004313021
000040 a6 28 27 3c 95 94 41 bd 1f d4 5a 3d 9d 30 8a 3c
       0.010202562 -0.04726084 0.05342495 0.016868884
000050 c7 87 1c 3d 34 dc 43 bd 01 cd 5f 3d 15 d4 a6 bc
       0.038215425 -0.047817424 0.054638866 -0.0203648

weight f4 [24]
000000 da 4d 80 3f c5 43 81 3f 75 c5 7d 3f 16 24 7d 3f
       1.0023758 1.0098807 0.9912942 0.9888319
000010 51 48 7f 3f 5d 8d 80 3f 86 6c 7e 3f b4 3e 7f 3f
       0.9971972 1.0043141 0.99384344 0.9970505
000020 a5 c9 80 3f af 49 80 3f 8a e6 7f 3f 1e 7c 7e 3f
       1.0061537 1.0022486 0.9996115 0.9940814
000030 84 cf 80 3f bd 99 80 3f 81 3f 7d 3f 9e 0a 80 3f
       1.0063329 1.0046917 0.98925024 1.000324
000040 44 b3 80 3f cc bb 80 3f 98 c5 80 3f d4 5d 80 3f
       1.0054708 1.0057311 1.0060301 1.0028634
000050 d4 69 80 3f c6 43 80 3f f2 c5 7f 3f 6d 65 80 3f
       1.0032296 1.0020683 0.99911416 1.0030953

bias f4 [24]
000000 10 4b 4f 3b 6a 8f 40 3b b8 e3 ac 3a ea 8b 26 3b
       0.0031630434 0.0029382356 0.0013190424 0.0025412985
000010 03 6a 0d 3b 0d 7f 00 3a cf 85 8d 3b c7 09 ba ba
       0.002157808 0.00049017445 0.0043189297 -0.0014193588
000020 8d f1 ad 3a a4 de 98 b9 28 ff 5d bb 99 bd 69 ba
       0.001327084 -0.0002915758 -0.0033874009 -0.0008916497
000030 21 9e fc 3b 57 01 21 3b 37 4d bf 3a cc 12 82 ba
       0.00770928 0.002456745 0.0014595155 -0.0009923815
000040 1f c1 9b 3b c3 eb 81 3b 82 f1 8f 3b b3 82 89 ba
       0.0047532464 0.0039648726 0.0043928036 -0.0010491222
000050 5a a4 9a 3b 6c 31 b0 ba 36 25 ad 3a e6 7e 2c 3a
       0.0047192993 -0.0013442463 0.0013209942 0.00065801886

running_mean f4 [24]
000000 04 15 13 3d 4b 01 22 be 82 33 cf be f5 e3 20 3e
       0.035908714 -0.15820806 -0.40468985 0.15711959
000010 16 f3 31 bd ea 0d 71 3e 04 d0 82 be f3 c0 4a 3e
       -0.043444715 0.23540464 -0.25549328 0.19800167
000020 f2 d0 27 3e 81 c8 e4 3e 03 7c ff 3d c8 af 17 3e
       0.163883 0.44684222 0.12474825 0.14813149
000030 52 af e7 be 48 fd c0 bd 91 f2 97 be 41 f1 de 3d
       -0.45250946 -0.094233096 -0.2967725 0.10885859
000040 0d 8c a3 be 8e f0 a6 be 30 09 d3 bb d4 e7 95 3d
       -0.31942788 -0.32605404 -0.006440304 0.07319608
000050 3c 86 84 be a5 a8 a9 3d 9a 55 04 bd fa f7 88 bd
       -0.25883663 0.082841195 -0.0323082 -0.06687923

running_var f4 [24]
000000 36 17 dd 3d d2 8c d6 3d b0 f8 14 3e c7 96 27 3e
       0.10795443 0.10476078 0.14547992 0.1636611
000010 83 d2 61 3e ee 1f cc 3d 92 20 31 3e 9d e8 15 3e
       0.2205296 0.099670276 0.17297581 0.14639516
000020 d5 ec f7 3d bd e3 21 3e 3c e6 09 3e 1b 85 2d 3e
       0.12105719 0.15809532 0.13466734 0.16945307
000030 4b 42 09 3e 3d cf 06 3e bf 58 31 3e e5 58 6f 3e
       0.13404195 0.13164993 0.1731901 0.23373754
000040 2d 5c 08 3e 55 88 a7 3d 6f 4a cc 3d 57 d2 04 3e
       0.13316412 0.081803 0.099751346 0.12970863
000050 b7 a6 13 3e fc 1a df 3d 43 75 26 3e a3 de 13 3e
       0.14419065 0.10893819 0.1625567 0.14440398

weight f4 [48, 24, 5, 5]
000000 c4 c0 d5 bc 65 8e 3d bd 29 66 65 bc 07 af 32 bc
       -0.026092894 -0.046278376 -0.014001408 -0.010905988
000010 24 69 be 3c 5f 10 3e 3c c9 3b b4 bc b8 29 f8 bb
       0.023243494 0.011600583 -0.022001164 -0.0075733326
000020 20 d0 da bc f2 a0 53 bc 29 12 d6 bc 66 d6 99 3b
       -0.02671057 -0.01291679 -0.026131706 0.0046947477
000030 13 af 23 bd 81 e6 03 bc c1 9d 71 bc a6 91 3e 3c
       -0.039961886 -0.008050562 -0.014747084 0.011631405
000040 76 2c fb bc 4c ab 6b 3a f2 c5 2c bd a7 4d bc bc
       -0.030660849 0.0008990064 -0.042180963 -0.022986246
000050 6f 04 21 bc f4 55 83 3c fd 20 dc 3b c7 15 99 3c
       -0.009827717 0.016032197 0.0067177997 0.018687142
000060 f1 ae 1e bc ad 8a 1f 3d 0b 6e 23 bd 41 2d 3b 3c
       -0.009685264 0.03895061 -0.039899867 0.011424364
000070 25 6c 34 3d 64 e6 06 3c 00 e2 8e 39 bd 23 f6 bc
       0.044048447 0.00823364 0.00027252734 -0.030046338
000080 b0 52 2d 3c 60 8d a6 3c 6b b4 a0 bc de 44 d9 3c
       0.010578796 0.020331085 -0.01961728 0.026522096
000090 e8 9e 7d 3c 6f f7 f5 bc 18 80 08 3d 18 a2 04 bc
       0.015479781 -0.030025212 0.033325285 -0.008095287
0000a0 a5 ad 04 3d 5b fd 13 bc eb 2f dc bc 2a b1 8b bc
       0.032392163 -0.009032573 -0.026878318 -0.017052252
0000b0 a1 94 0a 3d 58 d1 4c bc 86 83 3f bc 59 1e 6a 3c
       0.03383315 -0.012501083 -0.0116890725 0.014289462
0000c0 17 95 d1 3c c5 26 c1 bc 88 87 f0 3b de d0 2c 3b
       0.025583787 -0.023578057 0.0073403753 0.0026369612
0000d0 58 be f2 3c 80 f8 dc bb b3 9d 0b bd 56 55 6b bc
       0.029631779 -0.0067434907 -0.03408594 -0.014363607
0000e0 db 1f 47 3b 98 e0 1f 3d b3 d0 0a bc 71 d1 fb 3c
       0.0030383978 0.03903255 -0.008472609 0.030739518
0000f0 80 e8 e2 bc 68 91 2f 3c 98 c2 2b bc a5 fb 9e 39
       -0.027698755 0.01071582 -0.0104834065 0.00030323598
000100 ea 4f 9f 3b b9 24 25 bd d9 31 45 3c 79 84 c7 3c
       0.0048618214 -0.040318225 0.01203581 0.02435516
000110 b2 bb 96 bc 70 00 28 bd 4e e4 db bc 30 77 3a bb
       -0.018400047 -0.041016042 -0.026842263 -0.002845239
000120 b4 7b e2 bb d4 39 1a bd b9 75 73 bb 8f 98 8c bc
       -0.006911719 -0.037652805 -0.0037149026 -0.01716259
000130 1d b3 dc 3c 94 06 4a bb b6 a2 8e 3c 79 87 c9 3c
       0.026940877 -0.0030826675 0.017411571 0.024600731
000140 9d b7 76 bc 79 2f c3 bc 29 36 16 3d 86 61 05 bd
       -0.015058425 -0.023826348 0.036672745 -0.03256371
000150 a9 53 c1 3c 25 8a cf bb e9 c5 cb bc 52 09 0b 3a
       0.023599463 -0.006333607 -0.024874644 0.0005303818
000160 14 8c 78 ba cc df d3 bc 9e 78 92 3b 22 3b 0b 3d
       -0.00094813225 -0.02586355 0.004469945 0.03399194
000170 2a 0c 19 3a 5a 49 09 3d 34 7e cc bc ea 67 05 3c
       0.00058382994 0.03351722 -0.024962522 0.008142451
000180 0b cf 06 bd be 0c 2b bd 70 aa c1 bc 33 b0 db bb
       -0.032912295 -0.0417602 -0.023640841 -0.006704354
000190 23 35 d8 3c 56 4d d5 3c 0c 75 01 bd 08 be 72 bc
       0.026392525 0.026037853 -0.031605765 -0.014815815
0001a0 37 50 62 bc d1 f2 a2 bb 5b 4a eb 3c 67 a0 ad 3c
       -0.01381307 -0.0049727936 0.028721979 0.02119465
0001b0 fd b6 01 bd 91 53 98 bb 77 25 4e bc 63 45 17 3d
       -0.03166865 -0.0046486338 -0.0125821745 0.036931407
0001c0 56 32 9e bb 1c cf 07 3d 34 71 11 bd 2b 96 04 3d
       -0.004827778 0.0331565 -0.03550835 0.032369774
0001d0 44 52 9a bc 14 51 9f 3b 0f 5c 8b bb 51 1a bd 3c
       -0.018838055 0.00486196 -0.0042529176 0.023083838
0001e0 d6 1c 22 3d d6 d5 13 bd b8 fe 52 3c e6 ea 76 3b
       0.03957828 -0.0360926 0.0128781125 0.0037676631
0001f0 69 e9 be bc 00 e4 20 3d a8 32 09 3d d0 46 97 bc
       -0.023304658 0.039279938 0.033495575 -0.018466383
000200 dd d2 48 3c 21 80 80 bc 9a ac 75 bc a9 71 5f 3c
       0.012257305 -0.015686097 -0.014994765 0.013637939
000210 af a2 e4 bc b2 e8 c4 3c 9f 38 55 bc a0 e2 aa bc
       -0.027909605 0.024036739 -0.013013988 -0.020860016
000220 a3 99 69 3c a9 d9 ad ba 81 31 29 3d d0 67 0e 3d
       0.014257821 -0.001326372 0.041306976 0.034766972
000230 f9 17 b2 bb 44 4e df ba b9 17 91 3c 9b 0a b8 3c
       -0.0054349867 -0.0017036875 0.017711507 0.022465995
000240 6b 5b d3 bc dd cb 8e bc e7 df e1 3c 34 03 33 3d
       -0.025800427 -0.017431194 0.027572585 0.043704227
000250 9c e0 32 3c 15 8b 13 3d da 50 c1 bc 6c 92 5f 3a
       0.010917809 0.03602131 -0.023598123 0.00085285935
000260 b7 44 a9 bc 72 01 8d 3b 13 11 8e bc 05 ab dd bc
       -0.020662649 0.004303151 -0.017342126 -0.027059088
000270 41 bc ef bb ac f7 0b bd f6 16 05 bd f0 83 14 bd
       -0.007316143 -0.034171745 -0.0324926 -0.036258638
000280 f2 4a a6 3c 23 ef e1 3c 62 45 62 3c 1e d7 a7 3b
       0.020299409 0.02757985 0.013810487 0.0051220795
000290 7b bf b1 bc 20 66 11 3c 57 92 03 bc 73 13 31 3c
       -0.02169775 0.008874446 -0.008030496 0.01080786
0002a0 7c e3 3a 3b 07 36 7c bc 2f fe 37 3d a5 44 2e bc
       0.002851694 -0.0153937405 0.044920143 -0.010636483
0002b0 93 38 c6 bc dc c1 17 bc 1e 7d 90 bc 41 f8 2a bc
       -0.024196899 -0.009262528 -0.017637786 -0.010435165
0002c0 63 3c a2 3c d2 c8 b9 bb 66 9e 04 3d 7d 9a 90 bc
       0.019804185 -0.0056696916 0.032377623 -0.01765179
0002d0 04 de 14 3d 10 35 96 bc c7 fe c3 bb 1b ef be 3c
       0.036344543 -0.018335849 -0.0059812996 0.023307374
0002e0 5b a2 8c 3c 4f 71 ce 3c 61 21 a2 3c 9f 31 d7 3a
       0.01716726 0.025200514 0.019791307 0.0016417986
0002f0 b5 26 c2 3c 42 a8 d3 bb 5b ae 6c bb 12 b1 2f bd
       0.023700098 -0.006459267 -0.0036114666 -0.042893477
000300 d7 8f d7 3c e6 48 e8 bc f0 13 98 bb 3a 59 9f bb
       0.026313705 -0.028355073 -0.0046410486 -0.0048629316
000310 61 6c 79 bc a7 f0 4c ba 0a 3b 53 3c af 39 cf bb
       -0.015223593 -0.00078178424 0.012892494 -0.006324015
000320 ca 1b 80 3b d7 7f 1d 3d de 10 06 3d 85 f2 ef bc
       0.0039095627 0.038451996 0.03273093 -0.029290447
000330 71 6c 3d bb 73 a6 58 3c 8d c5 1f 3d 80 31 b9 3c
       -0.0028903747 0.013223278 0.03900676 0.022606611
000340 49 4f 10 b6 78 a4 24 3d 95 a1 69 bc 97 78 a8 3c
       -2.1503822e-06 0.040195912 -0.014259716 0.020565314
000350 90 b1 43 3c 27 24 0c bd 2d 55 5a bc 17 d5 21 3b
       0.01194419 -0.034214165 -0.013325972 0.0024693662
000360 14 e7 0a 3d eb bf 9d 3c 7b 56 1c 3d 80 f7 d8 b8
       0.03391178 0.019256553 0.03816841 -0.00010345783
000370 8c ec 88 3c 63 bc 35 bc 99 f3 df 3c b4 42 35 bc
       0.016714357 -0.011092278 0.027337836 -0.011063267
000380 92 7f bb bc e1 76 0e bb 36 e8 09 bd 08 dc ca 3c
       -0.022887979 -0.0021738338 -0.03366872 0.024763122
000390 ea 1a 4b bc 54 ca 25 3d 92 56 f5 bc 2e 82 2f 3b
       -0.0123965535 0.04047616 -0.029948507 0.0026780474
0003a0 b3 4a ca bc ff 28 1a 3d 08 41 1f 3d 3a d5 ce 3b
       -0.024693822 0.037636753 0.038880378 0.0063120397
0003b0 cc da 0a bc 4b 69 29 bc 8e 15 d3 3b a4 df c0 3c
       -0.008475017 -0.010340045 0.0064417785 0.02354414
0003c0 9e f1 9b bc 6f 87 d2 3c 9a 09 fe bc 4c a2 c6 bb
       -0.01903611 0.025699345 -0.031010438 -0.0060618278
0003d0 99 05 67 bc 2e d9 c5 bb f9 40 86 bb 8b ef a8 3c
       -0.014100456 -0.0060378527 -0.004097101 0.020622035
0003e0 34 f3 dc 3b 41 4f ed bc 45 7e 1a bc 67 98 c7 3c
       0.0067428593 -0.028968455 -0.009429519 0.024364663
0003f0 3c ab f3 3c 57 ce 8a bc 71 bf d0 3c b0 37 20 3d
       0.029744737 -0.016944094 0.025481911 0.039115608

bias f4 [48]
000000 21 cc ff bb b1 17 4a bc 1e ec 88 bc 3c 99 1a bd
       -0.0078063165 -0.01233475 -0.016714152 -0.037743792
000010 b8 84 2e 3c 75 f5 f7 bc 69 92 04 bd ee 37 fe bb
       0.01065176 -0.03026841 -0.03236619 -0.007758132
000020 ea 5f ee bc b7 91 00 bb a3 88 87 3a 76 a5 f2 bc
       -0.02909847 -0.0019618103 0.0010340404 -0.029619914
000030 d2 69 a8 3c 58 b9 46 bc 29 62 9a 3c f0 3b 73 bb
       0.020558272 -0.01212915 0.018845635 -0.0037114583
000040 5a 04 f0 3b 1c 99 0c 3d ae e0 be 3c d2 5b dc ba
       0.0073247375 0.034325704 0.023300495 -0.0016812033
000050 3d 03 fb bb 6a 1e 8d 3c b5 51 ee bc df 4f bb 3c
       -0.007660298 0.017226417 -0.029091695 0.022865234
000060 20 e2 7f 3a a1 d0 b7 bc 36 24 53 3c 98 e3 57 3c
       0.0009761173 -0.02243835 0.012887051 0.013176821
000070 14 0b 6c bc 45 66 df ba e8 10 e9 3c 0d da 6f 3c
       -0.014406938 -0.0017044029 0.028450444 0.01463939
000080 53 82 af bc 66 35 c6 3c 49 0c a0 3c e7 d9 f5 bc
       -0.021424448 0.024195384 0.019537108 -0.03001113
000090 5d e8 96 3c 85 88 7f 39 4e f4 04 bd e5 e4 b1 3c
       0.018421346 0.00024369553 -0.03245955 0.02171559
0000a0 19 16 88 bc bd 25 94 bc ed 41 d9 bc f2 1e 85 3b
       -0.0166121 -0.018084401 -0.026520694 0.004062527
0000b0 16 c0 f4 bc 64 af 08 bc bb 19 dd bc 62 90 a6 3c
       -0.02987675 -0.008342598 -0.026989808 0.020332519

weight f4 [48]
000000 24 b7 7a 3f a3 79 7b 3f 9f 24 78 3f a3 c8 7a 3f
       0.979357 0.9823248 0.9693088 0.979624
000010 cb 42 7e 3f 89 05 7f 3f 3b 58 7c 3f 29 09 7b 3f
       0.9932067 0.9961782 0.9857213 0.9806085
000020 41 6f 7f 3f 85 9e 79 3f 8f 01 78 3f 13 80 7c 3f
       0.99779135 0.97507507 0.9687738 0.98632926
000030 b0 3b 7c 3f 8f 24 7d 3f 0d ed 78 3f 73 aa 7d 3f
       0.98528576 0.9888391 0.9723671 0.9908821
000040 73 80 7d 3f 8c 60 7d 3f ab 67 7e 3f a2 57 7c 3f
       0.9902412 0.98975444 0.99376935 0.9857122
000050 50 bf 7e 3f 6d 28 7c 3f 04 38 7d 3f 24 8a 7e 3f
       0.9951067 0.98499185 0.989136 0.99429536
000060 8e 46 7d 3f c4 3e 7c 3f cf cb 77 3f 79 06 7d 3f
       0.9893578 0.9853327 0.9679536 0.98838
000070 b1 7b 7c 3f 86 d0 7d 3f 0a 37 7e 3f f1 e5 7b 3f
       0.9862624 0.99146307 0.9930273 0.9839774
000080 8c 26 7e 3f 9f 92 7e 3f 8a 08 7e 3f 75 a5 7e 3f
       0.9927757 0.99442476 0.9923178 0.9947122
000090 26 5a 79 3f 6d 38 7d 3f 75 a9 78 3f 37 0e 7d 3f
       0.9740318 0.98914224 0.9713357 0.98849815
0000a0 06 e1 7e 3f d3 5f 7b 3f cb f2 79 3f 1e 92 7d 3f
       0.9956211 0.9819309 0.976361 0.9905108
0000b0 fa 6a 7b 3f e3 ab 7f 3f 09 da 7a 3f 23 37 78 3f
       0.9821011 0.99871653 0.97988945 0.9695913

bias f4 [48]
000000 ff f7 3b 3b 21 9d 23 3a 07 d8 3e 3b 60 ee 48 ba
       0.0028681753 0.00062413706 0.0029120462 -0.0007664915
000010 0a 13 54 3b 5f 0e ed 39 cf b4 79 3b 56 5d 36 ba
       0.003235998 0.0004521487 0.0038102155 -0.0006956657
000020 b7 ca 78 3a 2d f9 cc ba 87 e7 2b 39 40 3a 39 3b
       0.0009490656 -0.0015638225 0.00016394081 0.002826348
000030 61 5d 93 ba c8 45 87 39 0e 20 d9 3a 98 d7 36 ba
       -0.0011243039 0.00025801198 0.0016565339 -0.0006974875
000040 9c 2b c5 3a 2f 9c e0 3a 6a 0a 20 3b 8e f2 14 3b
       0.0015042904 0.001713639 0.002442027 0.0022727582
000050 12 1a f3 3b fe 89 d8 3a 43 ca d0 ba 73 fa 99 ba
       0.0074188793 0.0016520617 -0.0015929419 -0.0011747613
000060 6d a2 10 3b 5d 09 6a 3b 53 d5 03 3b fe 86 28 3b
       0.002206947 0.0035711147 0.0020116165 0.0025715227
000070 c4 15 a9 b9 36 8e ea ba 59 b0 e6 3a ea 2c 02 3b
       -0.0003225041 -0.0017895165 0.0017600163 0.0019863197
000080 06 96 48 bb 06 92 8c 3a 82 2b 66 3b 16 8d 1d 3b
       -0.0030607 0.0010724671 0.0035121148 0.0024040393
000090 b5 a4 b1 39 36 cc 10 3b dc de 0e b9 31 5c 32 3b
       0.00033882787 0.0022094375 -0.00013625197 0.0027215595
0000a0 0d 7a 6f 3b cf d1 c5 b9 74 2a f7 ba 64 76 4e 3b
       0.0036541254 -0.00037731088 -0.0018857257 0.0031503672
0000b0 75 6a 54 b9 81 5b 8e 39 59 89 20 3b 46 48 61 ba
       -0.00020257554 0.00027152526 0.0024495928 -0.00085938384

running_mean f4 [48]
000000 3b a4 d1 be b2 61 56 3e f5 88 8f be 06 46 3e 3d
       -0.4094561 0.20935705 -0.28034177 0.0464535
000010 f3 49 d6 be a2 56 0d be 1a 38 17 bd fd 72 6f 3e
       -0.41853294 -0.13802579 -0.036918737 0.23383708
000020 df 31 b3 bb a5 45 98 3e fb 93 a8 3c 57 5c 8d be
       -0.0054685916 0.29740635 0.020578375 -0.27609512
000030 b3 8c 75 3d 7b 66 37 3d 8f 92 79 bd 2a ae 01 3e
       0.059948634 0.044775467 -0.060930785 0.12664095
000040 d1 20 5f be bc dc bf be 05 20 5c bc e4 0e 83 3d
       -0.21789862 -0.37473094 -0.013435368 0.063993245
000050 2c f5 04 bf f9 f2 2c bd 0d 4f 62 3e 25 29 6f 3e
       -0.519366 -0.042223904 0.22100468 0.23355539
000060 31 ce 82 bc a0 88 3a be a2 b0 47 be 8e d8 17 be
       -0.01596746 -0.18216181 -0.19500974 -0.14828703
000070 66 dd 12 be b3 dd 19 3e a6 95 45 3d 9a cd 27 be
       -0.1434227 0.15025978 0.04823842 -0.16387025
000080 c6 20 10 3f 00 e5 76 bd 88 f4 44 be 57 b6 b7 bb
       0.5630001 -0.060276985 -0.19233906 -0.0056064534
000090 b7 d3 1e be 94 c9 5a be f7 a6 b3 bd 2b bf 23 bd
       -0.1551045 -0.21365958 -0.087720804 -0.039977234
0000a0 7d d3 73 be db 50 9f bb 87 e2 e4 3d cc 0a c2 b9
       -0.23811145 -0.0048619336 0.11176019 -0.00037010608
0000b0 48 3c 0f 3e f1 7b 1e bd 03 15 3c bd 9d b7 d8 3e
       0.13987839 -0.03869242 -0.045918476 0.42327586

running_var f4 [48]
000000 7f 5c dd 3d 70 4f c2 3d 0e aa c1 3d 62 29 2e 3e
       0.10808658 0.09487808 0.094562635 0.17007974
000010 07 b1 24 3e f5 6c bf 3d 88 7a b2 3d 0f e9 3d 3e
       0.16083156 0.09346954 0.08714777 0.18545936
000020 c4 ec ae 3d 9d 87 eb 3d 14 dc e8 3d a9 44 e9 3d
       0.08541253 0.115004756 0.113701016 0.11390049
000030 fd e1 bb 3d ae c6 c5 3d 4a c7 c8 3d 9c 5f d6 3d
       0.09173963 0.09657036 0.09803636 0.10467455
000040 af 8c ae 3d b6 cd 06 3e 56 f6 b2 3d 38 9f b0 3d
       0.08522927 0.1316441 0.08738391 0.086241186
000050 38 58 f2 3d 7b 47 b0 3d 54 84 b6 3d 19 a2 14 3e
       0.11833233 0.08607384 0.08911958 0.1451496
000060 cd b0 b8 3d 53 83 ba 3d 93 a5 06 3e be fa a8 3d
       0.09018097 0.09107079 0.13149099 0.0825095
000070 aa 13 d1 3d 7f 05 d4 3d 8b 59 e7 3d cf bb d8 3d
       0.10208829 0.10352611 0.11296376 0.10582697
000080 c1 82 07 3e ae b5 d2 3d 2f 25 d1 3d 0e b9 f8 3d
       0.13233472 0.10288559 0.1021217 0.121446714
000090 a6 2e bc 3d fd 50 0d 3e 1c c0 c0 3d 2d 84 d8 3d
       0.09188585 0.13800426 0.09411642 0.105720855
0000a0 e1 d2 d6 3d ae 1d a4 3d 43 07 a0 3d b0 07 8e 3d
       0.10489441 0.080134735 0.07813885 0.0693506
0000b0 96 5f 05 3e 2b 8e 9e 3d 07 43 dd 3d be 21 29 3e
       0.13024744 0.0774196 0.108038 0.16516778

weight f4 [6, 4800]
000000 f5 57 73 ba 65 6a af bb 3c 75 88 bb 01 cb 1a bc
       -0.0009282821 -0.0053532594 -0.004164366 -0.009447814
000010 e5 9f 09 bc 00 85 ad bc 4b 8e f0 ba 42 4e 55 bc
       -0.008399938 -0.021181583 -0.0018352953 -0.013019146
000020 d1 76 d3 bc 29 80 14 bc 77 6c bd bb 5a 04 66 3c
       -0.025813492 -0.009063759 -0.0057807523 0.014039123
000030 a4 46 89 bb 9c 0f 0c bc f4 36 17 bc fe 8a 10 bc
       -0.004189329 -0.008548643 -0.00922941 -0.008822201
000040 f7 c3 f5 3b 9e 79 6e bb fb 64 62 bc b9 77 db bb
       0.0075001675 -0.0036388407 -0.013818021 -0.0066976217
000050 71 36 68 bc ec 2a 78 bc c4 12 cd bb a8 47 18 bc
       -0.014173136 -0.015146952 -0.0062583406 -0.009294428
000060 31 11 34 3c 15 1f cb bb 34 e1 31 bc d3 37 86 bc
       0.010990427 -0.0061987736 -0.010856915 -0.016384041
000070 0c 36 ac bc ee bf 38 3c 3d 65 3b 3c f9 6c 8c bb
       -0.021021865 0.011276228 0.011437711 -0.0042854515
000080 d5 4c 24 3c 44 6e dd 3b 39 d9 ef 3b 59 b9 8e 3b
       0.010028084 0.0067575295 0.007319596 0.0043555913
000090 bf c5 8b bc 44 aa 9e bc 51 ab 84 bb ee 51 6b bc
       -0.017062066 -0.019368298 -0.004048743 -0.014362795
0000a0 b7 80 f1 bb cf 1b 12 3c 33 ff 47 bc b3 c0 48 3c
       -0.0073700803 0.008917763 -0.01220684 0.012252974
0000b0 ab 9a d6 bb eb 27 2c bc b7 66 87 bc 77 ef 1f bc
       -0.0065491996 -0.010507564 -0.01652847 -0.009761683
0000c0 55 fd 8e bc 79 62 a8 bb 36 95 b4 3b 88 bd 19 3c
       -0.017454783 -0.005138692 0.0055109514 0.009383567
0000d0 e5 6b 13 3c 9c 47 0b ba ed 93 68 3b 38 64 2b bc
       0.008997892 -0.00053131 0.0035488561 -0.010460906
0000e0 91 42 fa 3b c5 fe 50 3b 19 9b 8b bb 6a 52 2b bc
       0.00763733 0.0031890136 -0.0042604324 -0.010456661
0000f0 7d 7e 19 bb 62 47 c1 3b b4 a9 65 bb 9a 6d c4 3b
       -0.002342134 0.005898402 -0.0035043778 0.005994511
000100 04 84 eb ba 52 ad b7 3b 36 e3 17 3a 34 0e 9b bb
       -0.0017968421 0.005605378 0.000579405 -0.0047319178
000110 28 af 30 bc eb 29 4b bc d6 b6 64 3c 5f 09 e7 3b
       -0.010783948 -0.012400131 0.013959607 0.0070506777
000120 f6 38 13 3c ef 3a ae bb 92 d6 bf bb d2 a8 1e 3c
       0.0089857485 -0.005317084 -0.005854436 0.009683805
000130 98 16 38 3c cf c2 0b 3b 80 e3 28 bc e0 f8 7a bb
       0.0112358555 0.0021325832 -0.0103081465 -0.0038295314
000140 10 25 2d bb 01 17 42 3b f5 6f 27 bc 12 18 01 bc
       -0.0026419796 0.0029615762 -0.010219564 -0.007879274
000150 6c 46 04 bc ea 7f db ba 8d ab 41 bc 18 95 b3 bb
       -0.0080734305 -0.0016746495 -0.011820686 -0.00548042
000160 32 b8 49 bc b7 8b b9 bb 8d a5 1f 3c e0 12 c6 bb
       -0.012311982 -0.0056624073 0.00974406 -0.0060447305
000170 60 bb 3d 3c 82 35 43 bc b9 41 34 bc 2f 61 72 bc
       0.011580318 -0.011914613 -0.011001998 -0.014793678
000180 83 bd 0a 3c 62 86 33 bb 4f b0 f4 bb 19 c9 42 3c
       0.008468035 -0.002739333 -0.0074673067 0.011888766
000190 b2 82 13 bb 10 f8 1c 3c c5 bd 57 3c 05 fe 88 bb
       -0.002250832 0.009580627 0.013167803 -0.004180672
0001a0 4e 4f 13 bb a8 df e8 3b 94 e0 16 3c c4 13 50 bc
       -0.002247769 0.00710674 0.009208817 -0.012700025
0001b0 65 2e 0d bc 26 0b c2 3b 98 3d 91 bb 26 fa 80 3c
       -0.008617018 0.005921739 -0.0044323914 0.01574428
0001c0 5e bb be bb 5a 83 c3 ba 64 18 97 3b 70 b5 d2 b9
       -0.0058206758 -0.0014916465 0.004611062 -0.00040189503
0001d0 7f 55 36 3b f3 c4 18 bc c1 52 fc 3b 38 a5 15 3c
       0.0027821956 -0.0093243 0.0077002947 0.0091336295
0001e0 be af 6f 3c ea ac 06 3c 09 74 ae 3b 56 b8 86 3c
       0.014629303 0.008219937 0.005323891 0.01644532
0001f0 7c 38 16 bc 06 62 27 3c fb c9 67 3c 21 21 a5 3b
       -0.00916874 0.010216242 0.014147277 0.0050393497
000200 1e 3d 80 3c b1 c2 72 bc 0c 2c 00 ba 65 83 6f bb
       0.015654143 -0.014816926 -0.0004889376 -0.0036546823
000210 e0 cf ab 3c 76 e1 04 3c 85 55 32 bc 83 f3 b4 3b
       0.020973146 0.008110395 -0.010884647 0.005522193
000220 76 e9 4a bc af 4a 01 bb c9 d0 f2 3b 85 9a 1a 3c
       -0.012384763 -0.0019728353 0.007410143 0.009436254
000230 07 b0 cb bb f7 27 f7 3b f2 81 55 3a 14 8a 39 3c
       -0.0062160525 0.007542606 0.00081446685 0.011324424
000240 81 1d c6 3b f4 01 48 3c 4e b5 2b bc 5e 60 78 bc
       0.0060459976 0.012207497 -0.010480238 -0.0151596945
000250 e4 62 97 bb 77 78 4f 3c 1f 71 8e bb 6d 92 4d 3c
       -0.004619943 0.012662998 -0.004346981 0.012547118
000260 20 cb de 3b f9 45 01 3c b8 54 4f 3c ed 71 53 bb
       0.0067991167 0.007890218 0.012654476 -0.003226395
000270 ae 03 d1 bb 0a a5 4b 3c c2 95 f0 ba b7 58 3c 3c
       -0.0063786125 0.012429485 -0.0018355178 0.011495761
000280 bf 86 10 3c 70 6c 03 3c e0 90 04 3c 90 74 22 3c
       0.0088211885 0.008021459 0.0080911815 0.009915486
000290 a1 85 12 bb 4a 0e 8e bb bd da df 3b 70 f4 7d bc
       -0.002235748 -0.0043351995 0.0068314956 -0.015500173
0002a0 9d 56 a3 3a 8b 70 0f bc 2d 37 57 bc e3 c1 72 3c
       0.0012461726 -0.00875486 -0.0131357135 0.014816734
0002b0 13 a2 92 3a 7e 32 a6 bb 4b 61 f9 bb c1 80 e6 3a
       0.0011187218 -0.005071937 -0.007610475 0.0017585979
0002c0 7c c8 ad 3a 78 53 50 bc 2d c4 5f bc 4f 25 9f 3b
       0.0013258602 -0.012715213 -0.013657612 0.0048567425
0002d0 53 c3 c1 3b d3 6e dc 3b 09 97 a0 3b 35 a7 37 3c
       0.005913177 0.0067270785 0.0049008173 0.011209299
0002e0 09 8b 7a bb f0 9d 47 3c ec 48 83 bc 9a 85 8d 3b
       -0.0038229844 0.012183651 -0.016025983 0.004318905
0002f0 11 0c 4a bc d5 7d b3 3a 8e 7a 45 3c 75 f7 45 39
       -0.012331978 0.0013694117 0.012053145 0.00018879569
000300 0b 31 a8 b8 8b 96 a0 3b 25 73 46 3c 66 2e 25 bc
       -8.019999e-05 0.0049007586 0.0121124135 -0.010081863
000310 f8 83 64 3c 23 14 b1 3b 9c bf 68 bc ae 96 27 3c
       0.013947479 0.005404012 -0.0142058395 0.010228796
000320 95 c0 cd 3b 77 04 22 3c 8c 56 4b 3b 82 95 1b 3c
       0.006279061 0.00988876 0.0031026928 0.009496095
000330 37 53 9e bb f4 49 8d bc 24 a2 0f 3c 9e 84 b6 ba
       -0.0048316973 -0.017247178 0.008766685 -0.0013925021
000340 3f f1 8a bb 85 f3 9c bc 6e dc d9 3a f1 6b 9d bc
       -0.0042401846 -0.019159088 0.0016621479 -0.01921651
000350 1a 37 2c 3c 8d 52 eb 3b 58 9c 5e 3b 4f 5d 78 bb
       0.010511184 0.0071814717 0.00339677 -0.0037897413
000360 43 0c 0a bc 28 f3 a8 3b 0b 0a bc 3b 8c 62 a2 3b
       -0.008425775 0.0051559396 0.005738502 0.0049555954
000370 59 65 da 38 4f cd 1e bb 7c d9 3e ba a0 c1 14 bc
       0.000104139275 -0.002423126 -0.00072803325 -0.009079367
000380 cc f6 9a bb 10 97 4b bc 0a 72 8d bb 9f 5b 8d 3b
       -0.0047291275 -0.012426153 -0.004316573 0.0043139006
000390 12 35 04 3c 06 93 ee 3b f7 ee 83 3c af 4c 72 3b
       0.008069294 0.00728071 0.016105158 0.0036971977
0003a0 f6 36 a1 3c 83 c0 4a 3a 77 52 87 3b e6 88 34 bc
       0.019679528 0.0007734375 0.0041297036 -0.011018967
0003b0 50 ba 34 3c 64 e6 16 bc 63 b3 8b ba 84 b0 19 bc
       0.0110307485 -0.009210203 -0.001065832 -0.0093804635
0003c0 36 a1 ba bb 19 83 e5 3a d5 12 3d 3c 66 87 18 bc
       -0.0056954874 0.0017510384 0.011540134 -0.009309625
0003d0 be b6 c0 3b 6f d8 43 3c ff fc 4e bb c9 2a 68 3c
       0.0058811596 0.011953457 -0.0031583903 0.014170357
0003e0 5b e4 0d bc 6b 54 31 bc 0d cc d0 bc 72 ff 01 bc
       -0.008660401 -0.0108233495 -0.025487924 -0.007934438
0003f0 16 cc 2f bc a5 29 2c 3c 97 e4 26 bc ec 22 05 bc
       -0.01072981 0.010507976 -0.010186336 -0.008126002

bias f4 [6]
000000 15 60 51 bc e2 ba 28 3c 6c 87 1b bc be cc f3 3b
       -0.012779255 0.010298463 -0.009492736 0.0074401787
000010 29 ce 12 3c bc da 36 bc
       0.008960285 -0.011160549
