data/model.pt (torch, 289867 bytes, 26 tensors)

weight f4 [12, 3, 5, 5]
0.06373569 -0.01936619 0.073227465 0.031566937 -0.027478762 0.039559394 0.0749855 -0.046815734
-0.035760693 -0.10182067 0.0032129937 -0.0010240724 0.09163142 0.010433659 0.07630546 -0.07421535
-0.023853756 0.10103451 -0.049126036 -0.06608314 0.017045368 -0.087896846 -0.097177856 0.10827233
0.028784 0.04388684 0.020426104 0.034355287 -0.04910367 0.117637195 0.03348666 0.094281785
-0.09719919 -0.08249406 0.027382482 0.11426522 0.11776244 0.011366873 0.07474951 0.012058511
0.0013917702 -0.03528448 -0.06757328 0.029725896 -0.011059716 -0.09554718 -0.06889395 0.09940326
-0.05209557 -0.058575306 -0.085386 -0.011285769 0.06327407 -0.11102718 0.035006434 -0.061302815
-0.004033817 0.10327703 -0.02652883 -0.096814066 0.059710518 -0.05873022 -0.114534736 0.038152922
0.045093723 -0.055601258 0.04426274 0.03943841 0.11453026 0.0524421 0.0022498278 0.08985977
-0.052400883 -0.036861405 0.05196618 0.0065204543 -0.11348319 -0.058463693 -0.057766855 -0.047868
0.07819945 -0.058898225 -0.06428715 -0.009991373 -0.008692122 -0.03887855 -0.08252324 -0.025801405
-0.04113296 0.10033542 0.078668274 0.020471565 -0.03739278 0.099484585 0.015658943 0.08454128
-0.028585464 -0.051519193 -0.038219146 -0.02909548 0.06367133 0.029044775 -0.08773022 0.09401561
0.08480903 0.11399762 -0.016049853 0.08194078 0.10704251 -0.10522787 -0.10523494 0.044612486
0.11597744 0.055111103 -0.062865585 0.054039028 -0.025338123 0.010381553 0.08666761 -0.016106604
0.09167015 -0.0798225 -0.097177856 -0.0048054457 0.10644995 0.034264464 0.11183287 0.06648819
-0.082035035 -0.011042339 -0.092493854 -0.060173128 -0.060653552 -0.045973953 -0.034839094 -0.04884977
0.016744174 0.01632109 -0.00060054555 -0.10208156 -0.012636209 0.10133378 -0.008339511 0.016925968
0.005574104 -0.025693508 -0.0076183258 0.030078728 0.09280346 0.04718374 0.10490453 0.030855464
-0.04819419 -0.11398031 0.05300157 -0.028087556 0.06682667 -0.091552 -0.08553726 0.102175765
-0.07577622 0.01884473 0.008410698 0.034312595 0.11180671 0.11612157 0.019575577 -0.025684241
-0.08866009 -0.06864778 0.0935313 0.099291705 -0.027253635 0.1117735 0.020297756 -0.06801311
-0.075425915 0.077449195 0.040972516 0.035335258 0.051462986 -0.0952698 0.054041408 -0.09447012
-0.10222829 0.115943186 0.09718504 0.057153266 -0.0066099614 0.05920349 -0.0026824882 0.045806915
0.03665151 0.10939376 -0.08929327 0.112960294 -0.054501683 0.070784904 -0.023233395 0.100502685
0.061778035 -0.03398602 -0.031791795 -0.045588266 0.11526237 0.0689536 0.020890897 -0.0904086
-0.039101813 0.09175258 0.03746862 0.079057746 0.060765926 0.11107446 0.101226665 -0.033343367
0.11246008 0.08267724 0.07505273 0.10485336 -0.062279493 0.06316023 -0.06117621 0.045485385
-0.05134621 0.01838 0.067743376 0.06598029 -0.023132162 -0.038249876 -0.109363444 -0.056490246
0.013017966 0.052807465 -0.06241433 -0.007001948 0.11388816 0.104025066 0.06121988 -0.049428154
0.014815282 -0.08752779 0.10725455 -0.08927017 -0.01646328 -0.057600915 0.09110229 0.008711209
0.016056193 0.091004446 -0.07483427 -0.018144643 -0.02687086 -0.07419079 -0.10346606 0.078436926
00000000: dc87 823d d8a5 9ebc 48f8 953d 554c 013d
00000010: 241b e1bc 0809 223d ff91 993d dbc1 3fbd
00000020: ce79 12bd 5b87 d0bd 1791 523b 2b3a 86ba
00000030: 41a9 bb3d f0f1 2a3c 0946 9c3d 38fe 97bd
00000040: f468 c3bc 2eeb ce3d 6238 49bd 9956 87bd
00000050: baa2 8b3c 4303 b4bd 2f05 c7bd e2bd dd3d
00000060: 6ccc eb3c b0c2 333d a554 a73c 21b8 0c3d
00000070: ee20 49bd c5eb f03d 4f29 093d cf16 c13d
00000080: 5e10 c7bd a5f2 a8bd 3a51 e03c e203 ea3d
00000090: 6f2d f13d 1f3c 3a3c 4516 993d 1091 453c
000000a0: 0f6c b63a 7586 10bd dc63 8abd b983 f33c
000000b0: d033 35bc 3dae c3bd 4518 8dbd f093 cb3d
000000c0: 2a62 55bd a9ec 6fbd dbde aebd f2e7 38bc
000000d0: d695 813d 3862 e3bd e862 0f3d a918 7bbd
000000e0: 1c2e 84bb e882 d33d fd52 d9bc 7446 c6bd
000000f0: 0493 743d 198f 70bd 3091 eabd 3d46 1c3d
00000100: 32b4 383d 25be 63bd d94c 353d 2c8a 213d
00000110: d78e ea3d 87cd 563d d971 133b 6608 b83d
00000120: 4fa2 56bd fcfb 16bd 7dda 543d 89a9 d53b
00000130: e069 e8bd a077 6fbd f09c 6cbd 3c11 44bd
00000140: 0927 a03d 443f 71bd fba8 83bd dbb2 23bc
00000150: 6769 0ebc 1d3f 1fbd f201 a9bd 785d d3bc
00000160: 097b 28bd a87c cd3d d51c a13d fcb3 a73c
00000170: 2c29 19bd 93be cb3d 2f47 803c fb23 ad3d
00000180: 102c eabc ca05 53bd ae8b 1cbd a559 eebc
00000190: 1d66 823d 4fef ed3c e7ab b3bd 428b c03d
000001a0: 5bb0 ad3d 9677 e93d fb7a 83bc 91d0 a73d
000001b0: 1a39 db3d b681 d7bd 6b85 d7bd 95bb 363d
000001c0: 9485 ed3d 2ebc 613d acbf 80bd 0758 5d3d
000001d0: e591 cfbc 6417 2a3c ca7e b13d fff1 83bc
000001e0: 8fbd bb3d fb79 a3bd 2f05 c7bd 0077 9dbb
000001f0: 6e02 da3d e558 0c3d a208 e53d f62a 883d
00000200: fc01 a8bd edea 34bc 6b6d bdbd 1978 76bd
00000210: dc6f 78bd 2f4f 3cbd 70b3 0ebd b216 48bd
00000220: 142b 893c ceb3 853c ee6d 1dba 2310 d1bd
00000230: 1a08 4fbc 1688 cf3d 72a2 08bc 54a8 8a3c
00000240: f9a6 b63b 317b d2bc 26a3 f9bb aa67 f63c
00000250: be0f be3d bd43 413d 30d8 d63d 99c4 fc3c
00000260: 4567 45bd 826e e9bd 2d18 593d e017 e6bc
00000270: 6cdc 883d 9d7f bbbd 292e afbd 8741 d13d
00000280: 9030 9bbd 4360 9a3c 06cd 093c 5d8b 0c3d
00000290: ebfa e43d 25d1 ed3d f65c a03c c267 d2bc
000002a0: 6c93 b5bd 3597 8cbd 578d bf3d 7359 cb3d
000002b0: 0443 dfbc 81e9 e43d 7b47 a63c 754a 8bbd
000002c0: e778 9abd af9d 9e3d ccd2 273d b4bb 103d
000002d0: daca 523d d01c c3bd 865a 5d3d 8d79 c1bd
000002e0: 115d d1bd 9f73 ed3d f308 c73d 8b19 6a3d
000002f0: 6098 d8bb 5c7f 723d afcc 2fbb 08a0 3b3d
00000300: e51f 163d d609 e03d 64df b6bd ba57 e73d
00000310: 283d 5fbd adf7 903d f653 bebc 5ad4 cd3d
00000320: f70a 7d3d ed34 0bbd 1d38 02bd c3ba 3abd
00000330: ad0e ec3d 8c37 8d3d 6323 ab3c 2528 b9bd
00000340: 3929 20bd c7e8 bb3d b278 193d 07e9 a13d
00000350: b1e5 783d 027b e33d ed4f cf3d 0e93 08bd
00000360: 7851 e63d af52 a93d 3fb5 993d 5cbd d63d
00000370: c818 7fbd 275a 813d e893 7abd e24e 3a3d
00000380: 6750 52bd a791 963c 0abd 8a3d ad20 873d
00000390: a97f bdbc e7ab 1cbd f1f9 dfbd 5162 67bd
000003a0: 4f49 553c a44c 583d 2ba6 7fbd 9970 e5bb
000003b0: 323e e93d 180b d53d b2c1 7a3d 2d75 4abd
000003c0: ccbb 723c c541 b3bd 46a8 db3d 47d3 b6bd
000003d0: 00de 86bc f0ee 6bbd d693 ba3d 75b9 0e3c
000003e0: 4788 833c 8a60 ba3d b642 99bd 13a4 94bc
000003f0: 4720 dcbc 57f1 97bd 03e6 d3bd 8aa3 a03d

bias f4 [12]
-0.09209988 0.104632914 -0.005912863 -0.095469005 0.10493412 0.055844758 -0.031826112 0.064951524
0.01574963 0.061155114 -0.10095197 -0.028411184
00000000: dd9e bcbd c849 d63d b1c0 c1bb 4185 c3bd
00000010: b3e7 d63d 79bd 643d 195c 02bd 4e05 853d
00000020: 5e05 813c c97d 7a3d e8bf cebd 92be e8bc

weight f4 [12]
1.0065293 1.0088147 1.0009843 1.0117007 1.003576 1.0048264 1.0040983 1.0062923
1.0022203 1.0052052 1.0106472 1.0028528
00000000: f4d5 803f d720 813f 4120 803f 697f 813f
00000010: 2e75 803f 279e 803f 4b86 803f 30ce 803f
00000020: c148 803f 90aa 803f e35c 813f 7b5d 803f

bias f4 [12]
0.0017575368 0.0032737528 0.0012418904 0.006597255 0.0009228229 0.00081742817 0.0019874878 0.00066502276
0.00013244516 0.0016567952 0.0038591265 0.0008927745
00000000: 265d e63a 758c 563b edc6 a23a c92d d83b
00000010: 99e9 713a ad48 563a 8340 023b ec54 2e3a
00000020: fae0 0a39 d228 d93a 66e9 7c3b 1509 6a3a

running_mean f4 [12]
0.052686032 0.120386876 0.7163594 -0.12468141 0.3766486 0.04449985 0.4007751 -0.06998832
-0.34485933 -0.18391703 -0.08721934 -0.46135473
00000000: 4fcd 573d 658d f63d 5463 373f f858 ffbd
00000010: 16d8 c03e 7a45 363d 6532 cd3e 0956 8fbd
00000020: 6791 b0be bf54 3cbe 0ea0 b2bd b036 ecbe

running_var f4 [12]
0.010724989 0.008019567 0.14903511 0.01834194 0.02639229 0.015942212 0.056631498 0.013472263
0.038066007 0.02172233 0.0064907074 0.06451039
00000000: ddb7 2f3c 8064 033c a99c 183e d641 963c
00000010: a534 d83c 3e99 823c 6ef6 673d c4ba 5c3c
00000020: 1aeb 1b3d 07f3 b13c 00b0 d43b 061e 843d

weight f4 [12, 12, 5, 5]
-0.0022308198 0.0059695863 -0.04723183 -0.01667663 -0.05420032 -0.020179879 -0.037013527 -0.039729442
-0.023875445 -0.01028487 0.052762266 -0.037259348 0.016797375 -0.012345155 -0.027367748 -0.05017031
-0.021461358 -0.023142815 -0.049061157 0.03877188 -0.018342752 0.0052018748 -0.024296835 -0.046583217
-0.050706174 0.003359156 -0.05605308 0.023663977 -0.011323891 0.04127731 0.034340035 -0.033436462
-0.026283095 0.043815512 -0.024215069 0.0091640055 -0.03228059 0.04642628 -0.041712552 -0.05059618
0.0139772305 0.022444215 0.04608634 0.007298115 -0.027962074 0.021887776 0.013299373 0.04012701
-0.00030077275 -0.019542376 -0.037339583 -0.02415006 0.023041707 -0.0128973005 -0.041173123 0.05459863
-0.0077118194 -0.026618768 -0.0013226867 0.049531393 0.0041950583 -0.0064986083 -0.0134387035 0.02957844
0.014751201 0.006201574 0.03416842 0.04346282 0.05724794 -0.0023563749 -0.04949639 -0.03108711
0.03315764 0.038341064 0.03805902 0.006787528 0.026274763 -0.005064325 0.018916823 -0.01651966
-0.00019236407 -0.023786137 0.059975874 0.02732708 -0.015355818 -0.022510748 0.048798613 -0.02507206
0.014985219 0.017330993 0.009076157 0.009879247 -0.050192215 0.0142906625 0.032948285 -0.009086301
0.055874128 0.036627747 -0.051480148 0.014303651 -0.011416742 -0.025844922 0.004393509 -0.051297884
0.0086297365 -0.03779407 -0.0023823099 -0.048173197 -0.011419276 0.030006139 0.027041746 -0.048526656
-0.056397457 -0.032230753 -0.032693587 0.02686948 0.05001535 -0.05382303 -0.012701192 -0.040725693
0.005601903 0.03078306 0.01720508 -0.041515082 0.055330887 -0.031100556 -0.030801976 0.042502105
0.053829893 -0.034181222 0.013844374 -0.054725308 -0.034713082 -0.04790741 -0.01881252 0.05130558
0.037238006 0.017497119 -0.05510083 -0.046006255 0.019749904 0.004900339 0.000894407 -0.039531067
0.033149883 -0.046007074 0.048084095 0.022257691 -0.023134623 0.042695377 -0.05609724 0.040209986
0.04303283 -0.005093069 0.03011216 -0.034217816 -0.009226583 0.025094327 0.0010205071 -0.048767645
0.023448735 -0.02898445 0.037314422 0.042132687 -0.005940156 -0.02116966 0.05358139 0.05987435
0.045289885 -0.018396946 0.008406764 -0.017832138 0.0016033626 -0.027567241 -0.054764852 0.05243777
-0.03250862 -0.04893565 -0.05268298 -0.041270792 0.01637671 7.094614e-05 -0.007756931 -0.0327672
0.058112975 -0.041556813 -0.0015070252 0.0016309288 0.036102943 0.0126091 0.025124032 0.048659913
-0.051167388 -0.052138418 -0.054291576 0.053862434 -0.041461337 -0.018403184 -0.0075805713 0.056648906
0.01089527 -0.01536695 0.05430554 0.04134624 0.037712738 0.0002948102 0.0060151014 0.025127422
0.00044988026 0.058336128 0.039857592 -0.01963663 0.041208256 -0.029644147 -0.04179205 -0.046987765
-0.033939563 0.03628641 0.011078608 -0.04970039 -0.04883335 0.051363133 0.012665154 0.055656854
-0.010425949 0.0016930576 0.025984813 -0.022853158 -9.742039e-05 0.0073146154 0.015336409 0.045544203
0.0307087 -0.04433712 -0.01850933 -0.030246375 -0.028669504 -0.041226618 0.018964764 0.059558183
0.04689634 -0.033143237 0.030784562 -0.00796338 0.0057850075 0.01709578 0.02059455 0.011416679
-0.03640749 0.043495975 -0.053180818 -0.016004238 0.021316256 0.012696516 0.019771008 -0.012511593
00000000: f232 12bb 859c c33b 2a76 41bd 6e9d 88bc
00000010: 2801 5ebd 4650 a5bc 7f9b 17bd 57bb 22bd
00000020: 7096 c3bc df81 28bc 3f1d 583d 429d 18bd
00000030: a69a 893c 5543 4abc 5432 e0bc 627f 4dbd
00000040: bbcf afbc 0096 bdbc 5af4 48bd 43cf 1e3d
00000050: 8a43 96bc 7d74 aa3b 280a c7bc 0bce 3ebd
00000060: 47b1 4fbd 4925 5c3b ea97 65bd f5da c13c
00000070: d787 39bc 6612 293d 23a8 0c3d acf4 08bd
00000080: a54f d7bc e577 333d ae5e c6bc a024 163c
00000090: a738 04bd 7c29 3e3d c8da 2abd f13d 4fbd
000000a0: c100 653c eedc b73c 08c5 3c3d 0725 ef3b
000000b0: b810 e5bc fe4d b33c 9de5 593c 385c 243d
000000c0: 09b1 9db9 5517 a0bc 64f1 18bd 59d6 c5bc
000000d0: f6c1 bc3c 334f 53bc 26a5 28bd d0a2 5f3d
000000e0: 6eb3 fcbb 9a0f dabc 005e adba 6ee1 4a3d
000000f0: b376 893b 47f2 d4bb 022e 5cbc 7c4e f23c
00000100: 05af 713c 9336 cb3b 2ff4 0b3d 1206 323d
00000110: d17c 6a3d 696d 1abb babc 4abd 65aa febc
00000120: 4ed0 073d 850b 1d3d c6e3 1b3d e969 de3b
00000130: 2c3e d73c a3f2 a5bb 74f7 9a3c 3d54 87bc
00000140: 56b5 49b9 25db c2bc 43a9 753d 0add df3c
00000150: f896 7bbc 7668 b8bc 0ee1 473d ec63 cdbc
00000160: 9084 753c baf9 8d3c 29b4 143c 91dc 213c
00000170: 5a96 4dbd 6223 6a3c c8f4 063d b5de 14bc
00000180: 45dc 643d fa06 163d d9dc 52bd dc59 6a3c
00000190: 490d 3bbc bbb8 d3bc 6df7 8f3b bb1d 52bd
000001a0: bd63 0d3c f4cd 1abd 8720 1cbb 4251 45bd
000001b0: ea17 3bbc 6fcf f53c a786 dd3c e3c3 46bd
000001c0: 0501 67bd 6504 04bd b6e9 05bd 621d dc3c
000001d0: e5dc 4c3d 8a75 5cbd a918 50bc fccf 26bd
000001e0: 2b90 b73b c12c fc3c abf1 8c3c b80b 2abd
000001f0: a4a2 623d 98c6 febc 6d54 fcbc b016 2e3d
00000200: bc7c 5c3d 9c01 0cbd 83d3 623c a527 60bd
00000210: 4e2f 0ebd 8f3a 44bd b71c 9abc cd25 523d
00000220: e186 183d 1e56 8f3c 68b1 61bd 0e71 3cbd
00000230: 8dca a13c 0693 a03b a376 6a3a 54eb 21bd
00000240: 2cc8 073d ea71 3cbd d4f3 443d c355 b63c
00000250: d284 bdbc 59e1 2e3d 38c6 65bd 3ab3 243d
00000260: 3143 303d c2e3 a6bb c7ad f63c fb27 0cbd
00000270: 182b 17bc 9e92 cd3c 89c2 853a 95c0 47bd
00000280: 9017 c03c cc70 edbc 02d7 183d 5393 2c3d
00000290: a4a5 c2bb ff6b adbc 2978 5b3d ce3e 753d
000002a0: e381 393d 31b5 96bc 86bc 093c b414 92bc
000002b0: ec27 d23a b2d4 e1bc 1c51 60bd fdc8 563d
000002c0: c227 05bd c070 48bd 1cca 57bd 900b 29bd
000002d0: 7328 863c ebc8 9438 da2d febb e636 06bd
000002e0: df07 6e3d 7a37 2abd 6087 c5ba e4c4 d53a
000002f0: aee0 133d 6696 4e3c ead0 cd3c 9e4f 473d
00000300: e594 51bd 188f 55bd d860 5ebd db9e 5c3d
00000310: 5dd3 29bd 46c2 96bc 7166 f8bb af08 683d
00000320: 1382 323c a9c5 7bbc 7c6f 5e3d ad5a 293d
00000330: ac78 1a3d c190 9a39 541a c53b 06d8 cd3c
00000340: e8dd eb39 ddf1 6e3d b741 233d ffdc a0bc
00000350: fdc9 283d 48d8 f2bc 242e 2bbd 3e76 40bd
00000360: 3604 0bbd 0fa1 143d 0d83 353c a392 4bbd
00000370: 7b05 48bd 2662 523d 8281 4f3c 71f8 633d
00000380: 99d1 2abc 96e9 dd3a 1ade d43c 8c36 bbbc
00000390: 2c4e ccb8 71af ef3b 9045 7b3c 8f8c 3a3d
000003a0: d090 fb3c d79a 35bd e1a0 97bc 3fc7 f7bc
000003b0: 4fdc eabc 3edd 28bd fe5b 9b3c 48f3 733d
000003c0: 6016 403d 34c1 07bd e82f fc3c d678 02bc
000003d0: 2990 bd3b 730c 8c3c e7b5 a83c 060d 3b3c
000003e0: 0520 15bd d628 323d 21d4 59bd 521b 83bc
000003f0: 6e9f ae3c 0c05 503c cff6 a13c 6dfd 4cbc

bias f4 [12]
-0.0035116381 -0.023164485 -0.02333667 0.037008855 0.04568156 -0.005724731 0.029023895 -0.047851097
-0.037965428 0.024720524 -0.02054309 0.00921151
00000000: 8323 66bb 72c3 bdbc 8b2c bfbc 9996 173d
00000010: 961c 3b3d 8696 bbbb 85c3 ed3c 83ff 43bd
00000020: a381 1bbd b282 ca3c fb49 a8bc e0eb 163c

weight f4 [12]
1.007475 1.0066285 1.0139968 1.0091069 1.0091771 1.0035686 1.0070902 1.0056462
1.0053527 1.0059146 1.0046015 1.0096021
00000000: f1f4 803f 34d9 803f a6ca 813f 6a2a 813f
00000010: b72c 813f f074 803f 55e8 803f 04b9 803f
00000020: 66af 803f cfc1 803f c896 803f a43a 813f

bias f4 [12]
0.0007624344 0.00075237796 0.006416071 0.0035206142 0.0011252074 0.0036421102 -0.0012568068 -0.0008083028
0.0027063964 0.000268266 0.0045054117 0.0018259682
00000000: 1bde 473a 3b3b 453a e83d d23b 1bba 663b
00000010: b27b 933a 78b0 6e3b 70bb a4ba 48e4 53ba
00000020: cc5d 313b 0ea6 8c39 22a2 933b 5355 ef3a

running_mean f4 [12]
-0.27383238 0.12068828 -0.37360778 -0.20581266 -0.22815228 -0.24487308 -0.058138188 0.050221965
0.06985766 0.23519515 -0.25745833 -0.22468306
00000000: c233 8cbe 6b2b f73d 8549 bfbe 8ec0 52be
00000010: c0a0 69be 02c0 7abe 4f22 6ebd 8cb5 4d3d
00000020: 8811 8f3d ffd6 703e 94d1 83be 5113 66be

running_var f4 [12]
0.07710299 0.10646126 0.044592828 0.105260044 0.06839583 0.1688685 0.11616001 0.082109876
0.1804527 0.076326005 0.17591646 0.13177265
00000000: 2ce8 9d3d 5c08 da3d f8a6 363d 9492 d73d
00000010: 1d13 8c3d ddeb 2c3e 4de5 ed3d 3929 a83d
00000020: 98c8 383e cf50 9c3d 7223 343e 69ef 063e

weight f4 [24, 12, 5, 5]
0.02487418 -0.015750535 0.046873335 0.0079048015 -0.035181455 0.05482795 0.008877551 0.0021244462
0.021072982 -0.028375987 0.04107857 0.0051971213 -0.037025437 0.02631246 -0.007937699 -0.028615136
0.05555136 0.043641407 -0.025144031 -0.0061288923 -0.02957674 0.02453599 -0.039605044 0.0036526006
0.061482318 0.019827971 -0.010859963 -0.04995834 -0.043471206 -0.011104521 0.007394268 0.051506918
0.05555226 0.015208953 -0.02972431 -0.01064431 0.033761427 -0.006797699 0.025890253 -0.02756643
-0.04936876 -0.0045720707 0.01708527 0.036045168 -0.023860961 -0.034858894 0.013508317 -0.03350565
0.004678385 0.0421602 -0.025304852 -0.022346249 -0.051131487 -0.02592643 0.0034783059 0.02891922
-0.03497243 0.035898287 0.05272871 0.014248531 0.026730798 0.018107137 0.037352048 0.029676184
-0.02480902 0.011682392 0.040016066 0.060199708 0.062108852 -0.014287887 -0.018333837 0.024391422
0.031020222 -0.0364632 -0.0068993475 -0.018796075 0.0165154 -0.0060251863 -0.0011709586 0.03619248
0.01776486 0.055194523 0.03782458 -0.022401206 0.042930268 0.022125212 -0.040036626 -0.032452174
-0.02541746 -0.055200145 0.008761813 -0.023218036 -0.020182949 0.022137737 0.024459202 -0.02886107
-0.03127808 0.02230304 0.003245063 -0.012320464 -0.0063396096 -0.03154324 0.016840167 -0.054755516
0.027343629 0.051322225 0.042138945 -0.009246195 -0.012511443 -0.011585422 0.033167217 -0.02823555
0.014483698 0.05806237 0.038270198 -0.029953795 -0.047051962 -0.05415032 -0.03213184 -0.018303772
0.014604585 0.03832981 -0.011443437 0.009982491 0.04319149 -0.027596675 -0.0008264008 0.046428535
0.056788035 -0.0047740215 -0.001241286 -0.0021841016 0.030938774 0.0028081618 -0.044618037 -0.010713626
-0.01893278 -0.027866175 0.0016473823 0.005713052 -0.018524915 -0.041777477 -0.045796268 -0.05127609
-0.007939545 0.0052259658 0.0069230394 -0.028979475 0.0405917 0.02791825 0.030058898 0.009095417
-0.010600805 -0.007564822 -0.05211892 0.05907616 -0.010702213 -0.010200921 -0.038538765 -0.004086736
-0.0116214715 -0.017704146 -0.04785355 0.04380315 0.002573786 -0.030811647 -0.04264099 0.03703198
-0.027679192 0.018818231 -0.025898324 0.024990873 -0.03009969 0.00023186221 0.008323958 0.05187686
0.026069555 0.0014148649 0.020966152 0.0008061026 -0.0067808437 -0.04730573 -0.019565195 0.034872893
-0.020475015 0.04391334 0.04273664 0.0422752 -0.045223463 -0.026317906 0.028085714 0.043696772
0.0039527626 -0.037292123 -0.047593568 -0.02281884 0.005931865 0.021576587 0.023751328 0.04981774
-0.039617904 0.021973304 -0.046761423 0.01162216 -0.03171843 0.060243003 0.041782327 -0.030593675
0.030287813 -0.040967997 0.05001537 -0.03675714 -0.015324364 0.01783831 0.031178884 0.054941773
0.02993226 0.017147277 0.05474238 -0.040258627 0.033899557 0.03490925 0.005233013 -0.0061760508
0.017512292 -0.015579281 -0.040978234 0.011947259 0.055406693 -0.008434516 -0.033795394 -0.055123094
0.009629052 0.034790777 -0.0042779646 -0.032679338 0.0072735394 -0.002021363 0.04197815 -0.047909424
-0.03994064 -0.044534232 -0.036513954 -0.0244578 0.011010493 -0.01203189 0.009135454 0.014664231
0.009902075 -0.030476302 -0.03109202 0.02962133 -0.033051528 -0.040140565 0.02686089 -0.03251747
00000000: f0c4 cb3c 4407 81bc 41fe 3f3d 2483 013c
00000010: 6e1a 10bd 4693 603d 2673 113c 4b3a 0b3b
00000020: 3fa1 ac3c c274 e8bc 0142 283d 9d4c aa3b
00000030: fca7 17bd 3a8d d73c 1f0d 02bc 4a6a eabc
00000040: d389 633d 55c1 323d dbfa cdbc e0d4 c8bb
00000050: eb4a f2bc b3ff c83c e638 22bd 7860 6f3b
00000060: e2d4 7b3d 456e a23c fced 31bc 1ea1 4cbd
00000070: dd0e 32bd bdef 35bc 9e4b f23b ebf8 523d
00000080: c48a 633d f92e 793c 6580 f3bc 7965 2ebc
00000090: 6c49 0a3d 3bbf debb cc17 d43c fed2 e1bc
000000a0: e636 4abd 4fd1 95bb 68f6 8b3c 19a4 133d
000000b0: 1078 c3bc 33c8 0ebd fd51 5d3c 383d 09bd
000000c0: 234d 993b 2db0 2c3d 1f4c cfbc 7b0f b7bc
000000d0: 406f 51bd aa63 d4bc 4af4 633b 00e8 ec3c
000000e0: 403f 0fbd 150a 133d 0ffa 573d ac72 693c
000000f0: 8cfa da3c 6b55 943c 76fe 183d 781b f33c
00000100: 493c cbbc 8167 3f3c e3e7 233d f893 763d
00000110: da65 7e3d be17 6abc d830 96bc 85d0 c73c
00000120: 1f1e fe3c 705a 15bd ec13 e2bb 3afa 99bc
00000130: 4e4b 873c ed6e c5bb da7a 99ba 913e 143d
00000140: 9d87 913c a713 623d f2ed 1a3d bc82 b7bc
00000150: a6d7 2f3d ef3f b53c 72fd 23bd 92ec 04bd
00000160: 4738 d0bc 8c19 62bd b58d 0f3c c033 bebc
00000170: b656 a5bc 335a b53c aa5e c83c 0d6e ecbc
00000180: 721d 00bd ddb4 b63c 1fab 543b c5db 49bc
00000190: 80bc cfbb 7c33 01bd 64f4 893c 5247 60bd
000001a0: bfff df3c 4137 523d e399 2c3d 5a7d 17bc
000001b0: ccfc 4cbc c8d0 3dbc 59da 073d 3d4e e7bc
000001c0: 084d 6d3c cfd2 6d3d 36c1 1c3d a961 f5bc
000001d0: 8fb9 40bd bacc 5dbd ad9c 03bd cbf1 95bc
000001e0: 1248 6f3c b8ff 1c3d 417d 3bbc 9a8d 233c
000001f0: 8fe9 303d 6c12 e2bc d2a2 58ba d92b 3e3d
00000200: 929a 683d 656f 9cbb a6b2 a2ba 2523 0fbb
00000210: 5073 fd3c 2309 383b 67c1 36bd 3488 2fbc
00000220: eb18 9bbc 9b47 e4bc faec d73a 8e34 bb3b
00000230: 90c1 97bc dc1e 2bbd de94 3bbd e106 52bd
00000240: de14 02bc 943e ab3b aada e23b 5d66 edbc
00000250: 7b43 263d d0b4 e43c 143e f63c f204 153c
00000260: 00af 2dbc 54e2 f7bb a67a 55bd d8f9 713d
00000270: 5658 2fbc c421 27bc d3da 1dbd 07ea 85bb
00000280: fc67 3ebc 4908 91bc 1602 44bd ef6a 333d
00000290: f7ac 283b b568 fcbc 52a8 2ebd d8ae 173d
000002a0: 79bf e2bc b128 9a3c b928 d4bc a9b9 cc3c
000002b0: a093 f6bc 0a20 7339 3661 083c d57c 543d
000002c0: d28f d53c fd72 b93a 35c1 ab3c a150 533a
000002d0: d731 debb a7c3 41bd 3047 a0bc e1d6 0e3d
000002e0: 38bb a7bc 79de 333d 9d0c 2f3d c328 2d3d
000002f0: 3d3c 39bd a698 d7bc 0314 e63c 63fb 323d
00000300: 2d86 813b a0bf 18bd 79f1 42bd 93ee babc
00000310: 1760 c23b 62c1 b03c 2592 c23c b00d 4c3d
00000320: 6246 22bd 5c01 b43c e888 3fbd df6a 3e3c
00000330: 2feb 01bd 5ec1 763d f223 2b3d 969f fabc
00000340: 261e f83c 0fce 27bd ebdc 4c3d a88e 16bd
00000350: 0b13 7bbc a621 923c dc6a ff3c a00a 613d
00000360: 8034 f53c 7278 8c3c 8c39 603d 3be6 24bd
00000370: 43da 0a3d 00fd 0e3d b279 ab3b 7860 cabb
00000380: f075 8f3c 3e40 7fbc cbd8 27bd 70be 433c
00000390: 21f2 623d ed30 0abc 0a6d 0abd c1c8 61bd
000003a0: 2cc3 1d3c c680 0e3d 2b2e 8cbb c5da 05bd
000003b0: df56 ee3b d878 04bb 48f1 2b3d ac3c 44bd
000003c0: cc98 23bd 8769 36bd a88f 15bd b95b c8bc
000003d0: 5b65 343c 6821 45bc dfac 153c 3e42 703c
000003e0: 503c 223c 70a9 f9bc b1b4 febc 6ea8 f23c
000003f0: 0a61 07bd 6f6a 24bd 5f0b dc3c 0a31 05bd

bias f4 [24]
-0.05130986 -0.025530653 -0.028865801 -0.025600642 0.007829844 0.039949667 0.0010622155 0.035921447
0.046842966 0.015294213 0.008740926 -0.016704159 -0.0504002 0.0002881925 0.030455587 0.019447017
-0.04625132 -0.04495189 0.023988567 0.0015375053 0.006677268 0.022024818 -0.032694656 -0.051057268
00000000: 4a2a 52bd a925 d1bc f977 ecbc 70b8 d1bc
00000010: bf48 003c 43a2 233d 0a3a 8b3a 5e22 133d
00000020: 69de 3f3d 9494 7a3c 1a36 0f3c 29d7 88bc
00000030: 7170 4ebd 8b18 9739 ff7d f93c 5a4f 9f3c
00000040: 0672 3dbd 791f 38bd ac83 c43c 1e86 c93a
00000050: fccc da3b 646d b43c d5ea 05bd 6d21 51bd

weight f4 [24]
1.0032816 1.008565 1.0083768 1.0025185 1.0064814 1.0076162 1.0062343 1.0062785
1.0040447 1.0019586 1.006098 1.0051115 1.0106267 1.0077531 1.0036609 1.0076036
1.0053191 1.0054972 1.0055854 1.0021861 1.005797 1.0077319 1.0067868 1.0039858
00000000: 886b 803f a818 813f 7e12 813f 8752 803f
00000010: 62d4 803f 91f9 803f 49cc 803f bccd 803f
00000020: 8984 803f 2e40 803f d2c7 803f 7ea7 803f
00000030: 375c 813f 0efe 803f f677 803f 28f9 803f
00000040: 4cae 803f 22b4 803f 06b7 803f a247 803f
00000050: f5bd 803f 5cfd 803f 64de 803f 9b82 803f

bias f4 [24]
0.0022094504 0.0052161627 0.0061596246 -0.0017328198 0.0011199764 0.004767349 0.003206106 0.00041248385
-0.00045131787 -0.00044466648 -0.0027760097 -0.0003540991 -0.0014689314 0.00035480206 0.00022457403 0.00070845196
0.0017698753 0.0029092983 -0.0029403204 0.0012433209 0.003099318 0.0043582222 0.005358796 -0.0024844822
00000000: 6dcc 103b 58ec aa3b add6 c93b c91f e3ba
00000010: 2ccc 923a 6c37 9c3b 881d 523b a542 d839
00000020: dc9e ecb9 2022 e9b9 b7ed 35bb 60a6 b9b9
00000030: 2989 c0ba ba04 ba39 a27b 6b39 68b7 393a
00000040: 29fb e73a eda9 3e3b 64b2 40bb edf6 a23a
00000050: ed1d 4b3b 6bcf 8e3b d798 af3b b2d2 22bb

running_mean f4 [24]
-0.02898709 -0.510368 -1.0436704 -0.11550319 0.037710316 0.06917041 0.0626832 0.04502487
0.43316483 -0.34689686 0.050260004 0.3441438 -0.0639889 0.31760153 -0.035076138 -0.102606274
-0.03760485 -0.15941563 0.7416257 0.1490842 0.23977356 -0.36400726 -0.054310016 0.0077140606
00000000: 5576 edbc 7aa7 02bf fe96 85bf f08c ecbd
00000010: 2276 1a3d 37a9 8d3d 0d60 803d 006c 383d
00000020: c8c7 dd3e 779c b1be 6fdd 4d3d 9e33 b03e
00000030: 9d0c 83bd ab9c a23e ffab 0fbd 3d23 d2bd
00000040: 8b07 1abd da3d 23be 2fdb 3d3f 87a9 183e
00000050: 3387 753e 295f babe 2e74 5ebd 3bc6 fc3b

running_var f4 [24]
0.21092734 0.11550773 0.19804895 0.13520578 0.10418352 0.12946172 0.15803586 0.11312708
0.24867532 0.1625721 0.094020665 0.13196708 0.088522635 0.12614621 0.099079035 0.09737244
0.14131881 0.14059943 0.18099698 0.13277432 0.12085837 0.12805977 0.1263127 0.11219789
00000000: 56fd 573e 518f ec3d 58cd 4a3e 6273 0a3e
00000010: 2b5e d53d 9d91 043e 27d4 213e 2caf e73d
00000020: bea4 7e3e 4d79 263e e88d c03d 6122 073e
00000030: 5b4b b53d 792c 013e f3e9 ca3d 346b c73d
00000040: e1b5 103e 4cf9 0f3e 4657 393e fef5 073e
00000050: 9884 f73d 1a22 033e 1e58 013e 02c8 e53d

weight f4 [48, 24, 5, 5]
0.020400828 -0.006683309 0.024951471 0.0034439198 -0.02290861 0.039411422 0.02899784 0.006955921
-0.012587923 0.034837455 -0.012878215 -0.027479911 0.01108615 0.0013644266 -0.004626279 0.027132286
0.026458375 -0.013187762 0.018175092 -0.016733048 -0.01969466 0.010896359 0.027988099 0.02670522
0.037608456 0.005261368 -0.041908477 0.003635064 0.02508701 -0.0022350182 -0.013117044 0.027371805
-0.011500999 -0.01225315 0.034131143 0.031772275 0.03664719 -0.017340256 0.0035592439 0.034070596
0.014347025 -0.024051577 -0.03482955 -0.009636531 -0.0049592587 -0.032306116 0.008080263 0.033744123
0.011657728 -0.027892105 0.033644952 -0.009981616 -0.01302889 0.0053501055 -0.033372518 0.026616033
-0.0064053074 -0.042895507 0.007027667 0.022177279 0.022739029 -0.017717337 0.009670869 -0.033182874
-0.044285387 -0.018352339 0.035928033 0.034836546 -0.0255655 0.011856614 0.03934686 0.029531399
0.022421848 -0.0018818809 0.0071165487 -0.011583546 0.0096296435 -0.013116753 -0.02720576 0.027862085
0.017211813 0.00838889 0.031110581 -0.023726111 -0.009387795 0.02521653 -0.0074802586 0.03340418
-0.010534404 0.021298403 0.0270562 0.025868976 -0.030793602 -0.0170234 -0.026195787 -0.017403483
0.012668064 -0.0047743656 -0.0071583944 0.011684525 -0.005787706 0.009211028 0.023903186 -0.0044212113
0.020148432 0.0015946013 -0.026617553 0.012339469 0.000836063 0.03783357 0.0005054793 0.022656094
-0.009243445 -0.021656152 0.008850987 0.007374381 -0.041365728 -0.014846969 -0.020682478 0.03988087
-0.02161724 0.007559386 -0.018644061 0.019808859 -0.03131384 0.028917512 0.033461414 -0.0091519505
0.026951995 -0.0011501102 -0.007922627 -0.016544802 0.02987446 -0.0035717927 0.040969327 -0.03504069
0.036753923 0.02696125 -0.028206442 0.005945978 -0.026637409 0.02468225 -0.011628535 0.017160276
0.023944134 -0.038980756 0.02767288 0.008212537 -0.033614013 0.030949268 -0.022867111 -0.041120242
-0.026435912 -0.03655128 0.01811595 -0.015017214 0.011153153 0.013528163 -0.039803933 0.013523589
0.008777262 0.013649888 0.02749497 -0.010467488 -0.027822277 -0.040370855 0.0047167344 -0.0064601796
0.04050112 -0.008105059 -0.024812654 -0.030349938 0.013579032 0.02961312 0.029418333 0.04146705
0.002522954 0.0042198165 -0.036645196 -0.007579729 0.012599347 0.016439293 -0.03661681 0.03524041
0.024337279 -0.009598316 0.021389153 0.008548655 -0.004650613 -0.03527437 0.012676773 -0.036159385
0.002562721 0.037285436 -0.009956278 0.03664818 0.038837012 0.0048391363 0.031806175 -0.034142107
0.021717561 -0.010452703 0.036765773 -0.030168237 -5.289671e-05 -0.0014942084 -0.031016113 -0.00058884354
-0.029142275 -0.022242751 0.0063577434 0.032488085 -0.0010104962 -0.029979805 0.011433133 0.042365912
0.0037958177 0.019000547 -0.043254923 0.0013095486 0.024741339 0.023767358 -0.028171945 0.0074155303
-0.030891754 -0.016971052 -0.029296169 0.028165272 0.031917475 -0.013367158 0.023194192 0.021659756
-0.023615744 -0.029056273 0.007771703 0.026413258 0.036885545 -0.038766507 0.025223216 -0.00077786815
-0.022747993 0.00811396 -0.04094402 -0.003621648 -0.030329352 -0.009318784 0.018098736 0.03265371
0.022949653 0.03288744 0.03259552 -0.022012608 0.0062165996 0.028242776 -0.015341848 -0.039324883
00000000: a31f a73c a9ff dabb 0767 cc3c 63b3 613b
00000010: d6aa bbbc df6d 213d e18c ed3c 7fee e33b
00000020: 933d 4ebc b8b1 0e3d 26ff 52bc 8d1d e1bc
00000030: afa2 353c 8fd6 b23a 0b98 97bb 8744 de3c
00000040: 3cbf d83c 7c11 58bc eee3 943c bf13 89bc
00000050: b256 a1bc a486 323c 4c47 e53c e8c4 da3c
00000060: 530b 1a3d 8e67 ac3b 39a8 2bbd 413a 6e3b
00000070: 4683 cd3c 6279 12bb dfe8 56bc d63a e03c
00000080: b06e 3cbc 70c1 48bc 19cd 0b3d a523 023d
00000090: 5d1b 163d 270d 8ebc 3442 693b 9c8d 0b3d
000000a0: c90f 6b3c d007 c5bc 6ea9 0ebd 8ae2 1dbc
000000b0: 4781 a2bb 6b53 04bd 1463 043c 4737 0a3d
000000c0: 0e00 3f3c fc7d e4bc 4acf 093d ef89 23bc
000000d0: 2077 55bc f04f af3b 9fb1 08bd de09 da3c
000000e0: 9de3 d1bb 33b3 2fbd 5848 e63b 20ad b53c
000000f0: 3347 ba3c f323 91bc 9172 1e3c c4ea 07bd
00000100: 9864 35bd a557 96bc 4629 133d c4b0 0e3d
00000110: bd6e d1bc 3e42 423c 2c2a 213d d5eb f13c
00000120: 06ae b73c 72a9 f6ba f031 e93b eac8 3dbc
00000130: a7c5 1d3c a6e7 56bc 9dde debc 073f e43c
00000140: caff 8c3c 8e71 093c 9edb fe3c 435d c2bc
00000150: 44cf 19bc e592 ce3c f51c f5bb d2d2 083d
00000160: 7e98 2cbc fd79 ae3c f7a4 dd3c 2deb d33c
00000170: dd42 fcbc a874 8bbc 8c98 d6bc c091 8ebc
00000180: b68d 4f3c 4872 9cbb f790 eabb 7370 3f3c
00000190: cca6 bdbb dae9 163c 9dd0 c33c cfdf 90bb
000001a0: 530e a53c f101 d13a 0e0d dabc 7c2b 4a3c
000001b0: 3d2b 5b3a 60f7 1a3d 2482 043a 4699 b93c
000001c0: d171 17bc 3e68 b1bc bb03 113c cba4 f13b
000001d0: 1c6f 29bd b440 73bc 4d6e a9bc 205a 233d
000001e0: a316 b1bc bab4 f73b 6ebb 98bc 3046 a23c
000001f0: f142 00bd 6be4 ec3c d60e 093d 10f2 15bc
00000200: 6eca dc3c 4bbf 96ba e8cd 01bc f788 87bc
00000210: 49bb f43c bd14 6abb 74cf 273d d486 0fbd
00000220: 488b 163d d7dd dc3c 3211 e7bc 7bd6 c23b
00000230: b236 dabc 6e32 ca3c 9c85 3ebc b593 8c3c
00000240: 7d26 c43c 49aa 1fbd 3cb2 e23c e08d 063c
00000250: d9ae 09bd 5289 fd3c cf53 bbbc b36d 28bd
00000260: 2090 d8bc ccb6 15bd e767 943c c30a 76bc
00000270: b7bb 363c 3aa5 5d3c 7309 23bd 0b92 5d3c
00000280: 81ce 0f3c c8a3 5f3c 223d e13c d47f 2bbc
00000290: 8beb e3bc e95b 25bd d68e 9a3b eaaf d3bb
000002a0: 81e4 253d 15cb 04bc e843 cbbc 6fa0 f8bc
000002b0: 977a 5e3c 3797 f23c b7fe f03c 5ad9 293d
000002c0: 2558 253b 6346 8a3b 4619 16bd 605f f8bb
000002d0: 7e6d 4e3c b2ab 863c 82fb 15bd 4058 103d
000002e0: f95e c73c 4142 1dbc 4e38 af3c a80f 0c3c
000002f0: 2b64 98bb dc7b 10bd 3db2 4f3c dd1b 14bd
00000300: 53f3 273b 9db8 183d a81f 23bc 671c 163d
00000310: 8f13 1f3d 9e91 9e3b 3147 023d 98d8 0bbd
00000320: 07e9 b13c d041 2bbc b597 163d 6123 f7bc
00000330: 69dd 5db8 50d9 c3ba 8115 febc 9f5c 1aba
00000340: c8bb eebc 6e36 b6bc 9e54 d03b 3a12 053d
00000350: a072 84ba 3598 f5bc 0952 3b3c e187 2d3d
00000360: 41c3 783b 09a7 9b3c 132c 31bd 29a5 ab3a
00000370: 59ae ca3c c3b3 c23c dac8 e6bc fafd f23b
00000380: b410 fdbc e006 8bbc 85fe efbc dbba e63c
00000390: e6bb 023d ed01 5bbc bf01 be3c cd6f b13c
000003a0: ce75 c1bc 6c07 eebc c5a9 fe3b 9e60 d83c
000003b0: 4c15 173d a1c9 1ebd eba0 ce3c d9e9 4bba
000003c0: 005a babc 6af0 043c ebb4 27bd 2c59 6dbb
000003d0: 4375 f8bc d0ad 18bc cd43 943c e6bf 053d
000003e0: e900 bc3c fbb4 063d e182 053d c953 b4bc
000003f0: 9eb4 cb3b 655d e73c 605c 7bbc 2113 21bd

bias f4 [48]
0.038251325 -0.006294398 -0.024938885 -0.037806276 -0.00800835 -0.0029214616 -0.031639505 0.011263871
-0.014778243 0.003127477 0.033840477 -0.01084443 0.020078845 -0.028519168 0.006696387 -0.0059966585
-0.0041634766 0.025928197 -0.0007995955 0.00870722 -0.015676133 0.0062695877 -0.027712151 0.016860347
0.031396378 0.025203826 -0.017949628 0.021549957 0.031150585 0.0246331 0.015745135 0.029198078
0.028281529 0.006050937 -0.028518574 0.0109786205 0.0147165265 0.040156826 0.005036638 -0.010068304
0.015691327 -0.020050693 0.03570854 0.015769502 0.025591278 -0.0065472964 -0.028542355 -0.01311682
00000000: 6cad 1c3d 3d41 cebb a24c ccbc c1da 1abd
00000010: 7435 03bc fe75 3fbb 6d98 01bd 198c 383c
00000020: 7220 72bc 5bf6 4c3b 509c 0a3d d6ac 31bc
00000030: 647c a43c 08a1 e9bc 5e6d db3b 9e7f c4bb
00000040: c66d 88bb 5f67 d43c f29b 51ba baa8 0e3c
00000050: 3c6b 80bc 1d71 cd3b 9804 e3bc b61e 8a3c
00000060: 7d99 003d 4178 ce3c 190b 93bc 8989 b03c
00000070: 832f ff3c 5bcb c93c f1fb 803c cf30 ef3c
00000080: aaae e73c f046 c63b c99f e9bc acdf 333c
00000090: 961d 713c 7c7b 243d 620a a53b 87f5 24bc
000000a0: 198b 803c 5a41 a4bc 1e43 123d 0b2f 813c
000000b0: cda4 d13c b48a d6bb a8d1 e9bc eee7 56bc

weight f4 [48]
0.99948716 0.9989373 1.0036441 1.0041493 1.0028472 1.0032234 1.0020764 1.0031816
1.0023334 1.0026613 0.9976482 0.9994517 0.99634135 1.0007677 1.0005363 1.0054401
1.002536 1.0005863 1.0023837 1.0006192 1.0030603 1.001748 1.006594 0.99101615
1.0040126 1.0037891 1.0036167 1.0045111 1.0039333 1.0013715 1.0038991 1.0054531
0.99979806 1.0004165 1.0012003 0.99888545 0.99962443 1.0002524 1.0096619 1.0037134
1.004788 1.007468 1.0050759 0.9995986 1.0025687 1.0018532 1.0020572 1.0015498
00000000: 64de 7f3f 5bba 7f3f 6977 803f f787 803f
00000010: 4c5d 803f a069 803f 0a44 803f 4168 803f
00000020: 764c 803f 3557 803f df65 7f3f 11dc 7f3f
00000030: 3a10 7f3f 2819 803f 9311 803f 43b2 803f
00000040: 1a53 803f 3613 803f 1c4e 803f 4a14 803f
00000050: 4864 803f 4739 803f 12d8 803f 3cb3 7d3f
00000060: 7c83 803f 297c 803f 8376 803f d293 803f
00000070: e380 803f f12c 803f c47f 803f b0b2 803f
00000080: c4f2 7f3f a60d 803f 5527 803f f5b6 7f3f
00000090: 63e7 7f3f 4508 803f 9a3c 813f ae79 803f
000000a0: e59c 803f b6f4 803f 54a6 803f b2e5 7f3f
000000b0: 2c54 803f ba3c 803f 6943 803f c932 803f

bias f4 [48]
-0.0005701595 -0.0030701717 -0.0005064401 -0.0013316363 0.001844173 -0.00023698121 0.002548675 0.0026987689
0.0017628545 0.0020396248 -0.0022491112 0.0022046014 0.0010934438 -0.002867764 0.003642296 0.0034826754
0.0007571345 0.001695992 0.00035526077 0.0015181995 0.00496629 0.0026972373 0.0034404846 -0.0009992175
0.0010881099 0.0015845286 -0.0020171732 0.0016550417 0.002339078 0.0035884762 0.0038088835 0.0032144913
0.00096806797 0.001205406 -0.00057350507 0.0011471256 0.003967239 0.0045866175 0.0045818677 0.0011576959
0.0027251034 -0.00048190908 0.0009788359 0.0019768034 0.004318413 0.0017617275 -4.80356e-06 -0.0009100488
00000000: c276 15ba ef34 49bb 9fc2 04ba 4d8a aeba
00000010: 2db8 f13a 297e 78b9 ac07 273b d4dd 303b
00000020: 950f e73a 3aab 053b d365 13bb 137b 103b
00000030: e351 8f3a 19f1 3bbb 96b3 6e3b 993d 643b
00000040: 707a 463a 0c4c de3a 4b42 ba39 52fe c63a
00000050: 43bc a23b 22c4 303b c179 613b 2df8 82ba
00000060: e99e 8e3a f5af cf3a 8d32 04bb fced d83a
00000070: 384b 193b a42c 6b3b 769e 793b 37aa 523b
00000080: f1c5 7d3a b7fe 9d3a 4657 16ba 265b 963a
00000090: 9dff 813b 564b 963b 7e23 963b d4bd 973a
000000a0: a697 323b bea8 fcb9 484c 803a 428d 013b
000000b0: 7981 8d3b c4e9 e63a 442e a1b6 5790 6eba

running_mean f4 [48]
0.2855803 0.22563492 0.17370132 0.037016302 -0.2097327 0.024309192 -0.1639031 -0.1892789
-0.22560656 -0.15200119 0.35777 -0.18095793 -0.18747687 0.046270218 -0.017954225 -0.08744118
0.23831595 0.0055493913 0.3216246 -0.06144533 -0.2946617 -0.16282329 -0.20372535 0.19614689
0.17483266 -0.05187298 0.20886882 0.08400217 0.07597794 -0.21714175 -0.07331743 -0.09303057
-0.20085853 0.20440331 0.076335765 0.097572476 -0.30609378 -0.22304805 -0.2537505 -0.17300901
-0.008662611 0.24799924 0.13872075 -0.057082962 0.011306668 -0.16537681 0.40481782 -0.07627783
00000000: 9537 923e d70c 673e c2de 313e 689e 173d
00000010: 2bc4 56be 1224 c73c 37d6 27be 54d2 41be
00000020: 6805 67be 33a6 1bbe a12d b73e 094d 39be
00000030: f0f9 3fbe d785 3d3d bd14 93bc 5d14 b3bd
00000040: 1909 743e abd7 b53b fbab a43e 19ae 7bbd
00000050: e6dd 96be 26bb 26be 619d 50be bbda 483e
00000060: 5507 333e c378 54bd b5e1 553e 5409 ac3d
00000070: 529a 9b3d 685a 5ebe 7327 96bd d086 bebd
00000080: dcad 4dbe 1a4f 513e ed55 9c3d 14d4 c73d
00000090: 53b8 9cbe b566 64be 96eb 81be 4629 31be
000000a0: a0ed 0dbc 83f3 7d3e d00c 0e3e d3cf 69bd
000000b0: 9a3f 393c 8a58 29be 4844 cf3e 8d37 9cbd

running_var f4 [48]
0.12255021 0.10456118 0.09487088 0.103189655 0.11626235 0.1048641 0.108210824 0.09450564
0.121001825 0.1459974 0.0930543 0.0950837 0.12649247 0.11490529 0.1187294 0.10316831
0.12886101 0.15645313 0.10490323 0.11245106 0.11559461 0.12434412 0.08148628 0.13320012
0.10762019 0.10095749 0.106194064 0.08745339 0.096009314 0.1296101 0.11383207 0.10952068
0.09884524 0.133619 0.10339498 0.11693031 0.13232484 0.17248842 0.09659827 0.10469857
0.092692636 0.15306208 0.1057781 0.091725186 0.11209543 0.10305699 0.1095486 0.11266351
00000000: 9bfb fa3d 2c24 d63d aa4b c23d 1955 d33d
00000010: f41a ee3d fdc2 d63d a39d dd3d 2c8c c13d
00000020: cecf f73d 5880 153e 4193 be3d 3ebb c23d
00000030: 3e87 013e 7753 eb3d 6628 f33d e849 d33d
00000040: 24f4 033e 4035 203e 81d7 d63d be4c e63d
00000050: debc ec3d 21a8 fe3d 47e2 a63d 9d65 083e
00000060: f967 dc3d cdc2 ce3d 467c d93d c31a b33d
00000070: 88a0 c43d 83b8 043e ca20 e93d 614c e03d
00000080: 606f ca3d 6bd3 083e bfc0 d33d 2979 ef3d
00000090: 2a80 073e cea0 303e 50d5 c53d 346c d63d
000000a0: a3d5 bd3d 4ebc 1c3e 30a2 d83d 6ada bb3d
000000b0: 4a92 e53d 8b0f d33d 045b e03d 20bc e63d

weight f4 [6, 4800]
0.009234467 0.003912178 -0.0090919435 -0.0046004914 0.012498444 -0.0016698808 -0.013133298 0.0146770105
-0.015492168 -0.009210021 0.007848887 -0.0015595108 0.010935507 0.012690823 -0.0043434375 -0.009464515
0.005135122 0.010320258 -0.003653952 -0.005824683 -0.008337245 -0.0073965737 0.00906903 -0.0069724773
0.0064815823 0.01126784 0.008857944 0.0059462436 0.005548327 -0.0044410205 0.005286249 -0.0048975074
0.008878187 -0.0068352753 0.0029004996 -0.02105664 -0.0006611697 0.0027393326 0.01373227 0.01311163
-0.01670993 -0.014221721 0.0016244955 0.0049087307 -0.0027766132 0.00035443553 -0.0099010505 -0.018340472
0.012541414 -0.010711915 -0.005030023 -0.006656417 0.0039294283 0.00049946154 0.008082203 0.0086091645
0.004414183 -0.01515879 -0.0055575804 0.010723314 0.0021190285 0.0075895637 -0.0019274259 0.0051791314
0.013801963 0.0053526084 0.0071084434 0.010920335 0.01143307 -0.003452597 -0.017661605 -0.0073898686
0.008125578 0.016224723 -0.0034359156 0.015364049 -0.006717029 -0.008264996 0.00995267 -0.011150981
0.01197106 0.0037091319 0.007829553 0.0015462838 -0.0024697415 0.002987901 0.018953245 0.008877623
0.01724121 0.008352511 -0.012973815 -0.01334305 0.0029230812 -0.012203307 -0.012520142 -0.006027186
0.0047072344 0.009530846 -0.0039442806 -0.011351933 -0.009827266 -0.010582386 0.0083455285 -0.0056625935
-0.0005782103 -0.0016344378 -0.016781349 -0.019129248 0.004498657 0.009550291 -0.014990456 0.01297072
-0.008833589 0.010002713 -0.013135609 -0.0007837859 -0.003874275 0.00039428283 0.00029054043 -0.00022989837
-0.002495201 0.0072997287 0.0029164408 0.0075667 0.009157185 -0.0025750448 -0.0061606406 0.006690403
0.0042997254 0.011255869 -0.00997514 0.012350157 -0.011628905 0.0050175334 0.0039229365 0.016253065
-0.00922147 0.0044703484 -0.014189042 -0.008683697 0.009270895 -0.008311115 0.005443484 -0.0061820364
-0.0072763106 0.004302149 0.011186843 -0.0016157958 0.00020346195 -0.00218017 0.0003561557 0.005808633
-0.0023643167 -0.0031465015 -0.00016868746 0.007461157 -0.009355506 0.003917367 -0.00030657803 -0.0059462693
0.0039776545 -0.009249717 -0.0061174002 0.013804463 0.014180304 0.007334634 0.017244378 -0.009032924
-0.008828563 -0.00066994637 0.0123525495 0.0036471975 -0.0038969258 -0.0068061156 -0.0022009825 -0.0043790773
0.0017101804 0.006380185 0.00422361 0.0146719515 -0.0023060723 0.014036351 -0.004254751 0.0145328045
0.017623948 0.015833836 0.0056692497 0.016027799 0.0037007735 0.003894316 -0.0100635085 -0.0056984387
-0.016098594 0.00982849 0.000121817 -0.0053857546 0.010907126 0.014855286 -0.005076368 -0.015870111
-0.014121856 0.009013478 0.016091142 0.003425664 0.0031904753 0.0034400497 0.013399099 -0.018074216
-0.0012264682 -0.010439258 0.0027393575 0.0090076085 -0.006157722 0.011003705 0.0029842071 0.014023307
0.012755242 -0.014208045 -0.014138669 -0.00853897 0.01208234 0.006649735 -0.009458088 0.015200348
0.010695448 0.00580067 -0.014987061 -0.01078527 0.0040876945 -0.002497829 -0.017459085 -0.008305586
0.0126402825 -0.0151644815 0.004710445 -0.012541309 -0.011706477 -0.01238626 -0.002829434 0.008123415
-0.0019679759 0.0014625494 -0.0026384157 0.006273694 -0.0068055103 -0.0029316524 -0.013115037 0.0035693662
-0.009738022 -0.011607453 -0.008978218 -0.008409917 -0.006097138 -0.0023095754 0.0141617255 0.004759386
00000000: 294c 173c ba31 803b 60f6 14bc b8bf 96bb
00000010: 46c6 4c3c e7df daba 0b2d 57bc d877 703c
00000020: ddd2 7dbc a1e5 16bc 9e98 003c 8068 ccba
00000030: d72a 333c 2bed 4f3c 6553 8ebb 0e11 1bbc
00000040: 8744 a83b 4d16 293c 2477 6fbb fbdc bebb
00000050: f198 08bc f55e f2bb 4596 143c 6179 e4bb
00000060: 7463 d43b bf9c 383c e920 113c b5d8 c23b
00000070: bece b53b fb85 91bb 4538 ad3b 457b a0bb
00000080: d175 113c 72fa dfbb 4f16 3e3b fa7e acbc
00000090: 5952 2dba 6086 333b 51fd 603c 2ad2 563c
000000a0: 43e3 88bc 3902 69bc 06ed d43a 6bd9 a03b
000000b0: d7f7 35bb 88d3 b939 0438 22bc c23e 96bc
000000c0: 817a 4d3c 0781 2fbc e4d2 a4bb 131e dabb
000000d0: 6fc2 803b 4cee 023a 376b 043c 740d 0d3c
000000e0: daa4 903b 935c 78bc 5d1c b6bb d7b0 2f3c
000000f0: 66df 0a3b e0b1 f83b aea1 fcba b4b5 a93b
00000100: a121 623c ef64 af3b f2ed e83b 34eb 323c
00000110: c551 3b3c f744 62bb 12af 90bc b626 f2bb
00000120: 2521 053c b6e9 843c 192d 61bb 7eb9 7b3c
00000130: 861a dcbb e869 07bc 8610 233c 9bb2 36bc
00000140: 4422 443c e814 733b 8747 003c adac ca3a
00000150: 63db 21bb a9d0 433b d643 9b3c 7373 113c
00000160: 703d 8d3c f8d8 083c 2090 54bc cf9c 5abc
00000170: 2a91 3f3b 61f0 47bc 4821 4dbc b37f c5bb
00000180: 253f 9a3b 4427 1c3c 063f 81bb 75fd 39bc
00000190: 8b02 21bc be61 2dbc afbb 083c 478d b9bb
000001a0: 0993 17ba a23a d6ba 0a79 89bc f1b4 9cbc
000001b0: 7869 933b d378 1c3c 889a 75bc 2583 543c
000001c0: c2ba 10bc 6be2 233c bd36 57bc fb76 4dba
000001d0: 8ce7 7dbb bfb7 ce39 ad53 9839 e010 71b9
000001e0: 8786 23bb 9032 ef3b c221 3f3b 15f2 f73b
000001f0: 0508 163c 15c2 28bb 33df c9bb 2b3b db3b
00000200: b6e4 8c3b 896a 383c c56e 23bc 5058 4a3c
00000210: 2a87 3ebc 1f6a a43b fa8b 803b 2625 853c
00000220: a615 17bc 007c 923b 2879 68bc 1146 0ebc
00000230: f4e4 173c 582b 08bc 415f b23b ae92 cabb
00000240: 1e6e eebb 0bf9 8c3b 0549 373c 1cc9 d3ba
00000250: 6758 5539 2fe1 0ebb 69ba ba39 5856 be3b
00000260: a7f2 1abb 8935 4ebb b2e1 30b9 b97c f43b
00000270: d647 19bc 425d 803b 35bc a0b9 ecd8 c2bb
00000280: fc56 823b 208c 17bc 7974 c8bb 1d2c 623c
00000290: 8154 683c 5f57 f03b 1544 8d3c d4fe 13bc
000002a0: ada5 10bc 579f 2fba 5962 4a3c d205 6f3b
000002b0: 9163 7fbb d605 dfbb 5c3e 10bb 5d7e 8fbb
000002c0: 2228 e03a df10 d13b 3566 8a3b a062 703c
000002d0: 7921 17bb b9f8 653c 706b 8bbb 001b 6e3c
000002e0: 1960 903c f6b5 813c 1dc5 b93b bb4c 833c
000002f0: ad88 723b c837 7f3b 6ae1 24bc f8b9 babb
00000300: 33e1 83bc ad07 213c 0178 ff38 fc7a b0bb
00000310: cdb3 323c 9663 733c a957 a6bb 0902 82bc
00000320: 5b5f 67bc 44ad 133c 92d1 833c 1b81 603b
00000330: 4b17 513b 7572 613b e587 5b3c 6110 94bc
00000340: 72c1 a0ba 6c09 2bbc cb86 333b a694 133c
00000350: b7c6 c9bb e248 343c b092 433b 03c2 653c
00000360: 5dfb 503c dcc8 68bc e0a5 67bc 09e7 0bbc
00000370: 02f5 453c 05e6 d93b 19f6 1abc e10a 793c
00000380: f63b 2f3c 8c13 be3b 4a8c 75bc b3b4 30bc
00000390: 11f2 853b 9eb2 23bb 5b06 8fbc 2714 08bc
000003a0: 3019 4f3c 7274 78bc 145a 9a3b 107a 4dbc
000003b0: 86cc 3fbc bdef 4abc 066e 39bb 1218 053c
000003c0: 28f9 00bb 04b3 bf3a 45e9 2cbb 8f93 cd3b
000003d0: c200 dfbb f720 40bb 74e0 56bc 07ec 693b
000003e0: 3a8c 1fbc 302d 3ebc 6019 13bc c0c9 09bc
000003f0: 80ca c7bb 3f5c 17bb 9506 683c a0f4 9b3b

bias f4 [6]
-0.00046496303 -0.0012226497 -0.008564652 -0.0052313167 -0.008489467 0.007786248
00000000: 48c6 f3b9 5141 a0ba c152 0cbc 776b abbb
00000010: 6817 0bbc c823 ff3b
