data/model.pt (torch, 289867 bytes, 26 tensors)

weight f4 [12, 3, 5, 5]
00000000: 6d1f 62bc 0f42 0dbd 6eca 93bd f1c3 e03d
00000010: cf84 3a3d 48f5 c2bc c60d c23d cd56 03bb
00000020: be50 803d f971 a03c cc43 b03d a058 55bd
00000030: 84b1 78bd 4811 c33d 54e5 ff3c c331 ea3d
00000040: 3d46 9ebc e4ac ef3d 8408 e23c 0012 dc3d
00000050: d4b8 d63d 82f0 bbbd dc41 da3c c8e2 d23d
00000060: 3677 9cbd 43d9 803d 6201 e8bc 0878 613d
00000070: 74a0 ff3c 69c9 6abd 6355 9f3d 99ee cabd
00000080: cc23 a83b 9879 433d 4d86 bcbc c5f5 843d
00000090: 88ed 54bd 18ad fa3c cb5c 563c b702 d83d
000000a0: 4551 7bbc 87ab c1bd 83fd 9ebd f4c9 d3bd
000000b0: 0de5 a43d e6da a8bd 1dff 1e3b 99f0 1f3d
000000c0: 37ee d63c d343 da3d a6f9 a9bd b1e3 b0bd
000000d0: c6e3 cabd a212 dbbd 5bd5 4f3d a4bd b43d
000000e0: e613 5abd 7e42 d9bd a49d c43b 015e a73d
000000f0: 809a 4e3d 8bfd a93c 00ef 9f3d cf03 e63b
00000100: 6fe3 abbd eaa8 403d 2661 46bd 0af3 23bc
00000110: 74cd 2bbd e1fe 6abd 94ff 823c b1bc d63d
00000120: a047 df3d aecb afbd c8bc c3bd b8e8 babd
00000130: 0d3b de3d f509 a9bd d7df d9bd 4289 e83d
00000140: 1893 86bc 4fd5 86bd bd04 e3bd 888b 9a3c
00000150: c363 4a3d 2fb0 64bd 2358 46bd 682f 043d
00000160: 9033 67bd df22 df3d 8f42 8bbd db25 18bd
00000170: 650e b0bc 1c3f 5a3d 4f23 ce3d 681d cf3d
00000180: 79f8 9fbd cef8 82bd d138 a3bc d49a 9dbb
00000190: bf1c a0bd 6fdf 0bbd e057 6a3d 527a 323c
000001a0: 9a26 d63d 2420 9a3d 0e12 933d 9a9f 183b
000001b0: b013 8b3d 0616 f83d 5298 0d3d dccd 503d
000001c0: e6e4 623d 74c9 d63d c08f 8fbc b5d7 a2bd
000001d0: bc3e 84bd bc73 573d 8d09 eb3d 268e 8f3c
000001e0: cf34 d9bd 0090 b53d 0fbb 1a3c c305 acbd
000001f0: d2b7 10bd 82e1 84bc 6437 883c 9464 8e3d
00000200: 5bbe d9bc a805 883c 66c9 5b3d 9853 84bd
00000210: 9e33 5dbd 3270 58bd 7807 b8ba e641 b4bd
00000220: 6c7c 043d 5686 e43d 8f0d 06bd 19c2 ae3d
00000230: b692 96bd 1a88 883d 417f 4dbd 9793 433c
00000240: b826 093c 4c3f 09bd 2aa2 babc c59e 6abd
00000250: e4f4 8cbd ac95 ce3d 6ad5 72bd 0731 d83d
00000260: 78e2 aebb 77f0 cb3c 7348 d33d 84f4 913d
00000270: e551 6b3c 34f6 b6bd 7700 c8bd fdc6 513c
00000280: 4a72 06bd 655d ce3b 9a0f bebd 429f 3d3d
00000290: 7e5f 49bd 5b4e ee3c fa82 d63d 50d7 2b3d
000002a0: d052 89bd b2c7 e7bd 7337 72bd dca9 e83c
000002b0: 193f c33d fec3 153c 0930 c3bb 54ca b33d
000002c0: 809c 873d 5e74 90bb 24a1 90bd 1217 ca3d
000002d0: 48ad c03c be5c c7bd afc1 8cbd 2d9b 6bbd
000002e0: 8357 8a3d db51 09bd 0505 e03d a932 92bd
000002f0: af5d 823c 5288 d43b 792b 013d 9e6e 413d
00000300: 3ff7 953d 43dc 7ebd e3df f53c 72ce 453d
00000310: c00b 9d3d 3084 f83d add1 693d e255 043d
00000320: e446 e53d b835 a4bd 480d 5abd 7592 b63d
00000330: 5197 5abd 6448 ae3d a53c 82bd 8bff a0bd
00000340: 4156 dd3d 4019 25bd 8ed1 ce3c 462a d23c
00000350: df66 3fbd 9304 febb c5c6 a43c 748f a2bb
00000360: 6dd3 b7bd 4cf6 db3d b59c 763d a3c1 2dbd
00000370: 7838 803d 2ca4 2f3d 09a0 8bbc 586d 37bc
00000380: fa18 9a3b 779b 47bd 5055 d0bd c00a 563d
00000390: 87e1 c03d a9d4 af3d a8d9 db3d 7072 6a3d
000003a0: 640b ae3d e138 793d 93b9 bd3d b29f c13d
000003b0: f416 bf3d 1aed 6e3d c42a b13c ae27 de3d
000003c0: f314 b2bd aae5 01bc aa42 c63c 4026 923d
000003d0: 6e9f ef3c b09f 62bc 64f1 35bc 3bc1 a5bd
000003e0: 6d14 4abc 85a1 763d b5c5 ffbb d1d4 8b3d
000003f0: 9a81 e63d 4278 923d 74ed ee3d 8e94 9d3d
-0.013801438 -0.034486827 -0.07216345 0.10974873 0.045536812 -0.0237986 0.09475283 -0.002004075
0.062654 0.019585596 0.08606681 -0.052086473 -0.060716167 0.095247805 0.031237282 0.114352725
-0.019320602 0.11702898 0.027591951 0.10745621 0.10484472 -0.091767326 0.026642732 0.10297161
-0.07639925 0.062914394 -0.028320972 0.05504611 0.03120444 -0.057320986 0.07779958 -0.0990879
0.0051312204 0.047723383 -0.023013258 0.06492189 -0.05198434 0.030600116 0.013083647 0.10547393
-0.0153392 -0.09456544 -0.07763197 -0.10341254 0.080515005 -0.082448766 0.0024260946 0.03904781
0.026236637 0.10657468 -0.0829957 -0.08637179 -0.099067256 -0.10696913 0.05074058 0.088252336
-0.053241633 -0.106083855 0.0060002375 0.08172227 0.05044031 0.020750782 0.078092575 0.007019497
-0.08392989 0.04703609 -0.04843249 -0.0100066755 -0.041943982 -0.057371978 0.01599101 0.10485209
0.10902333 -0.08583771 -0.095574915 -0.09126419 0.10851107 -0.08253852 -0.10638397 0.11354305
-0.016427562 -0.06583654 -0.11084888 0.018865362 0.049411546 -0.055832084 -0.048423897 0.032271773
-0.05644566 0.10895323 -0.067998044 -0.037145477 -0.021491239 0.053282842 0.10065328 0.10113031
-0.07811064 -0.06395112 -0.019924553 -0.0048097167 -0.07817983 -0.03414863 0.05721271 0.010893421
0.104565814 0.075256616 0.07181178 0.002328849 0.067908645 0.12113576 0.034569092 0.050977573
0.055394076 0.10487643 -0.0175246 -0.07951299 -0.06457278 0.052600607 0.11476431 0.017523836
-0.106057756 0.088653564 0.009444012 -0.083995365 -0.035331555 -0.016220812 0.016627975 0.069527775
-0.026580026 0.01660426 0.053658865 -0.06461257 -0.054004304 -0.052841373 -0.0014040312 -0.08801632
0.03234522 0.11158435 -0.032727774 0.08533115 -0.07352202 0.06666584 -0.050170187 0.011937044
0.008371048 -0.03350763 -0.022782404 -0.05728032 -0.06882647 0.100871414 -0.05928556 0.10556226
-0.005337056 0.024894936 0.10316553 0.07126716 0.014362787 -0.08933678 -0.09765714 0.01280379
-0.03282384 0.0062977546 -0.092803195 0.04629446 -0.049163334 0.029090097 0.104742005 0.041953385
-0.06705248 -0.11317386 -0.05913491 0.028401308 0.09533519 0.009140966 -0.005956654 0.087788254
0.06621647 -0.0044084033 -0.07061985 0.098676816 0.023520127 -0.09734486 -0.0687288 -0.057521034
0.06754973 -0.03352533 0.109384574 -0.07138569 0.015913812 0.006485977 0.0315356 0.047224633
0.07322549 -0.062221777 0.030013984 0.048292585 0.07668257 0.12134588 0.057084728 0.032308467
0.11195162 -0.080180585 -0.053235322 0.08914653 -0.053366963 0.08509901 -0.06359223 -0.07861241
0.10807467 -0.040307283 0.025246408 0.025654923 -0.046728965 -0.00775201 0.020114312 -0.0049609486
-0.08975873 0.10740337 0.06020804 -0.042420994 0.062607706 0.042881176 -0.017044084 -0.011195503
0.0047026845 -0.048732247 -0.10172522 0.052256346 0.09418016 0.085854836 0.10734874 0.057238042
0.08498266 0.06084526 0.09263911 0.094542876 0.0933055 0.058331586 0.021626838 0.10847412
-0.08695402 -0.007928291 0.02420171 0.07136202 0.029250827 -0.013832018 -0.011104915 -0.080934964
-0.012333971 0.06021263 -0.007805551 0.06827701 0.11255188 0.071518436 0.11666384 0.0769435

bias f4 [12]
00000000: 3224 7f3d 430f d73c 3faa 2a3d e5c6 a83c
00000010: ade7 a7bb 6231 903b 8de5 653d 9171 303d
00000020: 9fd8 903d 4d2c 723d ef3d 403d b3e0 903d
0.062290378 0.026252395 0.041666266 0.020602653 -0.0051240535 0.004400418 0.05612712 0.043077055
0.07072567 0.05912428 0.046934064 0.07074108

weight f4 [12]
00000000: 8b8a 803f 4438 823f c3be 803f f182 803f
00000010: 4c3d 813f 4096 803f 8005 823f 9636 813f
00000020: 7a85 813f 6b3d 803f e59a 823f 29f0 7f3f
1.004228 1.0173421 1.0058216 1.003996 1.0096831 1.0045853 1.0157928 1.0094783
1.0118859 1.0018743 1.020352 0.9997583

bias f4 [12]
00000000: c13b 1f3b f64c 873b 9da9 933a 2788 963b
00000010: 1d09 0c3c de2e 8d3b 9a66 883b b95f ea3a
00000020: da8d eb3a 170a 493b c0c8 a63b 108a 2ab9
0.002429709 0.0041290475 0.0011265759 0.0045938673 0.008547095 0.0043085655 0.0041626217 0.0017881311
0.0017971352 0.003067618 0.0050898492 -0.00016263896

running_mean f4 [12]
00000000: 06c2 a33e 6239 9dbb e989 9b3e 493f 143f
00000010: c153 dbbe eecf 7f3e d127 24be 67fc a23e
00000020: f459 343e a065 803e 947c 9b3d 1555 9c3e
0.31983966 -0.0047981003 0.30378655 0.57909065 -0.42837337 0.24981663 -0.16030814 0.31833193
0.1761244 0.25077534 0.07592121 0.30533662

running_var f4 [12]
00000000: 42e2 fc3c 8639 e43c 6e0a e73c aab1 c53d
00000010: a760 793d 6edd bc3c 6ca8 bc3c 2630 1f3d
00000020: 3226 2f3c f003 bb3c fd61 013c 2007 0b3d
0.030869607 0.02785946 0.028203215 0.09653027 0.06088319 0.023054805 0.023029529 0.038864277
0.010690259 0.022829026 0.007896897 0.03394234

weight f4 [12, 12, 5, 5]
00000000: 3e77 f9bc 04d0 d2bc f9e8 fe3c 43a3 cdbc
00000010: b161 243c 496e efbb 2fca 4fbd 5ec8 083d
00000020: 5f9b 22bd 9ecc 6dbc 50bd 793d 46e2 f23b
00000030: abd8 0e3d 96bc 593c b405 56bd f3aa 673d
00000040: 1244 743d 9fa7 87bc 4c06 413d 3531 743d
00000050: fef3 e83c 5daf 59bc 9df2 a53c 2f8d 6fbc
00000060: 04e9 e3bc 8efe 123c 1bbc f6bc 2704 16bd
00000070: e9bd 093d ded1 85bb 3433 45bd c088 e33a
00000080: 8de1 5dbd 32f8 9ebc a9fb 0fbd 4d8a 113d
00000090: 4933 91bc df9f 71bb d9ab 10bd 911b 0bbd
000000a0: 79aa 97bc 3cca 6dbd 5d1a 64bd dd22 acbc
000000b0: 935f 433d 9b9d 2b3d 97c3 643c 1a0a 323d
000000c0: 6d81 373c e264 0c3d 3117 babc 7936 eebc
000000d0: 462f a13c 3549 d23c 7c73 a03c fbcd 63bd
000000e0: d43d 0ebd e931 ad3c f6a6 563c c508 bd3c
000000f0: 8ed6 c43b e4d9 403d d322 f5ba 92c1 0d3c
00000100: bd2d 4abd 1b48 aebc 5f6e 413d eeb3 eebc
00000110: c315 7e3c 497d a2bc 4b5d 91bb b366 50bd
00000120: 64ad 38bc c5ec c83c 9635 1d3d d7e4 a3bb
00000130: 15c5 e6bc 08fc 4e3d 58ae 36bd e58e 5ebc
00000140: 58c2 313d 1547 37bd 307a fa3c 528e 103b
00000150: 2978 3cbd c8f2 643d 0eaf 543d 51e9 f8bc
00000160: 3f5a 27bd c3d5 2cbb 344e 193d 3416 eabc
00000170: fa65 6c3d 85ea d73c fcfe 683d 69e3 1abd
00000180: 027c 3fbd 222e 1f3d 62a8 a8bc bb65 203d
00000190: 70ce 3b3d 0e91 553c 707d 6f3c 40fd 92bc
000001a0: 42ff 37bc 079b df3c 585f 533d a12f 123c
000001b0: 78f7 77bc 4c89 ae3c e46c 15bc 3924 f638
000001c0: a5cc 873d d9a5 52bb 944d 813d 561f 663d
000001d0: 5621 563d 5319 423d ca6b 00bb 25f0 0ebb
000001e0: 2f5f c73c 40bd 0b3d 70f3 d2bc 6f47 69bc
000001f0: 8e31 9a39 377f e1bc d1e0 073d 052d b93c
00000200: c4a1 2c3d b661 59bd 9209 1fbd 932b 9dba
00000210: 23ff 25bd f2fc 02bd 1bba 25bc 09fe f13c
00000220: ba92 723c 5d80 a73c 2cf1 2ebd afd6 063c
00000230: f4b9 463c 6169 81bc 470f 15bd bf21 f23c
00000240: 1fbb bf3c bab2 3d3d 7234 b63c 83b5 3e3d
00000250: c9b4 273d 2dbc 813b efb0 113d d22c e93c
00000260: 4195 2a3b ffad f4bc d9b1 f43b b5b7 943c
00000270: 8041 663c 8d2e e4bc a8eb 62bd f909 27bc
00000280: 8d39 23bd 5b5a 5ebd a7e1 3bbd 4e6b 36bc
00000290: d971 adbc d8f5 2bbd d87b ec3b 6998 d2bb
000002a0: 09d7 9c3c 1569 08bd 8d25 123d faed a4bc
000002b0: c1d7 1bbd cdaf 9dbc 8917 31bd 2eb4 42bd
000002c0: 29ae 493c 55f7 533d 266c f83c b85d 833b
000002d0: b2d7 8e3b 3818 1abc 873e 9cbc 4d3a 0abc
000002e0: 7ec2 233d 6416 893b ade0 073d 4546 eabc
000002f0: 33d0 993c f116 95bc f9d3 503d 3f8b 6abd
00000300: 2da1 0eb9 6797 9a3c b92b d23c 440b bbbb
00000310: 1d07 21bd ecd6 6fbd 4de1 57bd a4d1 713c
00000320: 7858 a3ba 947e d73c 0c1a d9bc 4fb9 04bd
00000330: 798a b73c 3262 0f3d 111b 193d 06a1 4f3d
00000340: 49b9 e33c 647c 173d 5eeb 3c3d 8c5b 8c3c
00000350: 7a75 3abd 8960 63ba 14fa 2cbc 7131 63bc
00000360: 63ca 51bd 0eb4 2fbd f0fd 81ba c371 eebc
00000370: 6aba 0f3d 7387 6f3d eb0b 40bd 6f85 423d
00000380: 6a5d 0a3c 1432 353d 73c1 92bb f912 3b3d
00000390: 5695 b9ba 222d 413d 37b9 673c 92c0 25bd
000003a0: 9641 53bd 48eb 2a3d f8b3 a8bc 2a27 14bd
000003b0: 4537 533d 76c5 b0bb ea6a 4d3d af53 5a3d
000003c0: 46ee 03bd 5e5e e43c 1ae1 c9bb d208 7fbc
000003d0: e896 1cbd 0360 4c3d c5d8 c33c 9592 513c
000003e0: 28b2 f4bc ec54 32bd c56e 40bc 224f 45bd
000003f0: 1553 a5bb 27ea 3dbd 2b59 4ebd 2a2b 74bc
-0.030452367 -0.025733955 0.03111695 -0.025102263 0.010033057 -0.007306848 -0.050729927 0.03339421
-0.039698955 -0.014514117 0.060971558 0.007412228 0.0348746 0.013289591 -0.052251533 0.056559514
0.05963523 -0.01655942 0.047125146 0.05961724 0.028436657 -0.013286439 0.020257289 -0.014621063
-0.027821071 0.008971823 -0.030118993 -0.036625054 0.033628378 -0.004083856 -0.048144534 0.001735948
-0.05417018 -0.019405458 -0.03515211 0.035532285 -0.01772465 -0.0036868972 -0.035320137 -0.033961836
-0.018513905 -0.058054194 -0.055689204 -0.021012718 0.04769857 0.04189835 0.013962648 0.043466665
0.011200291 0.034275897 -0.022716137 -0.029078709 0.019675862 0.025669673 0.019586317 -0.05561636
-0.034726933 0.021141963 0.01310133 0.02307547 0.006007022 0.047082797 -0.0018702395 0.008652108
-0.049360026 -0.021274617 0.0472244 -0.029138532 0.015508118 -0.019835131 -0.00443617 -0.05087919
-0.011271808 0.024526963 0.03838118 -0.005001645 -0.028170148 0.050533324 -0.04459986 -0.013583873
0.04339823 -0.044745523 0.030575842 0.0022057486 -0.04601303 0.055895597 0.051924758 -0.030384691
-0.04085755 -0.002637253 0.037428096 -0.02857504 0.05771444 0.026356945 0.056883797 -0.03781453
-0.046749122 0.038862355 -0.020588104 0.039159518 0.04585117 0.013035072 0.014617309 -0.017943025
-0.011230292 0.027295602 0.0516046 0.008922488 -0.015134685 0.021305703 -0.0091202 0.00011736941
0.0663083 -0.003214231 0.06313625 0.056182228 0.052277885 0.047387432 -0.0019595497 -0.0021810618
0.02433738 0.03411603 -0.025750846 -0.0142382225 0.0002941009 -0.027526481 0.033173386 0.022604475
0.04214646 -0.0530717 -0.038827486 -0.0011991136 -0.04052652 -0.03197951 -0.010115172 0.029540079
0.01480549 0.02044695 -0.04271047 0.0082298955 0.012129296 -0.015797319 -0.036391523 0.029557107
0.023404656 0.046313025 0.022241805 0.04655982 0.040943895 0.0039592 0.035569128 0.028463755
0.0026028904 -0.029868124 0.00746749 0.018154005 0.014053702 -0.027854228 -0.05540052 -0.010195249
-0.039849807 -0.05428539 -0.045869496 -0.011133982 -0.02117245 -0.0419825 0.0072169118 -0.00642686
0.019145506 -0.03330334 0.035680342 -0.020133007 -0.038047556 -0.019248867 -0.043235335 -0.047535114
0.012309589 0.051749546 0.030325007 0.004008975 0.004359209 -0.009405188 -0.019072784 -0.008436752
0.039980404 0.0041835774 0.033173252 -0.02859796 0.018776035 -0.018199416 0.050983403 -0.0572617
-0.00013602218 0.018871022 0.025655614 -0.00570813 -0.039313424 -0.058554575 -0.052705098 0.014759455
-0.0012462279 0.026305474 -0.026501678 -0.032403287 0.022404896 0.035005756 0.03737933 0.050690673
0.027798312 0.036983863 0.0461229 0.017133497 -0.04552219 -0.00086737477 -0.01055767 -0.013866768
-0.0512184 -0.042896323 -0.0009917598 -0.02910698 0.035089888 0.058478784 -0.046886366 0.047490533
0.008445123 0.04423721 -0.0044786274 0.04567239 -0.0014158885 0.047162183 0.01414328 -0.040466852
-0.05157622 0.041728288 -0.020593628 -0.036170162 0.05156638 -0.005394633 0.05015079 0.053302463
-0.032209657 0.027877029 -0.0061608674 -0.015566068 -0.038229853 0.04989625 0.023907075 0.012791296
-0.029870108 -0.04353802 -0.0117451595 -0.04817117 -0.0050453045 -0.046365883 -0.050378006 -0.014902869

bias f4 [12]
00000000: f1ec f2bc 9567 43bd 7d13 743b 89da 3fbd
00000010: b564 4b3c ce14 b9bc c5d9 373d 67cc d63c
00000020: 65e5 5ebd 402f f03c 1df0 b73c c00a 63bd
-0.029653998 -0.047706205 0.0037243061 -0.04683927 0.012414147 -0.022592928 0.044885416 0.026220514
-0.054417986 0.029319406 0.022453362 -0.055430174

weight f4 [12]
00000000: a8a0 823f fefa 803f f64d 813f 9b0c 823f
00000010: a06d 813f 4762 813f 34ce 803f 9209 813f
00000020: 093d 813f 261a 803f 4f51 813f 0c68 813f
1.0205278 1.0076597 1.0101917 1.0160097 1.011158 1.0108117 1.0062928 1.0081046
1.0096751 1.000798 1.0102938 1.0109878

bias f4 [12]
00000000: 4d9c 903b f879 193b 990d 1bba f106 cd3b
00000010: 480d 003b 74ca 153b b7d9 a9ba feeb 193b
00000020: d04c 8aba 7608 0a3b 4f29 393b c291 7cbb
0.0044131638 0.0023418646 -0.0005914807 0.006256931 0.0019539166 0.0022856267 -0.0012958561 0.002348661
-0.0010551456 0.0021062172 0.0028253382 -0.0038539027

running_mean f4 [12]
00000000: 7e78 1bbd 8cfd a7bd be7a 8e3e e631 8ebe
00000010: d635 6cbe 2672 1cbe 3e22 a03e e920 fb3c
00000020: fca5 d23c d599 043f e0bc 7e3e 1f36 a03e
-0.037956707 -0.08202657 0.2782802 -0.27772444 -0.23067412 -0.15277919 0.31276125 0.030655341
0.025713913 0.5179723 0.24876738 0.3129129

running_var f4 [12]
00000000: 924b 653d 78d8 cc3d 7441 fa3d 041c 1a3e
00000010: bd51 b93d 4e24 973d cff9 b03d 00a3 f63d
00000020: 45be af3d 57a3 913e f8e5 c43d 2cfd b93d
0.055980273 0.10002226 0.122195154 0.1504975 0.090487935 0.073799714 0.08641397 0.120428085
0.08581213 0.2844493 0.096141756 0.09081492

weight f4 [24, 12, 5, 5]
00000000: bc7f 083c a3ea 5a3d 8b8e 52bd 941f b8bc
00000010: 38f7 e23c 5bd9 833d 0dcd a0bb 5ac3 4a3b
00000020: bdc9 61bd 7930 213d 9c53 373d 5f95 edbc
00000030: 3d3f 0d3d 7670 96bc deff 0f3d 8aa9 5fbd
00000040: 9b26 de3a d102 013c 6266 313d 2a94 443c
00000050: d401 89bb 19fa 903c 5818 593c d2d1 a1bc
00000060: 1e4e a4bc 4150 3dbd 3d89 14bd ad5c 56bd
00000070: 94c7 2ebd 7ad2 163d 75a3 243d 7c5f 43bd
00000080: 3680 e4bb a8ed 0d3d dc87 11bd 4a5c 10bc
00000090: 2371 7ebc 44b3 4e3d 0b72 a9bc ce31 523d
000000a0: 2bd4 c63c 5d4b 2abd f05b 56bd ce3e ebbc
000000b0: afa3 9ebc 6a18 143d 35be 17bd b3ef 693d
000000c0: 15ef 843c 9fa1 00bd 0679 623c e7bd dfbc
000000d0: 6c82 483d c161 433d 9971 b8bc 6c1e 3cbc
000000e0: 05cf 193d 9ad6 273d 5980 4dbc 9e66 b3bc
000000f0: 588e e73b 875a 8dbc 802e 1c3d 2272 c23c
00000100: 7e16 71bd ace6 38bc 5be7 69bc 9f48 ee3c
00000110: 86d3 623d 2df5 3bbd 51cd 6b3a 881a 69bd
00000120: 00e5 83bc e07a c13c 1012 cc3b 1aff 1cbd
00000130: 386a fdbc 38d8 0a3d 1e57 3ebd 50db 3dbd
00000140: a56f 133c d5ff c13c 3d2e 223d d9d9 55bd
00000150: f172 da3c 53aa c33c e0ab b237 faf0 8d3a
00000160: 3d8c 29bd 5bdc ef3c 7df9 823d 75f1 46bc
00000170: 01cb 1d3d 9adc 0bbd bf94 20bd 46bd 4e3d
00000180: d477 bd3c 7140 2dbd 0bd1 b53b 135c c0bb
00000190: 1245 0f3d a6e7 163d be61 39bd e548 bdbc
000001a0: 59b6 28bc cf14 b3ba 257d fd3c db70 203d
000001b0: f494 23bd e821 25bd 664f 93bb 8948 46bd
000001c0: e90a ddbc b934 00bd dfb5 d6bc b680 bdbc
000001d0: 88e6 aabb f19f df3b 7d3b 07bc 89fe 31bd
000001e0: 2f6a 583d 7829 923c 40cd 9a3c 0408 a8bc
000001f0: a23b f03c 48a5 9b3c 138f 19bd 4720 223c
00000200: d28a 86bc 2e6e 0bbc 1493 5a3d ae81 20bd
00000210: def4 93bc 2fea 413c e96f a23c 785d 253b
00000220: e0b8 24bd 86ef ff3c 685f 45bc 337b 44bd
00000230: 8d02 67bd 703e 6e3c b30e 003d 17c7 cb3b
00000240: 0f27 2f3b 07ec 5dbd b155 7fbc a9f4 333d
00000250: 4c40 203d a05e 34bd 5880 d1bc ea7b 46bd
00000260: 5dec 16bd cc9a d13b ca5e be3c ed5c 88bc
00000270: 915e 29bd 2590 183d 2a70 1fbd 1621 f23c
00000280: 34c0 693d d86e 5ebd e473 753d 4f39 a0bc
00000290: 4af6 203d 2744 15bd 81b8 283d d447 22bd
000002a0: 46b3 453c eff7 873c 1562 723d d82e 4ebd
000002b0: 987c 14bc 96a0 343d 605e 283d 905b 0f3d
000002c0: f34d d1bc 885c 203a ef57 4f3d 4672 abbc
000002d0: acb1 243d 0be5 953c 0d2f 863d 31f9 363d
000002e0: 2e85 aabc 649b d9bc d001 653b 4bbf 3bbd
000002f0: 8397 1bbc 0305 6abb b588 33bc d1a7 b93c
00000300: eb1f 653d b61e 993c e2ac fdbc deb3 743d
00000310: f31c 2bbd 3b21 fc3a 8f51 babc 5caa 16bd
00000320: a4a6 2d3d 8628 023d 42e0 953b b7ce fc3c
00000330: d307 143d c262 c93c 0d8f a13c d25f 3ebd
00000340: 28b9 88bc 4c97 ad3c 345e b9bc 85f7 653d
00000350: a881 31bd e027 013d 37b4 de3b a9ea 5c3d
00000360: 1d2b 39bd 9bbe e5bc f4b6 963c 7cd3 3dbd
00000370: 0baf 213d 352c d2bc 3b56 82bc 219a 103c
00000380: 2683 c83c 2823 393d 1079 19bd e6ae f8bb
00000390: 683b 6a3d 21a5 51bd 1f48 48bc f0dc 773b
000003a0: 67b9 393d c610 ca3c bcea f0bc 6a98 fbbb
000003b0: 9627 9dbc 82d5 43bc 9cb5 3cbd 7507 27bd
000003c0: 7609 063d 6d3b 8bba 7914 3b3d 9512 3fbb
000003d0: 1710 3b3d 784c e6bb 08f0 3abd 4032 cfbc
000003e0: 1c16 cebb 970e 7c3c 1579 463d 04a9 64bc
000003f0: 21ba 6f3d a040 293d bc28 03bd 4ced b43a
0.0083312355 0.053446423 -0.05140547 -0.022475995 0.027705774 0.06437942 -0.0049072565 0.0030939193
-0.055124033 0.039352868 0.04475747 -0.02900189 0.034484137 -0.018364172 0.035156123 -0.054605044
0.0016948761 0.007874207 0.04331053 0.011998216 -0.004181126 0.01769738 0.013250433 -0.01975337
-0.02005678 -0.046219114 -0.036263693 -0.052334476 -0.0426708 0.03682182 0.040194947 -0.047698483
-0.0069732917 0.034650475 -0.035529956 -0.008811066 -0.015529904 0.05046393 -0.020684263 0.05131703
0.024271091 -0.04157578 -0.052333772 -0.028716471 -0.01936516 0.036156096 -0.03704663 0.05711336
0.016227284 -0.031404134 0.0138228 -0.027312232 0.048952505 0.047700647 -0.022515105 -0.0114818625
0.037550945 0.040976144 -0.0125428075 -0.021899518 0.0070665292 -0.01725508 0.038130283 0.023736063
-0.05885934 -0.011285465 -0.014276351 0.029087363 0.055377506 -0.045888115 0.0008995133 -0.056910068
-0.016100407 0.023618162 0.006227739 -0.03832922 -0.030934438 0.03389761 -0.0464698 -0.04635173
0.008998786 0.02368156 0.039594878 -0.05220971 0.026666136 0.023884928 2.1299289e-05 0.0010829263
-0.041393507 0.029279878 0.06395242 -0.012142529 0.038523678 -0.03414593 -0.039204355 0.050473474
0.023128428 -0.042297784 0.0055486015 -0.005870351 0.03497798 0.03684201 -0.04525923 -0.023106048
-0.010297381 -0.0013662818 0.030943463 0.039170127 -0.039936975 -0.04031554 -0.004495549 -0.04840902
-0.026982741 -0.03130028 -0.02620977 -0.023132663 -0.0052154697 0.0068244864 -0.008253929 -0.043455634
0.05283564 0.01784204 0.018896699 -0.020511635 0.02932531 0.01899971 -0.03748996 0.009895391
-0.016423617 -0.008510156 0.05336292 -0.039186172 -0.018061098 0.011835619 0.019828754 0.0025232714
-0.040215373 0.031242143 -0.012046672 -0.047969054 -0.056398917 0.014541253 0.03126402 0.0062188017
0.0026726162 -0.05418017 -0.015584395 0.043934498 0.03912382 -0.044035554 -0.025573894 -0.048458017
-0.036846507 0.006396627 0.023238558 -0.016645873 -0.04134995 0.037246842 -0.038925327 0.029556792
0.057068065 -0.054304928 0.059924975 -0.019558577 0.03929738 -0.03644195 0.04119158 -0.039619282
0.012066668 0.016597716 0.05917557 -0.050337642 -0.009062909 0.04409846 0.041105628 0.03499943
-0.025549864 0.0006117304 0.05062097 -0.020928513 0.040208504 0.018297693 0.06551943 0.04467124
-0.020815458 -0.026563354 0.0034943707 -0.045836728 -0.009496572 -0.0035708554 -0.010957886 0.022663029
0.055938642 0.018691402 -0.030966226 0.059741847 -0.041775655 0.0019235978 -0.022743968 -0.03678356
0.04239525 0.031776927 0.0045738528 0.030860288 0.036140274 0.024583224 0.019721532 -0.0464781
-0.016689852 0.021190308 -0.022627927 0.056144256 -0.04333654 0.03153217 0.0067963856 0.053934727
-0.04520713 -0.02804499 0.018397786 -0.046344265 0.039473575 -0.025655845 -0.015910259 0.00882581
0.024476599 0.045199543 -0.03746897 -0.007589209 0.05718556 -0.05118287 -0.012224226 0.0037820898
0.04534283 0.024666201 -0.029408805 -0.0076780813 -0.019183915 -0.01195276 -0.046071634 -0.040778596
0.032723866 -0.0010622569 0.04567382 -0.0029155363 0.04566964 -0.0070281588 -0.045639068 -0.025292516
-0.0062892567 0.015384338 0.048455317 -0.013956312 0.058527116 0.041321397 -0.03202127 0.001380363

bias f4 [24]
00000000: 42d5 383d ca57 bc3b ae4a 5abc 9b74 103d
00000010: 5152 233d fe9b 6a3d b5bb 48bd bd9b 88bc
00000020: 34af 86bc a3d6 103d b5bd dabc 738c 09bd
00000030: 020a eebc 0ccb 19bd b2ff 803b 6454 7a3b
00000040: 2f9e 8fbc 8bdf 6e3d fdb8 543d c64a 4cbd
00000050: 4fbd c5bc 982d 33bd 6a04 c13c 0694 ce3b
0.045125253 0.00574777 -0.013323469 0.035267454 0.039873425 0.057277672 -0.049007136 -0.016675824
-0.016440965 0.035360944 -0.026701787 -0.03358121 -0.029057506 -0.037547156 0.0039367313 0.0038197273
-0.017531483 0.058318656 0.05193423 -0.049875997 -0.024138121 -0.043744653 0.023561675 0.006304267

weight f4 [24]
00000000: 3b86 803f ebd5 7e3f 9e0d 7e3f 98f9 7f3f
00000010: 337a 7f3f 8002 813f 6ab9 803f a2e3 803f
00000020: ef0b 813f c058 7f3f d956 803f 4d9b 803f
00000030: 618f 813f c956 803f 1c0d 813f 8e33 803f
00000040: fa02 823f 2d26 813f 0017 803f 53b5 803f
00000050: 7ffc 7e3f 5362 803f 7e46 7e3f dd15 813f
1.0040964 0.9954516 0.9923953 0.99990225 0.99795836 1.0078888 1.0056584 1.0069468
1.0081767 0.99744797 1.0026504 1.0047394 1.0121881 1.0026485 1.0082126 1.0015733
1.0157158 1.0089775 1.0007019 1.0055336 0.9960403 1.0030006 0.9932631 1.0084797

bias f4 [24]
00000000: 64e6 a03b a706 7c3a 4ac1 3dbb ad5b f939
00000010: aef8 8d39 afd1 773a 2ff6 a93b 2a0e 803a
00000020: 9e2d e5ba 4c5d e93b 47b0 92bb bbe4 fa39
00000030: 95a3 d23b 7ef6 0138 c6d1 083c 133b 81ba
00000040: 1693 bcb9 7f0d ce3b 73f7 323b 707a 113b
00000050: 6fef 13ba e0a0 dd3b d544 923b 046e 513b
0.004910277 0.00096140284 -0.002895432 0.00047561285 0.00027078897 0.00094535475 0.005186818 0.0009769846
-0.0017484908 0.0071217176 -0.0044765803 0.00047854133 0.006428192 3.098556e-05 0.008350795 -0.0009859524
-0.00035967742 0.00628823 0.0027308136 0.0022198223 -0.00056432834 0.0067635626 0.004463772 0.0031956444

running_mean f4 [24]
00000000: 6598 7ebe 95a9 65bd 0b3d c83e 6c81 58be
00000010: 5091 a03d 8f8d c53e ac48 92be e724 4dbd
00000020: 04d8 463e b214 d9be 0e6f 143f 90a9 6d3e
00000030: 3d45 1abe d1c1 6b3e cbda 0dbf e284 eb3e
00000040: 94fa 863e 383a 31be a703 b03e 56f5 57be
00000050: 32d4 403e d040 20bf e3b6 babe 96f5 bdbc
-0.24862821 -0.05606993 0.39109072 -0.2114312 0.07840216 0.38584563 -0.2857107 -0.05008402
0.19418341 -0.42398602 0.57981956 0.23209214 -0.15065475 0.23023154 -0.55411977 0.4599982
0.2636305 -0.17307365 0.34377787 -0.21089682 0.18830946 -0.62598896 -0.36467656 -0.023188394

running_var f4 [24]
00000000: 2258 df3d f295 1f3e 5af8 af3e 7647 913e
00000010: a10c 073e bf3c 183e cd89 3d3e ef5b f33d
00000020: ea8e 283e aca7 673e 9157 343e 962d 1f3e
00000030: 252a d03d a56f 223e efed 013e 8483 5e3e
00000040: 2884 293e 2a40 f03d 38bb 113e 423c 0c3e
00000050: 600c fd3d 466f 213e 7e69 5d3e 4c70 db3d
0.10905482 0.15584543 0.34369165 0.28374833 0.13188411 0.14866923 0.18509598 0.11882769
0.16460767 0.22622555 0.17611529 0.15544733 0.101642884 0.15862902 0.1268842 0.21729857
0.1655432 0.11730988 0.14231575 0.13694862 0.12355876 0.15765104 0.21622273 0.10714778

weight f4 [48, 24, 5, 5]
00000000: 6634 f13c b462 2e3c ad94 ab3b 15f3 08bd
00000010: 74f6 a13c f640 453d 6af5 d53c 1733 68bc
00000020: bd2d 05bd 5af3 183d 4902 f43b 3b8a 89bb
00000030: 8496 d43b e6ba b8bc 2d08 b33b 4184 1c3d
00000040: 0a04 83bc 9b8b 18bd ba66 2d3d a06e 09bd
00000050: 9f11 b1bc 056a 83bc a092 acbc ad50 abbc
00000060: f362 813c 0f79 293b e903 8a3c 74cd 4c3c
00000070: d152 6e3c 54ff 14bc 6b17 e93c 3944 1ebc
00000080: 93e9 d0bc efc0 29bc 91cf 6dbc 9311 08bd
00000090: a5c6 c8bc 49a6 22bd 1835 a23c c3a2 0dbd
000000a0: 4b5b 0d3c 5c13 05bd fe1f e3bc 1d3d e2bb
000000b0: fe1c 1fbd 708a 14bd f153 11bd 9f43 c63c
000000c0: 4c86 15bc 9c9d 003d 7481 913c 9c12 553c
000000d0: c088 a03c bf63 88bc b0f5 fcbc ce31 abbc
000000e0: 83cf 043d 6fdb 0ebd 68d4 e1bb 721a b33c
000000f0: 96a1 d83b 0474 143d 21b3 853b 2b5c 17bd
00000100: 3a95 893c 73d2 4a3b 27fa fa3c dc2a da3c
00000110: e330 21bd fd38 27bd 070c 9f3c 9081 083d
00000120: 4ab2 99bc da16 f83c 4559 9bbc e585 12bd
00000130: 3f46 803b 24b7 96bc 2535 17bc 4299 df3c
00000140: a2fc 233d 3d56 f13c 7cf2 bc3b a9a0 d53c
00000150: 557e 113d b3b0 f6bb 2cc7 693c 50d5 9f3b
00000160: ce52 183d 444a e83c 7ffd 00bd ba56 e5bc
00000170: cce1 2cbc 3cba 8e39 7773 16bc f4ef 103d
00000180: 3e23 c73c fe79 10bc 0abb 97bc cdc3 b83c
00000190: f8a4 85bc 9fb3 293c 1f31 103d e28b cbbc
000001a0: ef23 653c 59cf 85bc 4cd3 08bc 967f b33c
000001b0: 3e84 db3c 01ae e93c 4361 aa3c f481 ca3b
000001c0: b4e5 d9bc ea17 96bc d64e c2ba b6b2 fabc
000001d0: f0b8 e63c 4182 fc3c f026 c13b 2296 fa3b
000001e0: 7dc3 8b3c 4932 14bc 4bec d43c 94e1 083d
000001f0: b89d f8bb 0829 8fbc 0a2d 103d 56f5 00bd
00000200: 400e 4a3c 4a72 f93c 8800 7b3c d5cd 343c
00000210: feaf 68bc 84f2 87bb f91d 98bc 70c1 5dbc
00000220: d5dd 273d c636 173d 01fa 083d 7420 db3c
00000230: 452a abbc e27d 8f3b d558 f83c a5c5 013d
00000240: 875a 473b d797 45bc 53be 05bd 5853 ddbc
00000250: b6e0 df3c 9c6b b2bc 0fe4 af3c 7d4b 83bb
00000260: 17ba 4dbc 5de9 c0bc 7c61 883b a13e cdba
00000270: 16b2 ea3b f263 0b3d 920b 9bbc e2fa 7abc
00000280: 7c61 563c 0357 04bd b7a5 1e3d 2582 d33b
00000290: 7494 12bc fc7d 09bd 11ed f8bc 4a3f 103d
000002a0: 030c d03b d6ce 09bd 8861 b13c a79d e8bc
000002b0: db37 d5bb 72dc bebc 9e2a 0c3d c627 0dbd
000002c0: a896 333c ac0e 153d 0c7b 9abb aaf3 193d
000002d0: 6587 ebbc 2167 e93c 9b5f c3bc 24e7 b7bc
000002e0: 97c7 f8bc 43d9 e5bc ea10 7abc 48c9 ad3c
000002f0: a980 be3c b123 003d 30db e23c fab1 9a3c
00000300: 4a24 b23c f438 dbbc 246e f7bc 0ab3 1b3c
00000310: b72f ae3a 5ecc cf3c 33d1 053c b5f4 8ebb
00000320: a799 dcbc a0bb 05bc d625 42bc 7a9a a83c
00000330: 4820 743c 5d3e f7bc 592e b238 3ce5 b93b
00000340: 6e3c d1bc 1f69 b83c efd1 cabc 4fa1 cbbc
00000350: e683 a73c 2bc4 8cbc cba4 3fbc 27ce 2d3c
00000360: dd84 9abc d77a b1bb 137e 5b3c be7a a3ba
00000370: 614e 02bd a89f fc3c 6350 d33c 88b4 093d
00000380: bc75 26bd 9c33 dc3c eeb9 f2bc 5ab3 253c
00000390: 2e56 ea3c 37d2 383d 96b9 0cbc aed9 11bc
000003a0: ed64 383d 4877 cdbb 9c0e f8bc 5e96 313d
000003b0: 62e3 f13c 3f1c 0f3d 3d07 e53b f93f 1b3d
000003c0: 9796 61bc e400 ba3c 29f3 063d 9fdd a13c
000003d0: 35e8 0b3c 3850 213d 1e2e 42bc 2f92 883c
000003e0: 6caf 5d3b f3e2 f1bb 071b c1bc fff9 c03b
000003f0: da3c 9fba 044b 0a3d ab0e 0abd 8d10 403c
0.02944393 0.01064365 0.0052362294 -0.033434946 0.019770838 0.048157655 0.026118 -0.014172337
-0.032514323 0.037341453 0.0074465615 -0.0041973866 0.0064876694 -0.022550058 0.005463621 0.038212065
-0.015993137 -0.037242513 0.042334296 -0.033552766 -0.021614848 -0.016041765 -0.02106601 -0.020912493
0.015794253 0.002585951 0.016847568 0.012500156 0.014546112 -0.009094078 0.02845355 -0.00965982
-0.025502002 -0.01036094 -0.01451482 -0.033219885 -0.024508784 -0.039709363 0.019800708 -0.03457905
0.008627723 -0.032489166 -0.027725216 -0.006904258 -0.03884601 -0.036264837 -0.035480443 0.024202166
-0.009126257 0.031400308 0.017761923 0.013004925 0.019596457 -0.016649125 -0.030878872 -0.020897772
0.03242446 -0.034877237 -0.006891776 0.021863196 0.0066110594 0.036243454 0.0040801917 -0.036953133
0.01679479 0.0030948191 0.03063686 0.026631765 -0.039353263 -0.040825833 0.019414915 0.033326685
-0.018761773 0.030284334 -0.018963465 -0.035772223 0.003914624 -0.018397875 -0.009228979 0.027294759
0.04003585 0.029460067 0.005766211 0.026077585 0.03552087 -0.0075283884 0.014268678 0.0048777238
0.037188344 0.028355725 -0.031491753 -0.027995456 -0.010551881 0.00027223106 -0.009182802 0.035385087
0.024308797 -0.008818148 -0.018521804 0.022554303 -0.016314015 0.010357766 0.035203096 -0.024846975
0.013985618 -0.016334223 -0.008351158 0.021911424 0.026796456 0.028525354 0.020798331 0.0061800424
-0.026598789 -0.01832195 -0.001482452 -0.030602794 0.028164357 0.030823829 0.0058945343 0.0076472918
0.01706099 -0.009045192 0.02599158 0.033418253 -0.007587161 -0.01747562 0.035199203 -0.03148397
0.012332499 0.030450005 0.015319951 0.011035402 -0.014202116 -0.004148783 -0.01856898 -0.013534889
0.04098304 0.03691747 0.033441547 0.026748873 -0.02089418 0.00437902 0.030315796 0.03168263
0.0030418949 -0.012060127 -0.03265221 -0.02701728 0.02732883 -0.021779828 0.021471051 -0.0040068016
-0.012556574 -0.023548776 0.0041620117 -0.0015658924 0.007162343 0.034030862 -0.018926416 -0.015318604
0.0130847655 -0.032309543 0.038732257 0.0064547234 -0.008946527 -0.033567414 -0.03038648 0.035216607
0.006349088 -0.03364452 0.021652952 -0.028395487 -0.0065069026 -0.023298476 0.03422033 -0.03446176
0.010961212 0.036390945 -0.0047143754 0.03758589 -0.028751085 0.028491559 -0.0238493 -0.022449084
-0.03036861 -0.0280577 -0.015262822 0.021214142 0.02325471 0.031284038 0.027692407 0.018883694
0.02174582 -0.026760556 -0.030203886 0.009503135 0.0013289367 0.025366005 0.008167553 -0.0043626674
-0.026928736 -0.008162409 -0.011849841 0.020581473 0.014900275 -0.030181104 8.496334e-05 0.005673079
-0.02554151 0.022511063 -0.024758307 -0.024857191 0.020448636 -0.017183384 -0.011697005 0.010608233
-0.018862182 -0.005416255 0.013396758 -0.0012472493 -0.03181303 0.030837849 0.025795167 0.033619434
-0.040639624 0.026880078 -0.029629674 0.0101135615 0.028605547 0.04512235 -0.008589169 -0.008901997
0.045018125 -0.006270323 -0.030280404 0.043356292 0.02952737 0.034939047 0.0069893883 0.037902806
-0.013768814 0.022705503 0.03294674 0.019758997 0.008539249 0.039383143 -0.0118518155 0.016671268
0.0033826483 -0.007381791 -0.023572458 0.005889177 -0.0012148872 0.033762947 -0.033705395 0.011722696

bias f4 [48]
00000000: 9a33 f4bc ad96 f7bb 6f95 c3bc 2d51 3fbc
00000010: f752 eb3c db85 1d3d 0d66 513a 87a3 003c
00000020: f05a d7bc 1c47 bbbc ae47 173d b321 003d
00000030: 6f37 073d c9ea 3bbc 7034 ea3c c8a1 013d
00000040: 8718 173d 0859 133a 5a3f ef3c d370 d73c
00000050: ab91 2dbc 6871 0bbd f21d ae3b f741 e5bc
00000060: 4cb5 cc3b 51fe 503c e5b0 d9bc 4b43 6b3c
00000070: 5a88 89bc f1b8 bdbc 90ec f73a 343c a1bc
00000080: 0ec7 b5bb 9043 2e3a 7865 ab3c 31f2 d03c
00000090: 9a6e 50bc 1676 763b 7bfd 96bc 6481 18bd
000000a0: 6a38 983c 068d a7bc 9c0e d4bc 3a23 60bc
000000b0: eaf7 cdb9 a71a 753b 1018 11bc 8361 c33c
-0.029809762 -0.0075558037 -0.023874966 -0.011677069 0.028726084 0.038457733 0.0007987924 0.007851488
-0.02628848 -0.022861056 0.036933593 0.031282138 0.03301185 -0.011469551 0.028589457 0.031648427
0.036888625 0.00056208717 0.029205013 0.026298916 -0.010593812 -0.0340437 0.0053136284 -0.027985556
0.006247198 0.012755946 -0.026573608 0.014359306 -0.01678865 -0.023159476 0.0018915106 -0.019682027
-0.005547411 0.0006647641 0.020922408 0.02550611 -0.012721682 0.0037607006 -0.018431416 -0.03723277
0.018581588 -0.020452987 -0.025885873 -0.013680274 -0.00039285357 0.003739992 -0.008855835 0.023850208

weight f4 [48]
00000000: 6767 7b3f 6cfe 7b3f 8692 7b3f 8c68 7c3f
00000010: 924a 7e3f ba36 7c3f 6fda 7a3f 2b75 7e3f
00000020: fbf4 7d3f 45dc 7d3f 479c 793f d8b3 7e3f
00000030: 393f 7d3f 2ed2 7f3f c7f9 7a3f f1d4 7d3f
00000040: 8915 7a3f 2648 7d3f 2724 803f 6ac5 7b3f
00000050: 484c 7c3f 92ac 7e3f 9008 7e3f 3011 783f
00000060: 8f64 7e3f 0339 793f 1cbd 793f b15b 7e3f
00000070: f01c 7e3f a20c 7e3f 0b5e 7b3f 0430 7f3f
00000080: 8705 7d3f e169 7e3f 9bb0 7d3f 3426 803f
00000090: 4cef 7f3f 5d5f 7c3f 9ed2 7c3f 6db2 7e3f
000000a0: a34a 7a3f 490f 7e3f e5bb 7f3f 4a38 7d3f
000000b0: 91fe 793f a0f8 7f3f eb42 7e3f 47e9 7d3f
0.98204654 0.9843509 0.9827045 0.98597026 0.99332535 0.98521006 0.97989553 0.99397534
0.99201936 0.9916423 0.97504085 0.9949317 0.98924595 0.99930084 0.9803738 0.9915305
0.9768911 0.98938215 1.0011033 0.98348105 0.98553896 0.9948207 0.99231815 0.96901226
0.9937219 0.9735262 0.97554183 0.9935866 0.99262905 0.99238026 0.98190373 0.9968264
0.9883656 0.9938031 0.99097604 1.0011659 0.99974513 0.9858301 0.98758876 0.99491006
0.97770137 0.99242073 0.9989608 0.98914015 0.9765406 0.99988747 0.9932086 0.9918408

bias f4 [48]
00000000: b43d de3a 31d4 e73a ef0f 183b e408 3cbb
00000010: 36b4 b23b d62e c93a 139d 3239 b636 3eba
00000020: 39d1 b83b c27e d63a b041 1b3a 1878 f83a
00000030: c2a7 9c3b b9b7 4937 5f70 0c3b 0233 a938
00000040: 544e 693b 214f 193b 72bf f9b9 c143 353b
00000050: 85c8 8e3b be37 5b3b 9dec d139 9377 3d3b
00000060: f9e4 a2ba ea7b 2d3b a176 0339 c5ae 653b
00000070: 4d60 023a 2cd0 c7ba 0a67 813b ed03 213b
00000080: 0a96 7c39 5d82 423b 96f4 543b 8b08 a93b
00000090: 4bd0 a23b ba56 103a fd13 8c3b f3ec 4fba
000000a0: 876f 343b 4de4 813a b296 8cb9 93fd b9bb
000000b0: cf81 673b 26bd 76bb 0959 a83b 864d 003a
0.0016955645 0.0017687139 0.0023202857 -0.0028691823 0.0054536117 0.0015349041 0.00017033918 -0.00072560774
0.0056401757 0.0016364681 0.0005922569 0.0018956689 0.0047807405 1.202331e-05 0.0021429283 8.068049e-05
0.0035599666 0.0023393112 -0.0004763562 0.0027658793 0.0043574 0.0033449973 0.00040039877 0.0028910383
-0.0012427858 0.0026471564 0.00012537326 0.0035046798 0.00049734564 -0.0015244535 0.003949051 0.002456899
0.00024088487 0.0029679753 0.0032494417 0.005158489 0.004968678 0.00055060873 0.0042748437 -0.00079317315
0.0027532296 0.0009909958 -0.00026815158 -0.0056759804 0.0035325175 -0.0037649362 0.005137567 0.00048943644

running_mean f4 [48]
00000000: e7ba 0f3e 15bb fcbd 23ad 45bd 18d4 7a3e
00000010: a316 43be 7af0 1f3e 1120 f53c b96a 0c3e
00000020: 5e42 4bbd 813f a43d 1621 083e 07c8 4dbd
00000030: 2ab8 a8be d35d 693d d42d f83d e8da 22be
00000040: 7f3e 16be 08d8 ba3d 5c8b 083e 261c 8e3e
00000050: f2cb ffbd c54e 7c3d 457c 943e 0753 85be
00000060: 8827 e03e 2293 7a3d f158 1c3d bf82 713c
00000070: d68a 9a3e 162b 763e 8cc3 ebbc a057 2ebd
00000080: fae9 82be bfeb b5bd 9e39 d3bd ea44 5abe
00000090: 07d0 99be c882 693e 8026 86be 5aa1 a43d
000000a0: 0e72 c8bd 5278 a13e 32f1 5d3d 0afb 6a3e
000000b0: 4c2d 46bd 751b 5b3e 4681 1abe f12e 453d
0.14036141 -0.123403706 -0.04826082 0.2449497 -0.19051604 0.15619078 0.029922517 0.13712586
-0.04962384 0.08019925 0.13293871 -0.05023959 -0.32953006 0.056974243 0.12118116 -0.15903819
-0.14672278 0.09123236 0.13334411 0.2775585 -0.12490071 0.061598558 0.2900106 -0.26039907
0.4378016 0.061175473 0.03817076 0.014740645 0.30184048 0.24039873 -0.028779767 -0.042564034
-0.25569135 -0.088828556 -0.10313724 -0.21315351 -0.30041525 0.22803795 -0.26201248 0.08038588
-0.09787379 0.3153711 0.0541851 0.22947326 -0.048383042 0.21397193 -0.15088376 0.04814047

running_var f4 [48]
00000000: 90e7 173e 0751 ae3d c9c7 c73d fd8e d43d
00000010: f5b3 c83d 707a fd3d 990a e63d 036e f13d
00000020: 537e 043e e1a0 cb3d fa0f fa3d 0aed d73d
00000030: a59b ce3d e0ea f43d 10de 0d3e 31ba f53d
00000040: 7c7a cc3d 895a 1b3e 6066 b23d e871 ff3d
00000050: fa43 a13d dc56 e63d e5c1 ae3d e0e2 e83d
00000060: 5e6f 033e 443b dc3d e8f2 c13d 4707 d53d
00000070: 6d37 023e bed0 d63d bbb7 fc3d 58ca da3d
00000080: 8824 d23d 778d f03d c959 f03d d8da a63d
00000090: afa2 003e c15c 0c3e 9ae1 073e 0aec c03d
000000a0: 082b 1b3e 6a6b cb3d 1fec b43d 277f 063e
000000b0: c419 f43d 94c6 dc3d abdf dd3d 3f92 d33d
0.14834428 0.085115485 0.09754903 0.10378835 0.09799949 0.12376869 0.1123249 0.11788561
0.12938814 0.099427946 0.122100785 0.105432585 0.100882806 0.11958861 0.13854241 0.11998404
0.099842995 0.15171255 0.08710933 0.12472898 0.078742936 0.11247036 0.08533076 0.11371398
0.12835452 0.107534915 0.09470159 0.10401779 0.12716456 0.10489033 0.12339731 0.10683125
0.10260874 0.11745732 0.11735875 0.0814721 0.12562059 0.13707258 0.13269654 0.09420021
0.15153134 0.09932597 0.08834099 0.13134442 0.11918977 0.10780063 0.10833677 0.103306286

weight f4 [6, 4800]
00000000: 9f30 9a3c 81c7 3a3c aa0f 4c3b ffb5 d83b
00000010: 6bf3 02bc afce 0539 0411 19bc 64a4 91bb
00000020: 55e4 81bb 1ed3 e93b 4571 17bc 76b7 5f3b
00000030: 7528 8b3b 01db 4fbc fa3c 453c 47b4 8abc
00000040: 136c e53b 7740 9cbb 91c2 9a3b f1c8 57bc
00000050: 0da0 48bc 480a 77bb 8a8f 3bbc 1daf 41bc
00000060: f325 f43a ea15 f53b c87e 133b 5e3b 74bc
00000070: 623d 563c 2418 0d3c db0d 3ebc 927c 85bb
00000080: 224b 3e3b 976c 69bb 256a e63a b32b cdba
00000090: 22bc d53b b957 d3bb 147b 813c 1937 56bb
000000a0: e8bf 173b 2da3 83bc f23a 023b 3334 8d3b
000000b0: 2d12 01bc 6e95 2cbb 327d 6abc ad96 8d3b
000000c0: 630b 303c 406e ff3b 7aa0 143c 7067 2b3c
000000d0: f6ae c63b ffdd f6bb f661 823b c08a 693b
000000e0: 0d22 18bc c934 e23b 03b0 88bb 9699 9b3b
000000f0: 4c8d 033c e707 c03a af40 423c 895f de3b
00000100: 2d76 59bc 53c6 4bba ca7d d73b 231a b03b
00000110: b758 153c 4e1c 043c 34ab 63bb 4e60 3f3c
00000120: e5d2 91bb c511 82bb c8d7 2d3c 76a7 1b3b
00000130: 3a9f 05bc e131 9c39 02e0 86ba d2ab b8bc
00000140: 6fd2 86bc cfa0 313c e35a 44bb 71f4 a73b
00000150: 15f4 f5bb 574b 223c 209b 103c 247c ceba
00000160: 7ce7 f03b 7081 733c 13bc 0cbc 076e fa3b
00000170: ee93 5f3c 3b2c a73a d986 373c 383b f23b
00000180: 7fb6 473c 9929 513b ea13 653b 9466 de3b
00000190: 00d1 2abb b33f d0bb e519 d8ba 57ce e33b
000001a0: 1253 89bb 09ce ddbb 813d 3e3a 14af 46bc
000001b0: 65c1 083c d9ea 123c 5e8b 94bb 2857 30bc
000001c0: c877 5d3b ca11 2539 dd21 8b3a 7dcd 30bc
000001d0: 4221 48bc 7d1f 44bc d240 5bbc cc91 43ba
000001e0: bb9e f7bb e8e4 383c 1fc1 1dbc 2959 f6bb
000001f0: 6fd0 e33a e6a9 3fbc 0cff bfbb bb39 c03b
00000200: 56ad 4cbc 13b9 8a3c ee09 56bc f32f 3abb
00000210: 7048 2d3a 93fe eb3b 3c12 42bc 3a4d e33a
00000220: bcd4 0b3c 7f42 083c d649 0f3c b6ec ccbb
00000230: 3bb1 19bc a30a 193b 686f 1f3c 5124 d3bb
00000240: 2126 f33b 137c 423c 379c 8a3c f860 463c
00000250: 90f7 2a3b b0e3 7b3b 3962 283c 51d2 2dbb
00000260: f997 97bb 83d2 0dbc 4f91 9dbc 80ff 8ebb
00000270: cb61 733c 2879 44bc c6f2 363c 57db cebb
00000280: 4313 953b 6b97 ed3b a148 8bbc 9818 8abc
00000290: 212b 70bc d93b 493c 1ef7 8b3c c1c0 0fbc
000002a0: 9343 b33c 8d3f 78bc a52e b03b 32a0 073c
000002b0: e89b c1bc 3b8d 403c c630 143c 264f 833c
000002c0: 2d86 863a 5028 b93b 4be8 0f39 2c0b c7bb
000002d0: f0a5 1fbb aa38 01bc 5446 c03b 4af2 9c39
000002e0: b1f5 9a3c 4bfc bdbb fdc4 a43b c952 ccbb
000002f0: ce5e 993c 5776 3fbc e8c8 bfb8 4a10 6ebc
00000300: efbe 60bb c8e4 993c 1c1f 513c 3007 763b
00000310: bc79 1c3b bda2 0bbc efde bb3b 9f46 81bc
00000320: 0277 cd3b 50d8 723b 84e1 f6bb 4bb8 fc3b
00000330: 6eae 143b aaa8 9d3c dda9 dabb 3503 cc3b
00000340: 37d5 133b 471a 26bc a446 153c 5edc 753c
00000350: 3cad f1bb 63ed 99bb 7357 fa3b 1f04 3b3a
00000360: f73f d4ba cb15 41bb 8a5f 00bc aa22 673c
00000370: 28a4 ffba c20e 673b 9cea cb3b 7a77 1e3c
00000380: 3087 a73b dd8b 4e3c 69d8 2fbc 6765 04bc
00000390: 61b0 1ebb 5de7 333c 616e 2d3c 0d09 8fbc
000003a0: 0006 c4bb 8b34 953c 6f97 583c 1313 1cbc
000003b0: 4cfa 65bc 6f91 81bc 88c3 74bc 779f fa3b
000003c0: 168f cdbb cfc4 babb aeb7 103c f404 e43b
000003d0: c2fd 63bb b8ee 533b b7a6 603b aa04 40bc
000003e0: ab23 8eb9 d958 aebc df65 2cbc f36f 4abc
000003f0: 6532 b9ba 4b3a 9f3b a6d0 98bb 3b4f d1ba
0.018822012 0.0114001045 0.0031137266 0.0066134925 -0.007992606 0.00012760864 -0.009342436 -0.0044446457
-0.003963987 0.007135763 -0.009243314 0.003413645 0.004246766 -0.012686492 0.012038464 -0.016931666
0.007001409 -0.004768427 0.004722901 -0.013170467 -0.01224519 -0.0037695337 -0.011447797 -0.011821535
0.0018627032 0.007479419 0.0022505987 -0.014906732 0.013076158 0.008611713 -0.011599983 -0.004073688
0.0029036482 -0.0035617703 0.0017579241 -0.0015653282 0.0065226713 -0.0064496663 0.015805759 -0.003268665
0.0023155157 -0.01606902 0.001987156 0.004309201 -0.007877869 -0.0026334184 -0.014312075 0.0043209405
0.010744902 0.0077951252 0.009071464 0.010461673 0.0060633374 -0.007533788 0.003978963 0.003563568
-0.009285462 0.006903265 -0.004171373 0.0047485335 0.008029293 0.0014650793 0.011856242 0.006786291
-0.013272804 -0.0007773388 0.0065762745 0.0053742095 0.00911539 0.008063389 -0.0034739496 0.011680676
-0.0044501894 -0.0039694034 0.010610528 0.0023750938 -0.008155638 0.000297918 -0.0010290148 -0.022542868
-0.016457764 0.010841562 -0.00299614 0.0051255752 -0.0075059035 0.009905658 0.008826047 -0.001575355
0.007351814 0.014862403 -0.008589762 0.007642511 0.013646109 0.001275427 0.011201584 0.0073923133
0.012189507 0.0031915663 0.0034954497 0.0067871306 -0.0026064515 -0.00635525 -0.0016487209 0.006952088
-0.004190811 -0.006768946 0.00072570896 -0.012126703 0.00834689 0.008967125 -0.0045332154 -0.010762967
0.003379332 0.00015742253 0.001061495 -0.01079118 -0.0122149605 -0.011970398 -0.013382154 -0.0007460385
-0.007556764 0.011285044 -0.009628563 -0.007517953 0.0017380844 -0.011698222 -0.0058592614 0.005866257
-0.012492498 0.016933953 -0.013063891 -0.0028409928 0.00066102203 0.0072019785 -0.011845168 0.0017341741
0.008534607 0.008316635 0.008745631 -0.006253804 -0.009380634 0.0023352287 0.009731151 -0.0064435382
0.007420317 0.011870402 0.016920192 0.01210808 0.00260875 0.0038435273 0.010277324 -0.0026523063
-0.004626271 -0.008656147 -0.019234328 -0.004363954 0.014854859 -0.0119917765 0.01116628 -0.0063127684
0.0045494153 0.0072507164 -0.017002406 -0.01685743 -0.01465872 0.012282335 0.017085608 -0.008773983
0.021882808 -0.01515187 0.005376654 0.00827794 -0.023633912 0.011752422 0.009044832 0.016028952
0.0010263376 0.0056505576 0.00013724079 -0.00607433 -0.002436038 -0.007887045 0.0058677588 0.00029935158
0.018915983 -0.005797898 0.0050283656 -0.0062354547 0.018721964 -0.011685929 -9.1450114e-05 -0.014530251
-0.0034293493 0.01878585 0.012763765 0.0037540905 0.002387627 -0.008522687 0.005733363 -0.015780745
0.0062702904 0.0037055202 -0.007534208 0.007712399 0.0022686976 0.019245464 -0.0066730813 0.0062259682
0.0022557506 -0.010138101 0.00911108 0.015006153 -0.0073753875 -0.004697488 0.0076398193 0.0007134098
-0.0016193379 -0.0029462453 -0.007835278 0.014107386 -0.0019503878 0.00352566 0.006223036 0.00967204
0.005112551 0.012606588 -0.010732749 -0.008080817 -0.0024214017 0.010980454 0.010585398 -0.01746037
-0.0059821606 0.018213531 0.013219698 -0.009526032 -0.014036726 -0.015816418 -0.014939196 0.007648404
-0.0062731607 -0.005699731 0.008832855 0.0069585983 -0.0034788703 0.0032338332 0.0034279057 -0.011719862
-0.00027110925 -0.0212826 -0.010522335 -0.012355792 -0.0014129399 0.004859244 -0.0046635447 -0.0015969047

bias f4 [6]
00000000: 6f9e 2d3b fdf2 0d3b 1675 f3ba e1af 80bb
00000010: 0fd6 313c 31ab 4c3b
0.002649214 0.0021659725 -0.0018574323 -0.0039272164 0.010854258 0.0031229968
