data/model.pt (torch, 363787 bytes, 26 tensors)

conv1.weight f4 [12, 3, 5, 5]
-0.06147549 0.06074095 -0.0012049129 -0.06920894 0.04097462 -0.06288437 0.0056756344 0.0151279075
-0.10081828 0.09278159 -0.030749213 0.051800083 -0.06329351 -0.10924952 -0.00032488402 -0.09169735
0.041509412 0.08464937 -0.10170414 0.0026548367 -0.009808282 -0.07957305 -0.03936104 -0.10340293
0.005087011 0.00023130162 0.06478827 0.07969345 -0.0912709 0.04300821 -0.025651371 -0.05433143
-0.030705841 0.039408155 -0.058824908 0.0018862248 0.0067073014 -0.061606165 0.027930884 -0.08098432
0.056577656 -0.045528058 -0.027110798 -0.09213128 -0.024101121 -0.022100383 0.07166563 0.01354376
-0.01014381 -0.013845705 0.040202912 -0.060974885 0.009040566 -0.084201306 0.073763 0.07498727
-0.026397128 0.06311859 0.032277524 -0.01723059 0.06522901 0.09034509 -0.059334327 -0.041918293
-0.02032503 -0.06773552 0.051628165 -0.019572962 0.07682493 -0.020475289 0.09515351 -0.097032286
-0.057426855 0.05038369 -0.015713368 0.06192369 -0.0131866 -0.091665275 0.06443342 0.017784627
-0.077170625 0.027060403 -0.05755215 -0.08954666 0.06726221 0.11341858 0.037993044 0.0865343
-0.08908355 0.015265461 -0.10705478 0.020229155 -0.08035169 0.10204165 -0.068117976 0.05886958
0.10414502 -0.009436286 -0.10930966 -0.08302 -0.106210224 -0.013538582 0.019638704 -0.09122982
-0.108688496 -0.014485695 0.04080898 -0.00045363404 0.039832205 -0.022428012 0.030545508 -0.09721033
0.025029853 0.08368062 -0.092723764 -0.036290508 -0.041057322 -0.10578953 0.11359494 -0.104724094
0.104595445 -0.0063771526 0.021099573 0.036227006 -0.06550165 -0.04738889 0.09465966 -0.02039297
0.007915784 0.006915084 -0.088048376 -0.02059518 -0.010985554 0.0034788589 -0.067973666 0.0058323108
-0.053460103 0.017826993 0.04231394 0.017180964 -0.08159008 0.07230113 0.055549793 -0.08001476
-0.08667749 -0.052972026 0.042622622 0.054225292 0.025092125 -0.036971863 -0.08931016 0.046319425
-0.059339438 -0.015378228 -0.10045607 -0.015415425 0.0777644 -0.111457154 -0.067887776 0.06527769
-0.0033921977 -0.067697436 0.09299911 0.014682894 0.022979664 -0.052899517 0.031680025 -0.010435512
-0.032189194 -0.047285736 -0.10954583 -0.10901876 -0.08963417 0.028819155 0.059330143 -0.03377092
0.10137894 -0.0861379 -0.005976668 -0.021177618 0.09429557 -0.014680126 -0.008309069 0.022044586
-0.058518253 -0.005332178 0.02764548 0.10946138 -0.05537123 -0.002510906 -0.093977824 0.06350097
-0.031477675 0.09937175 0.013251008 -0.025604472 -0.1095089 -0.092054814 -0.040574975 -0.09769776
-0.0646451 -0.09334336 0.068176515 0.0945403 -0.07245777 0.033620693 0.108121775 0.10090305
0.048784442 0.009992098 0.07122905 0.06658813 0.020703886 0.07668839 0.0008438219 -0.08247454
-0.052843783 -0.0032946302 -0.008132511 0.097889826 0.015433669 -0.08541473 -0.09231955 0.0875093
0.103878275 -0.057600148 -0.02990081 -0.07122028 0.0019862535 0.0422859 0.001162836 -0.113819815
0.10317699 0.11279874 -0.052265707 -0.053350553 0.08244552 -0.08133022 -0.083683 0.08303377
-0.043446288 0.04339881 -0.10932983 -0.015705954 -0.068802685 -0.117594995 -0.052800335 0.015525695
-0.0011701729 -0.0569949 -0.06810371 -0.10667669 0.05879186 0.02052113 0.022517243 -0.008209936
00000000: b9cd 7bbd 81cb 783d 2bee 9dba 6bbd 8dbd
00000010: 01d5 273d 85c9 80bd acfa b93b 0bdb 773c
00000020: d079 cebd 4604 be3d c6e5 fbbc 532c 543d
00000030: 07a0 81bd 36be dfbd 3255 aab9 d2cb bbbd
00000040: c605 2a3d a65c ad3d 434a d0bd c5fc 2d3b
00000050: ebb2 20bc 32f7 a2bd 0b39 21bd eac4 d3bd
00000060: f1b0 a63b 8e89 7239 b6af 843d 5236 a33d
00000070: 3dec babd 6029 303d d322 d2bc a28a 5ebd
00000080: d18a fbbc 726a 213d 63f2 70bd 343b f73a
00000090: ecc8 db3b bf56 7cbd 4fcf e43c 1bdb a5bd
000000a0: f9bd 673d a17b 3abd 7717 debc 53af bcbd
000000b0: b76f c5bc dd0b b5bc 6ec5 923d a6e6 5d3c
000000c0: 3932 26bc 19d9 62bc cfab 243d cdc0 79bd
000000d0: e21e 143c bc71 acbd 0e11 973d ed92 993d
000000e0: ca3e d8bc 5244 813d 7035 043d 2b27 8dbc
000000f0: ca96 853d d906 b93d 8d08 73bd 84b2 2bbd
00000100: ad80 a6bc ecb8 8abd 0e78 533d 7a57 a0bc
00000110: 6456 9d3d cbbb a7bc d8df c23d ddb8 c6bd
00000120: 6c38 6bbd 215f 4e3d 52b9 80bc b2a3 7d3d
00000130: 9c0c 58bc 01bb bbbd abf5 833d 11b1 913c
00000140: a20b 9ebd c7ad dd3c cebb 6bbd 3d64 b7bd
00000150: c5c0 893d 0048 e83d 989e 1b3d e538 b13d
00000160: 7071 b6bd fc1b 7a3c 893f dbbd 9db7 a53c
00000170: 6d8f a4bd 36fb d03d 7081 8bbd 3b21 713d
00000180: fc49 d53d a79a 1abc bedd dfbd 6406 aabd
00000190: bf84 d9bd eed0 5dbc 59e1 a03c b3d6 babd
000001a0: 1398 debd 6955 6dbc 5127 273d bbd5 edb9
000001b0: 1827 233d f3ba b7bc 933a fa3c 3616 c7bd
000001c0: 680b cd3c bf60 ab3d f5e5 bdbd 5ba5 14bd
000001d0: b92b 28bd 2ea8 d8bd 77a4 e83d 9679 d6bd
000001e0: 2336 d63d 6ff7 d0bb 03d9 ac3c c562 143d
000001f0: bb25 86bd da1a 42bd ecdc c13d 280f a7bc
00000200: 34b1 013c ee97 e23b b552 b4bd 39b7 a8bc
00000210: c1fc 33bc 91fd 633b c735 8bbd f81c bf3b
00000220: fbf8 5abd ea09 923c 6251 2d3d 18bf 8c3c
00000230: b318 a7bd 9d12 943d 2e88 633d c7de a3bd
00000240: f883 b1bd 32f9 58bd 0f95 2e3d 571b 5e3d
00000250: 008e cd3c cf6f 17bd 3fe8 b6bd 70b9 3d3d
00000260: e90d 73bd f7f4 7bbc e9bb cdbd fb90 7cbc
00000270: f142 9f3d a643 e4bd bf08 8bbd 4fb0 853d
00000280: a24f 5ebb f4a4 8abd 5176 be3d 8590 703c
00000290: d93f bc3c 2aad 58bd eac2 013d b6f9 2abc
000002a0: d1d8 03bd b0ae 41bd 9059 e0bd 3a45 dfbd
000002b0: 1f92 b7bd 2616 ec3c 2a04 733d 6053 0abd
000002c0: c39f cf3d 1169 b0bd edd7 c3bb af7c adbc
000002d0: 091e c13d e984 70bc c322 08bc d996 b43c
000002e0: d6b0 6fbd 8db9 aebb c678 e23c 4a2d e03d
000002f0: f1cc 62bd 038e 24bb 7277 c0bd cc0c 823d
00000300: bcee 00bd 6b83 cb3d c11a 593c 78c0 d1bc
00000310: 3446 e0bd 3c87 bcbd f231 26bd c315 c8bd
00000320: a664 84bd ce2a bfbd 21a0 8b3d 589e c13d
00000330: bd64 94bd dab5 093d f36e dd3d 42a6 ce3d
00000340: 32d2 473d e6b5 233c 89e0 913d 5c5f 883d
00000350: 329b a93c cd0e 9d3d ee33 5d3a 69e8 a8bd
00000360: b972 58bd b9ea 57bb 393e 05bc 767a c83d
00000370: 80dd 7c3c ebed aebd 0812 bdbd 1338 b33d
00000380: 22be d43d 22ee 6bbd 8bf2 f4bc f0db 91bd
00000390: ce2b 023b fb33 2d3d 4d6a 983a 5d1a e9bd
000003a0: 754e d33d 0703 e73d 9114 56bd 1c86 5abd
000003b0: 32d9 a83d 7590 a6bd fe61 abbd 9c0d aa3d
000003c0: bcf4 31bd f3c2 313d 51e8 dfbd c6a9 80bc
000003d0: 6ce8 8cbd a5d5 f0bd 2a45 58bd 7c5f 7e3c
000003e0: 7d60 99ba 7c73 69bd f579 8bbd 4f79 dabd
000003f0: bccf 703d ee1b a83c 1576 b83c f882 06bc

conv1.bias f4 [12]
-0.027905732 -0.06107142 -0.02692061 0.089010276 0.11026997 0.066684484 -0.021943113 0.002869514
-0.035005555 0.019711772 0.09700061 -0.080201335
00000000: 909a e4bc 0626 7abd 9c88 dcbc 054b b63d
00000010: 39d5 e13d e091 883d 0bc2 b3bc 750e 3c3b
00000020: fc61 0fbd 957a a13c 41a8 c63d 9940 a4bd

bn1.weight f4 [12]
1.0067353 1.004484 1.0083516 1.0046742 0.9996107 1.0014988 1.004698 1.0050784
1.009153 1.0080827 1.0053203 1.0018383
00000000: b4dc 803f ef92 803f aa11 813f 2a99 803f
00000010: 7de6 7f3f 1d31 803f f299 803f 69a6 803f
00000020: ed2b 813f db08 813f 56ae 803f 3d3c 803f

bn1.bias f4 [12]
0.0042255977 0.00283083 0.0038880773 0.0019793112 0.00035156755 0.0033925169 0.0063415514 0.0027327796
0.0052709775 0.0014409526 0.0018653579 -0.0011006596
00000000: e276 8a3b 7285 393b 1dcf 7e3b 55b7 013b
00000010: 9952 b839 fd54 5e3b cacc cf3b 6f18 333b
00000020: 2ab8 ac3b 59de bc3a 067f f43a 0244 90ba

bn1.running_mean f4 [12]
-0.36211005 -0.40549788 -0.38331643 -0.09605461 0.42011273 0.8790255 0.066694975 0.086263955
0.026553378 0.11514172 -0.44277853 -0.22997096
00000000: 7d66 b9be 6b9d cfbe 0d42 c4be 48b8 c4bd
00000010: 0419 d73e d107 613f 6097 883d 28ab b03d
00000020: 7886 d93c 6ccf eb3d deb3 e2be 827d 6bbe

bn1.running_var f4 [12]
0.02670952 0.036053725 0.040922556 0.011209521 0.040046662 0.15450683 0.017081922 0.020397108
0.01164671 0.009929163 0.07894354 0.014529991
00000000: eccd da3c 12ad 133d 699e 273d 24a8 373c
00000010: f807 243d 0a37 1e3e 63ef 8b3c d617 a73c
00000020: d8d1 3e3c eead 223c 27ad a13d 330f 6e3c

conv2.weight f4 [12, 12, 5, 5]
-0.04452706 -0.012648634 -0.020880898 -0.044527475 0.03372254 0.019862184 0.049429186 0.024066467
-0.033779357 0.0031544762 -0.016956454 0.01572589 0.042165026 0.0021850015 -0.044132326 -0.055183552
0.026084373 -0.013756998 -0.055201836 0.022943344 0.010602688 0.056542207 -0.0023434956 0.02979968
0.012095734 -0.006864479 0.043064415 0.019249482 -0.055970654 0.033554967 -0.002224634 0.030830713
-0.038772803 -0.0066567403 -0.011278801 0.028573666 0.008766739 -0.027893154 -0.0006525488 -0.037968006
-0.029565638 0.054703746 0.04615428 -0.02212053 0.004234728 -0.02627753 0.049364038 -0.03394769
0.053986337 -0.027133796 -0.0015670591 0.059855074 -0.051394887 0.028803818 0.03925961 0.0014219237
-0.006629511 0.007176229 0.035716787 -0.0031566606 0.03353712 0.03790256 -0.013750288 -0.005582867
-0.044456944 0.024957689 0.037089948 0.044649124 0.012136848 0.0107660135 0.014611858 0.0014458698
0.037098434 -0.050027125 0.03691342 0.030009009 -0.0003868193 -0.029031407 -0.015902743 0.045384653
-0.044508558 0.0068283114 -0.039188694 0.047125857 0.048525263 0.0275312 0.009755094 -0.020671472
0.05265018 0.03613113 -0.05567127 -0.042517066 0.039636597 0.021266507 0.047461 -0.0005444016
0.032331143 -0.02429714 0.0090598725 -0.011515895 0.05947428 0.04041784 -0.033399425 -0.0073303953
0.012208683 0.00935119 0.021519123 -0.025664542 -0.0048975637 0.05230342 0.007057279 -0.038629655
-0.035546802 -0.053182278 -0.002421025 -0.023527617 -0.054314908 0.057861704 0.014546345 0.04598056
-0.018056791 0.03920132 0.04716061 -0.042671848 0.02592549 -0.028308434 0.026813053 -0.0026299993
0.033010177 -0.0419124 0.047531076 0.036065567 -0.003908648 -0.056105535 -0.023061838 0.015422402
0.000958404 -0.0195761 -0.045709506 -0.037448004 -0.05844862 -0.008271013 -0.016839858 0.04207878
0.028434597 -0.007836159 -0.012088651 0.052254915 0.01917689 0.05393715 0.060947232 0.036356065
0.01126249 -0.028220953 0.040368594 -0.0008310874 0.033081032 0.048146207 0.038243122 -0.04636338
0.03914302 -0.015676422 0.03878787 -0.015804786 0.041467533 0.037413772 0.005752278 -0.017185997
0.02941845 -0.030911187 0.041072056 -0.0037645856 -0.021668518 -0.032377765 0.050238676 -0.019350432
0.014737959 0.045929644 -0.040532053 -0.00643699 -0.04355656 0.045915995 -0.02403184 0.009110213
0.012594081 -0.053363048 0.03135023 0.045896783 -0.016837172 0.03240655 -0.008127572 -0.05316071
-0.026581207 0.055708416 0.043431208 0.0017622217 -0.012733209 -0.029433468 0.008773 -0.010735345
0.00622478 -0.045066334 0.060829055 0.008231314 0.03841034 0.018060785 0.04361398 0.027439943
0.013878139 -0.045217793 0.03327501 -0.040603336 -0.032980647 -0.03600405 0.04042683 -0.011614484
-0.017709259 0.018258363 0.021367505 0.04532118 0.0339329 -0.03265532 0.05310628 -0.008940584
-0.027118612 -0.05659361 0.046755068 0.009344488 -0.047148325 -0.013121831 0.0004981211 0.04669921
0.033751298 0.022235245 -0.028886002 -0.017289208 -0.008132576 -0.038001277 0.0011802985 -0.054420996
0.0455518 -0.002543119 0.023271441 0.024743292 0.036818374 0.009520123 0.026187662 -0.0066826525
-0.046854842 -0.030939616 -0.043191455 -0.041152705 0.014405592 -0.0037124418 -0.040640805 0.0009992139
00000000: 0262 36bd 373c 4fbc 6b0e abbc 7162 36bd
00000010: a520 0a3d 05b6 a23c 4276 4a3d 0a27 c53c
00000020: 395c 0abd 54bb 4e3b 43e8 8abc 95d3 803c
00000030: 3cb5 2c3d 3e32 0f3b 19c4 34bd 2608 62bd
00000040: e5ae d53c 0865 61bc 521b 62bd aef3 bb3c
00000050: e6b6 2d3c cd98 673d 5595 19bb 751e f43c
00000060: 2f2d 463c 6cef e0bb 5064 303d 17b1 9d3c
00000070: 7c41 65bd ef70 093d 2acb 11bb b190 fc3c
00000080: 3bd0 1ebd c920 dabb b8ca 38bc 5213 ea3c
00000090: 5ea2 0f3c 2f80 e4bc cf0f 2bba 5784 1bbd
000000a0: a333 f2bc 0911 603d 450c 3d3d 1d36 b5bc
000000b0: 79c3 8a3b f943 d7bc f231 4a3d bc0c 0bbd
000000c0: c720 5d3d b247 debc c765 cdba 982a 753d
000000d0: 7283 52bd fcf5 eb3c afce 203d d85f ba3a
000000e0: 5e3c d9bb 9226 eb3b c44b 123d fadf 4ebb
000000f0: 385e 093d b73f 1b3d e348 61bc 7cf0 b6bb
00000100: 7c18 36bd 1174 cc3c a1eb 173d 00e2 363d
00000110: a1d9 463c ef63 303c 9366 6f3c 5783 bd3a
00000120: 87f4 173d 3ee9 4cbd 8732 173d 74d5 f53c
00000130: 02ce cab9 46d3 edbc 7846 82bc 42e5 393d
00000140: 9b4e 36bd 07c0 df3b 5384 20bd 0b07 413d
00000150: 6dc2 463d 1c89 e13c d4d3 1f3c 3857 a9bc
00000160: b7a7 573d 3cfe 133d 8f07 64bd 6026 2ebd
00000170: fc59 223d 1937 ae3c 7766 423d 2cb6 0eba
00000180: a96d 043d cc0a c7bc dc6f 143c 2aad 3cbc
00000190: 4d9b 733d 2d8d 253d d6cd 08bd d033 f0bb
000001a0: ee06 483c bc35 193c df48 b03c 723e d2bc
000001b0: be7b a0bb 1c3c 563d bf40 e73b 213a 1ebd
000001c0: 8699 11bd a9d5 59bd 0faa 1ebb fdbc c0bc
000001d0: 4f79 5ebd 6500 6d3d cb53 6e3c 1d56 3c3d
000001e0: d6eb 93bc 9091 203d 7c2b 413d adc8 2ebd
000001f0: b161 d43c 17e7 e7bc 0ca7 db3c 115c 2cbb
00000200: ae35 073d 56ac 2bbd f2af 423d 7db9 133d
00000210: 1e14 80bb ebce 65bd 2eec bcbc 3eae 7c3c
00000220: 673d 7b3a 0f5e a0bc e439 3bbd 1463 19bd
00000230: d267 6fbd 2583 07bc bef3 89bc cc5a 2c3d
00000240: acef e83c 3c63 00bc 7a0f 46bc 4009 563d
00000250: da18 9d3c 33ed 5c3d cea3 793d 19ea 143d
00000260: 4f86 383c a12f e7bc 8a59 253d 55dd 59ba
00000270: fa7f 073d f534 453d d2a4 1c3d 87e7 3dbd
00000280: 6e54 203d d76b 80bc 08e0 1e3d 0a79 81bc
00000290: dcd9 293d 2f3f 193d 9b7d bc3b a6c9 8cbc
000002a0: f6fe f03c 7539 fdbc 2c3b 283d 44b7 76bb
000002b0: 2d82 b1bc 8c9e 04bd 12c7 4d3d cc84 9ebc
000002c0: 7b77 713c b920 3c3d f004 26bd 63ed d2bb
000002d0: 5d68 32bd 6912 3c3d 6cde c4bc 0143 153c
000002e0: 6857 4e3c 3693 5abd 1969 003d 44fe 3b3d
000002f0: 1cee 89bc bbbc 043d 8229 05bc 0bbf 59bd
00000300: d5c0 d9bc 822e 643d ece4 313d 59fa e63a
00000310: f39e 50bc 751e f1bc a1bc 0f3c 4de3 2fbc
00000320: 3df9 cb3b 7a97 38bd e327 793d a2dc 063c
00000330: 2954 1d3d 36f4 933c 93a4 323d bbc9 e03c
00000340: 2261 633c 4b36 39bd 604b 083d af4f 26bd
00000350: b716 07bd fc78 13bd 9b96 253d ad4a 3ebc
00000360: 0213 91bc 9092 953c e80a af3c b4a2 393d
00000370: 39fd 0a3d 96c1 05bd f885 593d 877b 12bc
00000380: da27 debc b4ce 67bd 3e82 3f3d a019 193c
00000390: 9a1e 41bd f3fc 56bc 5794 023a ac47 3f3d
000003a0: cd3e 0a3d b026 b63c 56a2 ecbc 19a2 8dbc
000003b0: 7f3e 05bc 3aa7 1bbd 3fb4 9a3a 8de8 5ebd
000003c0: 8694 3a3d 75aa 26bb c0a3 be3c 72b2 ca3c
000003d0: ddce 163d 4afa 1b3c 8287 d63c 27fa dabb
000003e0: ddea 3fbd 1475 fdbc 86e9 30bd bd8f 28bd
000003f0: 6f05 6c3c 704c 73bb f976 26bd 0ef8 823a

conv2.bias f4 [12]
0.040032506 -0.04098384 -0.005427644 0.02512844 0.030421609 -0.021802628 0.020092538 -0.04443148
0.026426021 -0.03254148 -0.003259462 -0.040967453
00000000: 20f9 233d acde 27bd 61da b1bb 28da cd3c
00000010: bd36 f93c 6d9b b2bc 1b99 a43c c9fd 35bd
00000020: 627b d83c 374a 05bd b39c 55bb 7dcd 27bd

bn2.weight f4 [12]
1.0049031 1.0009968 1.0031102 1.0010048 1.0071776 1.0010444 1.009213 1.0065738
1.0080627 1.0005392 1.0027547 1.0038567
00000000: aaa0 803f aa20 803f ea65 803f ed20 803f
00000010: 32eb 803f 3922 803f e42d 813f 69d7 803f
00000020: 3308 813f ab11 803f 445a 803f 607e 803f

bn2.bias f4 [12]
0.002588546 -0.0010175775 0.0059565846 -0.0037853965 0.0024650155 0.0044168048 0.00080067845 0.0022713756
9.414886e-05 0.00215739 0.0003795096 0.0019695293
00000000: 98a4 293b 3c60 85ba 742f c33b 6a14 78bb
00000010: 198c 213b d8ba 903b 9fe4 513a 5cdb 143b
00000020: c971 c538 ff62 0d3b ebf8 c639 3813 013b

bn2.running_mean f4 [12]
0.07990697 0.035285357 0.06703696 0.39986074 -0.21656987 -0.07129557 -0.07452036 0.106525265
0.19420691 -0.29080975 0.039472815 -0.08045103
00000000: 44a6 a33d 6187 103d ac4a 893d 8cba cc3e
00000010: 7ec4 5dbe 6903 92bd 219e 98bd eb29 da3d
00000020: 2dde 463e 04e5 94be 3fae 213d 82c3 a4bd

bn2.running_var f4 [12]
0.05834514 0.1761428 0.24923736 0.19152956 0.1498428 0.1447503 0.0659486 0.08784272
0.062010508 0.21533601 0.11617021 0.06689832
00000000: 50fb 6e3d c75e 343e 1438 7f3e 5320 443e
00000010: 6470 193e 6c39 143e 0f10 873d e2e6 b33d
00000020: bbfe 7d3d 0b81 5c3e a6ea ed3d fd01 893d

conv4.weight f4 [24, 12, 5, 5]
-0.050209723 -0.05497992 0.02616283 0.010945527 0.048684977 0.044491436 -0.034412675 0.011200466
0.040249225 0.0343342 0.052931774 -0.054698672 0.033736974 -0.053319726 0.033020683 0.047444716
-0.0068371296 -0.044811964 0.023313772 0.028760223 0.05542808 0.031406656 0.057062026 0.040494904
-0.018831577 0.049770012 0.009874601 0.044743516 0.011804067 -0.01304404 0.0020776824 0.042843375
-0.025121871 -0.046406757 -0.035937987 0.041247264 -0.030960731 0.039245725 0.05258313 0.02689667
0.008991571 -0.020301439 0.0015869814 -0.032377932 -0.044897594 0.053919148 0.051571984 0.0076386477
0.041210696 -0.03318757 0.026327629 -0.023446484 0.005035549 0.031708967 0.0041313744 -0.043872654
0.027103147 0.031311866 -0.047470417 -0.023138557 -0.0035521067 0.008412688 0.014957456 0.022773022
0.037022717 -0.006970833 0.016165119 -0.0441373 0.04812334 -0.04615645 0.0526537 -0.035675336
0.04029805 -0.05627241 0.0021656884 0.05573398 -0.013347181 -0.007816151 0.017748708 -0.01661732
-0.019845994 -0.010268588 -0.0023933174 -0.025811898 0.032490537 0.00642325 0.05642772 0.03134342
-0.031242406 -0.014412834 -0.025705999 0.04803708 -0.025109475 0.024532106 -0.052385367 0.056499302
-0.035642494 -0.007745232 0.045964967 0.001530119 0.043219846 -0.032496776 0.015418625 -0.047329802
0.0406271 -0.02551842 -0.012553555 -0.032767154 0.03217063 -0.0026476604 -0.053555287 0.026055269
-0.004583826 0.03725172 -0.027029846 -0.05140336 -0.010437218 -0.037033845 -0.033070438 -0.05885884
-0.030229904 -0.033106297 0.04440575 0.02075171 0.024267312 0.05405526 -0.042622805 0.021228297
-0.04849879 0.016613135 -0.0035136684 -0.03171615 -0.024197802 -0.017702846 -0.0016039518 -0.042010326
0.050058898 -0.01731479 0.022559032 0.008604775 -0.055197038 -0.003931093 -0.051495213 0.023293033
0.025829418 -0.01252548 -0.00987166 0.0147348605 -0.0059633763 -0.05362559 -0.036106624 -0.047969546
-0.041524027 -0.011311306 0.013151081 -0.043413546 -0.02590336 -0.019531945 -0.008702323 -0.057353605
0.03806528 0.0009899948 0.046036277 -0.0031366094 0.056444272 -0.021673478 -0.03405662 0.020787792
0.04475877 0.006812226 -0.043889873 -0.0019008144 -0.016376272 0.016946377 -0.0033309876 0.045499723
-0.041143753 0.044222508 -0.020048901 0.021105208 0.03488968 0.043230485 0.032479215 0.033554967
-0.0297121 -0.040789165 -0.05006591 -0.0029410876 -0.017507244 -0.0019787003 0.0216221 0.04920505
-0.018453382 0.038966477 0.042541713 0.03862008 0.027779143 -0.0384849 0.04486567 0.049847666
-0.023237646 -0.011665522 -0.035357893 0.053117197 -0.055936158 0.021218255 -0.03989885 0.044965763
-0.05128815 0.040318646 0.026772978 -0.04260723 -0.04146733 0.04995938 -0.015772764 0.028434856
0.03237178 -0.0014741977 0.04935364 0.004962208 0.01959628 -0.0025860902 -0.042288553 0.008048457
0.0077124992 -0.003534548 0.01800325 -0.04724602 -0.035544515 -0.03508013 0.06143006 -0.03670746
-0.023119226 0.04361191 -0.05882167 0.027153097 -0.010625377 -0.0022273583 -0.039408267 -0.022971224
-0.040362056 -0.0007072152 -0.037146796 0.049349837 0.031704597 0.022047738 0.056015484 0.011385349
0.048277915 -0.015478038 -0.0003052579 0.0076050386 -0.018158525 -0.0077515175 0.04568494 0.0059562894
00000000: b6a8 4dbd a032 61bd 6e53 d63c de54 333c
00000010: e669 473d a73c 363d 4ef4 0cbd 2982 373c
00000020: 5fdc 243d 05a2 0c3d fdce 583d b70b 60bd
00000030: c82f 0a3d c965 5abd b240 073d 6455 423d
00000040: 000a e0bb c08c 37bd 86fc be3c 8f9a eb3c
00000050: 8e08 633d 44a4 003d dfb9 693d fcdd 253d
00000060: ae44 9abc a4db 4b3d 14c9 213c fa44 373d
00000070: d865 413c abb6 55bc ba29 083b 897c 2f3d
00000080: 62cc cdbc 0315 3ebd b633 13bd e4f2 283d
00000090: 5ca1 fdbc 20c0 203d 6861 573d 6856 dc3c
000000a0: 6251 133c 344f a6bc 4202 d03a b99e 04bd
000000b0: 8ae6 37bd 53da 5c3d 253d 533d 9f4d fa3b
000000c0: 8ccc 283d b0ef 07bd 0aad d73c d712 c0bc
000000d0: 3f01 a53b 43e1 013d 7b60 873b d0b3 33bd
000000e0: 6b07 de3c df40 003d 5770 42bd 128d bdbc
000000f0: 76ca 68bb 5fd5 093c 1e10 753c 7d8e ba3c
00000100: 22a5 173d 966b e4bb b66c 843c 50c9 34bd
00000110: fb1c 453d 8c0e 3dbd 68ab 573d 4d20 12bd
00000120: 910f 253d e67d 66bd 39ee 0d3b 5049 643d
00000130: 22ae 5abc 500f 00bc bd65 913c 0c21 88bc
00000140: 1194 a2bc 943d 28bc 34d9 1cbb 7973 d3bc
00000150: cc14 053d 207a d23b c120 673d f561 003d
00000160: 13f0 ffbc cf23 6cbc 6395 d2bc 87c2 443d
00000170: 63b2 cdbc 8ef7 c83c 0a92 56bd d06b 673d
00000180: ddfd 11bd b7cb fdbb c345 3c3d 468e c83a
00000190: 4b07 313d 571b 05bd 679e 7c3c e5dc 41bd
000001a0: 9a68 263d 010c d1bc 6dad 4dbc da36 06bd
000001b0: 5ac5 033d 5f84 2dbb ca5c 5bbd dc71 d53c
000001c0: eb33 96bb 4295 183d b26d ddbc 548c 52bd
000001d0: dd00 2bbc cdb0 17bd de74 07bd f815 71bd
000001e0: b4a4 f7bc 789a 07bd cee2 353d 7dff a93c
000001f0: 3ecc c63c 0c69 5d3d 4095 2ebd f7e6 ad3c
00000200: aba6 46bd 4518 883c 9345 66bb cbe8 01bd
00000210: 783a c6bc 8f05 91bc b13b d2ba 0513 2cbd
00000220: 8f0a 4d3d bfd7 8dbc b8cd b83c 0bfb 0c3c
00000230: 4a16 62bd 66d0 80bb a5ec 52bd 08d1 be3c
00000240: 3798 d33c ac37 4dbc bebc 21bc 7c6a 713c
00000250: 6d68 c3bb 82a6 5bbd 8ae4 13bd b77b 44bd
00000260: 1915 2abd 0e53 39bc a277 573c 67d2 31bd
00000270: 4933 d4bc 7501 a0bc 3094 0ebc 9deb 6abd
00000280: 57ea 1b3d b7c2 813a 8990 3c3d 938f 4dbb
00000290: 1c32 673d 948c b1bc f47e 0bbd 294b aa3c
000002a0: f954 373d 1839 df3b dec5 33bd bf24 f9ba
000002b0: 8827 86bc 21d3 8a3c b34c 5abb eb5d 3a3d
000002c0: 5a86 28bd a922 353d 983d a4bc d4e4 ac3c
000002d0: 7be8 0e3d 7312 313d ed08 053d ef70 093d
000002e0: ca66 f3bc 8a12 27bd e911 4dbd 43bf 40bb
000002f0: 5a6b 8fbc 15ad 01bb d520 b13c 3c8b 493d
00000300: 8c2b 97bc 509b 1f3d 3840 2e3d 1730 1e3d
00000310: 1691 e33c 58a2 1dbd 11c5 373d 112d 4c3d
00000320: e05c bebc bf20 3fbc 70d3 10bd 6b91 593d
00000330: 501d 65bd e8d1 ad3c fa6c 23bd 052e 383d
00000340: 8613 52bd 2a25 253d 0153 db3c eb84 2ebd
00000350: a6d9 29bd 35a2 4c3d e235 81bc 37f0 e83c
00000360: 4698 043d de39 c1ba 0b27 4a3d 059a a23b
00000370: 6188 a03c 657b 29bb c336 2dbd addd 033c
00000380: 22b9 fc3b e0a3 67bb 8d7b 933c 0b85 41bd
00000390: 2097 11bd 2fb0 0fbd 169e 7b3d 905a 16bd
000003a0: 8864 bdbc 67a2 323d feee 70bd 2c70 de3c
000003b0: 1016 2ebc dff8 11bb 906a 21bd 262e bcbc
000003c0: af52 25bd 6964 39ba 3d27 18bd 0e23 4a3d
000003d0: aedc 013d 759d b43c 7e70 653d 9d89 3a3c
000003e0: 10bf 453d 9997 7dbc 060b a0b9 b033 f93b
000003f0: 30c1 94bc 7100 febb 2220 3b3d fa2c c33b

conv4.bias f4 [24]
-0.028928407 -0.00026915382 -0.04376902 -0.03524632 -0.009304096 0.048607163 0.00952882 -0.011603334
-0.023773415 0.050403763 0.03536075 0.04540109 -0.029190427 0.009554577 0.005516192 0.043447256
-0.011409475 0.03495734 0.010587373 0.02535601 -0.030398495 0.0026837804 0.048611287 -0.0065301764
00000000: 44fb ecbc 371d 8db9 2547 33bd 725e 10bd
00000010: 3570 18bc 4e18 473d c51e 1c3c e91b 3ebc
00000020: 77c0 c2bc 2d74 4e3d 6fd6 103d 7ef6 393d
00000030: c320 efbc cd8a 1c3c 2cc1 b43b c0f5 313d
00000040: ceee 3abc 6e2f 0f3d a976 2d3c 68b7 cf3c
00000050: 4406 f9bc 5de2 2f3b a11c 473d 17fb d5bb

bn4.weight f4 [24]
0.99741375 1.0029162 1.0013173 0.9999559 1.0055239 0.99828416 1.0027496 0.9980758
1.0058975 1.0048884 0.9982653 1.0059783 1.0066637 1.0036643 1.0028203 1.0009959
1.0030057 1.0053265 1.0033045 1.0005212 1.0009063 1.0044225 1.0100363 1.0011004
00000000: 8256 7f3f 8f5f 803f 2a2b 803f 1cfd 7f3f
00000010: 02b5 803f 8d8f 7f3f 195a 803f e581 7f3f
00000020: 40c1 803f 2fa0 803f 518e 7f3f e6c3 803f
00000030: 5bda 803f 1278 803f 6a5c 803f a220 803f
00000040: 7e62 803f 8aae 803f 486c 803f 1411 803f
00000050: b31d 803f eb90 803f df48 813f 0f24 803f

bn4.bias f4 [24]
-0.00024273696 -0.0012834619 0.00089637534 -0.0015001366 0.0035847712 0.0005008155 0.0022774758 -0.0024754764
0.002319678 -0.0006304548 -8.136099e-05 0.002591215 0.0036118745 0.0026194663 0.0031543092 0.003595699
0.0058567384 0.0010671021 0.0026888344 0.0012106011 0.0040053013 0.0032808369 0.0049951603 0.0024829733
00000000: 3587 7eb9 d639 a8ba bbfa 6a3a 3ba0 c4ba
00000010: 7bee 6a3b 2949 033a b441 153b 9a3b 22bb
00000020: bd05 183b 1b45 25ba 59a0 aab8 60d1 293b
00000030: 33b5 6c3b 5aab 2b3b 87b8 4e3b d2a5 6b3b
00000040: e2e9 bf3b 01de 8b3a 2837 303b 08ad 9e3a
00000050: e73e 833b 4f03 573b 71ae a33b 61b9 223b

bn4.running_mean f4 [24]
0.340882 0.10321335 -0.042804446 0.8882964 -0.064729616 0.5698343 0.11098169 0.30414638
-0.23233113 -0.09227945 0.44930384 -0.08761732 -0.21334176 -0.17514737 -0.3316695 -0.1681822
-0.19005436 -0.035395272 -0.26195407 0.19649257 -0.5104127 -0.15993634 -0.22953668 -0.32177466
00000000: 1688 ae3e 8561 d33d b753 2fbd 6567 633f
00000010: f690 84bd a9e0 113f 5e4a e33d 13b9 9b3e
00000020: 36e8 6dbe 02fd bcbd 270b e63e b670 b3bd
00000030: 4376 5abe d559 33be 96d0 a9be f437 2cbe
00000040: 9c9d 42be a2fa 10bd d81e 86be 5935 493e
00000050: 68aa 02bf 5ac6 23be aa0b 6bbe a6bf a4be

bn4.running_var f4 [24]
0.1933753 0.13682584 0.15483965 0.23146006 0.122732505 0.28594953 0.10053832 0.15363297
0.16875082 0.110937886 0.18871005 0.07049922 0.08689205 0.14430729 0.115243815 0.17843103
0.12657599 0.108042106 0.292935 0.14353238 0.11546958 0.1270413 0.13711305 0.11794688
00000000: 2d04 463e 131c 0c3e 498e 1e3e de03 6d3e
00000010: 2e5b fb3d fa67 923e 09e7 cd3d f651 1d3e
00000020: 04cd 2c3e 6733 e33d 353d 413e e561 903d
00000030: 76f4 b13d 4ac5 133e f304 ec3d a0b6 363e
00000040: 239d 013e 2e45 dd3d 94fb 953e 27fa 123e
00000050: 517b ec3d 1d17 023e 5d67 0c3e 228e f13d

conv5.weight f4 [48, 24, 5, 5]
-0.009731819 -0.017026119 -0.006697658 0.011695672 -0.035839625 -0.03341471 0.01784972 -0.008861435
0.002494217 0.036690466 0.013130743 0.0410325 -0.015663667 -0.005067359 0.006689098 -0.018386925
0.0010642112 0.009479182 -0.011348631 0.0047297347 0.0105356565 0.02908545 0.029372772 0.0018820771
-0.006287007 -0.007326181 -0.028114632 0.0031669473 0.021113962 -0.036137827 0.040260322 0.02304566
-0.018233443 0.017381355 -0.00656819 -0.0025289173 -0.012937471 -0.03309991 -0.0018697918 -0.0033984138
0.0033205482 -0.03262891 -0.024295488 -0.011538864 0.0010066606 0.041684806 -0.010292225 0.037544195
-0.03234878 0.00032289606 -0.01388122 0.01877952 -0.027370792 -0.0066526546 -0.013508583 0.021780921
-0.032304198 -0.022947522 -0.015812032 0.033773117 0.0350998 -0.0050859903 0.02613967 -0.018033406
0.0023694653 0.03593965 -0.036181245 -0.028545806 0.006950127 0.01726352 0.017395103 0.020473065
-0.042819064 -0.039625328 0.036390796 -0.008678833 -0.016574658 -0.030346012 -0.017460424 -0.021188095
-0.03248448 -0.027802253 0.005960815 0.008300647 -0.005446321 -0.004655506 -0.030357178 -0.008255408
0.043578647 0.017427575 -0.00083083234 0.03940597 0.02971115 -0.037736587 -0.012571727 -0.021674765
-0.034102038 0.028847266 -0.013140785 -0.0007650909 -0.037710696 0.004146504 0.032989573 -0.03895761
-0.034718387 0.016921634 -0.0043166527 -0.013032572 -0.006245861 0.021104993 -0.007489978 -0.005336113
0.014617874 -0.03768362 0.00914828 -0.002666337 0.033955205 0.032558378 -0.0014050476 -0.030579448
-0.025747048 0.014154051 -0.021883648 -0.039744522 0.014429766 0.016608639 -0.02733853 -0.024841772
0.041276842 0.036482714 -0.017574862 0.031090928 0.021978695 0.006174888 0.042140093 -0.009474664
0.032237712 -0.007556005 -0.03335627 0.04019406 -0.03708581 -0.008852399 0.008912603 0.021255309
0.009405452 -0.0030955311 -0.028890232 -0.015932685 -0.03671031 -0.02540202 0.030089242 0.0420991
-0.037883572 -0.012282293 -0.021238998 -0.0073749884 0.012759923 0.016551606 0.007996727 0.024982808
-0.005184997 -0.037755676 -0.021049874 0.013614493 0.015356007 -0.017144019 0.03610476 0.038126744
0.013106495 0.03294874 -0.024424592 -0.015933396 0.0394389 -0.031448323 -0.038985763 -0.031618215
0.03940946 0.02839644 -0.03264394 -0.012695742 -0.02973031 0.02693744 0.013280817 0.02260284
0.021869173 -0.01701968 0.0034918622 -0.023693915 -0.012311113 -0.027053045 0.005162659 -0.037643544
0.011595221 0.004358093 0.00032729242 0.044499796 0.02190548 0.031841237 -0.031391747 -0.004249739
-0.024593174 -0.029647807 -0.000565021 -0.027379023 -0.03369642 0.018325204 -0.0315853 0.017708108
-0.022762379 0.021755768 0.038653415 -0.014542307 -0.028473135 -0.0057503055 0.0067015775 -0.036914818
0.009733622 -0.008930506 0.013082809 -0.036596768 0.010735923 0.038396735 -0.035725933 0.006071693
-0.025457954 -0.041265663 -0.0005287085 -0.014661364 -0.0010021036 0.037981488 0.005397778 -0.0005097622
0.0036006407 0.016149025 0.024227615 -0.011561238 -0.018663106 -0.040925235 -0.014443846 0.017140165
-0.00019382917 -0.041820943 0.022897609 0.009467521 0.033617496 0.036138903 0.036354084 -0.004630664
0.0011533572 -0.015521473 -0.0066151717 0.031671304 -0.03134885 -0.022958001 -0.019417254 -0.016803646
00000000: 3572 1fbc 5c7a 8bbc 0778 dbbb 349f 3f3c
00000010: 92cc 12bd dddd 08bd 9339 923c 8d2f 11bc
00000020: 0476 233b be48 163d 5422 573c b211 283d
00000030: 1751 80bc 170c a6bb 3930 db3b 2da0 96bc
00000040: 017d 8b3a 924e 1b3c 9cef 39bc e4fb 9a3b
00000050: bf9d 2c3c 9c44 ee3c 2b9f f03c 07b0 f63a
00000060: 3d03 cebb 7610 f0bb a850 e6bc 8f8c 4f3b
00000070: 30f7 ac3c 4205 14bd 02e8 243d 41ca bc3c
00000080: 4d5e 95bc 5863 8e3c f939 d7bb 31bc 25bb
00000090: b0f7 53bc c593 07bd cd13 f5ba ecb7 5ebb
000000a0: 8e9d 593b e4a5 05bd 5507 c7bc 810d 3dbc
000000b0: edf1 833a b0bd 2a3d b8a0 28bc f1c7 193d
000000c0: 2880 04bd 604a a939 0e6e 63bc 82d7 993c
000000d0: b638 e0bc 83fe d9bb 1b53 5dbc e76d b23c
000000e0: 6851 04bd 71fc bbbc 3c88 81bc ae55 0a3d
000000f0: cfc4 0f3d 61a8 a6bb dc22 d63c cbba 93bc
00000100: 0849 1b3b 7435 133d c932 14bd e5d8 e9bc
00000110: e4bd e33b 3a6c 8d3c 2d80 8e3c 21b7 a73c
00000120: 0b63 2fbd 2b4e 22bd 840e 153d aa31 0ebc
00000130: 94c7 87bc 3398 f8bc 2a09 8fbc a892 adbc
00000140: 720e 05bd 8dc1 e3bc f152 c33b 70ff 073c
00000150: 0d77 b2bb 378d 98bb 9eaf f8bc b141 07bc
00000160: 867f 323d 46c4 8e3c 37cc 59ba 2868 213d
00000170: cc64 f33c ae91 1abd a5f9 4dbc 478f b1bc
00000180: 94ae 0bbd 1a51 ec3c 724c 57bc 6290 48ba
00000190: 8876 1abd 66df 873b 1320 073d 0492 1fbd
000001a0: de34 0ebd 3d9f 8a3c b572 8dbb 9286 55bc
000001b0: 14aa ccbb 61e4 ac3c 7d6e f5bb 8fda aebb
000001c0: cf7f 6f3c 245a 1abd abe2 153c b6bd 2ebb
000001d0: 9d14 0b3d ef5b 053d 9329 b8ba c081 fabc
000001e0: 79eb d2bc 65e6 673c 5645 b3bc 27cb 22bd
000001f0: d36a 6c3c d70e 883c 0ef5 dfbc f980 cbbc
00000200: e811 293d e66e 153d 28f9 8fbc 67b2 fe3c
00000210: aa0c b43c b756 ca3b 179b 2c3d 9f3b 1bbc
00000220: b10b 043d 5d98 f7bb 96a0 08bd 87a2 243d
00000230: 4ae7 17bd a709 11bc 2b06 123c 9d1f ae3c
00000240: 5319 1a3c 65de 4abb 35ab ecbc 4385 82bc
00000250: 8d5d 16bd e617 d0bc b77d f63c 1b70 2c3d
00000260: ce2b 1bbd ac3b 49bc 68fd adbc e3a9 f1bb
00000270: ff0e 513c 3c97 873c b404 033c bfa8 cc3c
00000280: e8e6 a9bb b2a5 1abd c970 acbc 530f 5f3c
00000290: c397 7b3c 9d71 8cbc 96e2 133d ca2a 1c3d
000002a0: a0bc 563c 42f5 063d 1516 c8bc c186 82bc
000002b0: af8a 213d f5cf 00bd 89af 1fbd 1a82 01bd
000002c0: d06b 213d a79f e83c a7b5 05bd cd01 50bc
000002d0: fb8c f3bc e8ab dc3c c997 593c 9729 b93c
000002e0: fb26 b33c db6c 8bbc bad7 643b be19 c2bc
000002f0: 8db4 49bc 599e ddbc 862b a93b 1e30 1abd
00000300: e2f9 3d3c 55ce 8e3b 7298 ab39 6b45 363d
00000310: 1f73 b33c f56b 023d a294 00bd 6541 8bbb
00000320: a077 c9bc f5df f2bc eb1d 14ba f949 e0bc
00000330: 4205 0abd bd1e 963c 965f 01bd 9810 913c
00000340: 2b78 babc 2739 b23c 0b53 1e3d db42 6ebc
00000350: 7e40 e9bc 0f6d bcbb e898 db3b fe33 17bd
00000360: c579 1f3c 4251 12bc 4759 563c 7ee6 15bd
00000370: bae5 2f3c e545 1d3d 5b55 12bd 0df5 c63b
00000380: 338d d0bc 2f06 29bd 0799 0aba 3836 70bc
00000390: 0459 83ba 7a92 1b3d d8df b03b 90a1 05ba
000003a0: baf8 6b3b f64a 843c fe78 c63c 596b 3dbc
000003b0: 5fe3 98bc 38a1 27bd e2a5 6cbc 8869 8c3c
000003c0: 9f3e 4bb9 704c 2bbd c493 bb3c a91d 1b3c
000003d0: 80b2 093d 6306 143d 05e8 143d d3bc 97bb
000003e0: 3f2c 973a c74d 7ebc 15c4 d8bb c5b9 013d
000003f0: a767 00bd 6b12 bcbc ef10 9fbc cda7 89bc

conv5.bias f4 [48]
-0.009969818 -0.031889666 0.0018553279 0.01982662 0.017650023 0.033158462 0.038293846 0.011602329
0.002768054 0.015370478 -0.0065422296 0.011396975 0.009515386 0.00084473856 0.0022479407 -0.006477204
0.037850842 0.020486843 -0.017945983 0.031439688 -0.007960532 -0.02347432 -0.0017511048 0.003077559
-0.02654002 0.020509616 -0.029769883 0.0017554665 0.02521755 -0.012598793 0.013970119 -0.006442342
-0.009013011 -0.008218677 0.012289338 -0.022911014 0.006490801 8.0460595e-05 -0.022888983 0.00092470745
-0.009667802 0.012744965 -0.016345015 -0.008626664 0.007100798 0.007930914 0.020577405 0.038340148
00000000: 7358 23bc bd9e 02bd 792e f33a 706b a23c
00000010: c896 903c 2bd1 073d 02da 1c3d b217 3e3c
00000020: 3d68 353b 75d4 7b3c 3360 d6bb 61ba 3a3c
00000030: 6ce6 1b3c 7271 5d3a 3052 133b ba3e d4bb
00000040: 7c09 1b3d 06d4 a73c 7403 93bc e7c6 003d
00000050: e46c 02bc 384d c0bc 5485 e5ba dfb0 493b
00000060: 756a d9bc c803 a83c f8df f3bc ae17 e63a
00000070: 0995 ce3c 2b6b 4ebc ede2 643c 481a d3bb
00000080: 4fab 13bc a1a7 06bc 3859 493c e1af bbbc
00000090: c9b0 d43b f4bc a838 ad81 bbbc 1168 723a
000000a0: b365 1ebc 42d0 503c fbe5 85bc da56 0dbc
000000b0: d0ad e83b aaf0 013c f291 a83c 8f0a 1d3d

bn5.weight f4 [48]
1.0002851 0.9996313 0.9967043 1.0022435 0.99875486 0.9973787 1.0021213 0.9995458
0.9972868 1.00247 0.9965072 0.9992563 0.9940157 1.0005306 1.0010015 1.0001014
0.99490374 0.99840415 1.0018855 1.002673 0.9983446 1.0009439 1.0024425 0.9951446
0.99798894 0.9988394 0.99758834 0.99434245 0.9926249 0.998119 0.99936646 1.0001067
0.9962266 0.9976264 0.9942022 1.0012898 1.0026873 0.9905863 0.99710983 1.0023528
0.99617374 0.99779254 1.0016998 1.0016211 1.002521 0.9992686 1.0022198 1.0015376
00000000: 5809 803f d6e7 7f3f 0328 7f3f 8449 803f
00000010: 66ae 7f3f 3654 7f3f 8345 803f 3ce2 7f3f
00000020: 304e 7f3f f050 803f 191b 7f3f 43cf 7f3f
00000030: d077 7e3f 6311 803f d120 803f 5303 803f
00000040: 03b2 7e3f 6a97 7f3f c93d 803f 9757 803f
00000050: 8393 7f3f ee1e 803f 0950 803f ccc1 7e3f
00000060: 347c 7f3f f0b3 7f3f f361 7f3f 3a8d 7e3f
00000070: aa1c 7e3f ba84 7f3f 7bd6 7f3f 7f03 803f
00000080: b508 7f3f 7264 7f3f 0984 7e3f 442a 803f
00000090: 0f58 803f 1097 7d3f 9742 7f3f 194d 803f
000000a0: 3e05 7f3f 556f 7f3f b337 803f 1f35 803f
000000b0: 9c52 803f 11d0 7f3f bd48 803f 6232 803f

bn5.bias f4 [48]
0.00093974965 0.0014680478 0.001089197 0.002853083 0.0019919616 0.0010506121 0.004561417 0.0021017788
0.00259815 0.0008713634 0.00305583 0.0012914733 0.002045836 0.0005970691 0.0018249362 0.0007860471
0.0031694777 0.00026859393 0.0023162158 0.004266616 0.0009274371 0.0017253347 0.002134446 0.0012493554
0.00090628676 0.0005015731 0.0030162313 0.0012673675 0.0012927257 0.0014084519 0.0023387214 0.0022587022
0.0010375223 -0.0012120593 0.0013904779 0.0024819854 0.0019128587 -5.7030764e-05 0.001939834 0.00035401923
-0.00018045628 0.00039443639 0.0023347877 0.0041751848 0.0046283053 0.0034619987 -0.0005190258 0.0027876417
00000000: 8859 763a 836b c03a 63c3 8e3a cafa 3a3b
00000010: 928b 023b b1b4 893a f077 953b ffbd 093b
00000020: b945 2a3b 356c 643a 5244 483b a746 a93a
00000030: 6f13 063b a184 1c3a b332 ef3a ba0e 4e3a
00000040: 03b7 4f3b 11d2 8c39 a7cb 173b f8ce 8b3b
00000050: 401f 733a a024 e23a 10e2 0b3b 69c1 a33a
00000060: e093 6d3a 007c 033a f7ab 453b cc1d a63a
00000070: ad70 a93a ce9b b83a 3c45 193b bc06 143b
00000080: 79fd 873a f6dd 9eba b240 b63a cea8 223b
00000090: e3b8 fa3a 5134 6fb8 0742 fe3a a89b b939
000000a0: dd38 3db9 5bcc ce39 3d03 193b fdcf 883b
000000b0: 0aa9 973b b3e2 623b 3b0f 08ba deb0 363b

bn5.running_mean f4 [48]
-0.114593536 -0.075162314 -0.17432868 -0.19001791 0.14968985 0.1182002 0.36180148 0.21798038
0.13740939 0.23329079 -0.15550978 -0.109488174 -0.13850515 0.21795553 -0.25088224 -0.07620166
0.17700188 -0.010379093 -0.3158641 -0.33479166 -0.08449723 0.0024169323 0.36849675 0.27262375
-0.090626575 0.18543182 -0.3484269 -0.34063983 0.33005476 -0.21493344 0.13494715 0.038944017
-0.103277415 0.22244114 0.12542094 -0.002825172 0.046505757 -0.22482222 0.017230881 0.074518956
-0.02082491 0.22324 -0.20925051 -0.21614295 -0.40373677 -0.30023363 -0.06959951 -0.20607242
00000000: 04b0 eabd b3ee 99bd 3883 32be 0e94 42be
00000010: 4c48 193e f212 f23d 0b3e b93e 4036 5f3e
00000020: 0cb5 0c3e c8e3 6e3e f53d 1fbe 563b e0bd
00000030: 4bd4 0dbe bc2f 5f3e a373 80be 9e0f 9cbd
00000040: fb3f 353e 120d 2abc f0b8 a1be d069 abbe
00000050: e20c adbd 6565 1e3b 9bab bc3e 5795 8b3e
00000060: 6d9a b9bd d7e1 3d3e 0365 b2be 5868 aebe
00000070: f0fc a83e 8317 5cbe 962f 0a3e c383 1f3d
00000080: 1c83 d3bd 9cc7 633e 596e 003e 8526 39bb
00000090: d27c 3e3d cc37 66be c727 8d3c 659d 983d
000000a0: 0099 aabc 0799 643e c445 56be 9454 5dbe
000000b0: 96b6 cebe 39b8 99be 308a 8ebd a604 53be

bn5.running_var f4 [48]
0.08746167 0.099771425 0.143561 0.0634428 0.101228476 0.15563849 0.14755692 0.12146437
0.10127096 0.07782231 0.24412623 0.08080528 0.15074724 0.10747847 0.08521957 0.08665024
0.09818301 0.07965779 0.15041251 0.11213952 0.1276849 0.08913837 0.096712455 0.15421766
0.09975197 0.10448965 0.13575953 0.13963252 0.1425612 0.11935079 0.1400598 0.08520926
0.092296645 0.13268664 0.13146774 0.12231341 0.054110523 0.09821675 0.093316525 0.13590008
0.10310155 0.08680387 0.09596395 0.09346233 0.13042547 0.076840825 0.08178462 0.09846488
00000000: 1b1f b33d f654 cc3d a801 133e 4cee 813d
00000010: e050 cf3d b25f 1f3e 2919 173e 50c2 f83d
00000020: 2667 cf3d 4e61 9f3d 3afc 793e 3d7d a53d
00000030: 7c5d 1a3e ac1d dc3d 9987 ae3d ae75 b13d
00000040: 2d14 c93d a023 a33d bd05 1a3e 68a9 e53d
00000050: d5bf 023e 2d8e b63d 2e11 c63d 3ceb 1d3e
00000060: c34a cc3d abfe d53d 8c04 0b3e d4fb 0e3e
00000070: 90fb 113e 306e f43d d66b 0f3e 3182 ae3d
00000080: 0606 bd3d 02df 073e 7b9f 063e 747f fa3d
00000090: ffa2 5d3d dd25 c93d bc1c bf3d 6429 0b3e
000000a0: e826 d33d 3ac6 b13d bf88 c43d 2e69 bf3d
000000b0: 418e 053e b95e 9d3d b27e a73d f4a7 c93d

fc1.weight f4 [10, 4800]
0.010245579 -0.01214554 -0.015211297 -0.0158126 -0.0045345537 0.00029537006 0.007367241 -0.0014107206
0.004687452 -0.016873905 -0.005090572 -0.00464732 0.0026716138 -0.0072741946 -0.0009410223 -0.0077712075
0.008833653 -0.010746042 -0.01244002 -0.014492513 0.0070259543 -0.007732463 0.00437285 -0.016109683
-0.012035269 0.0112650255 -0.0053458754 -0.012195011 0.0045956094 -0.015241145 -0.0028586898 -0.004032824
0.015175724 0.013569314 0.0073456755 -0.01063365 0.0013534664 0.0094657615 0.008937267 0.007108262
-0.017206965 -0.013805131 0.0152416425 -0.013890503 -0.012973752 0.009628743 -0.0032816548 0.0012321795
-0.005398773 -0.0028248825 0.0013977888 -0.0045021395 -0.009934481 -0.013189783 -0.0025085902 -0.011804665
-0.015039666 0.005671384 -0.0023362762 0.009886124 -0.013029297 -0.0047826576 -0.0064455187 -0.004083949
0.01137212 0.010069627 0.0014124265 0.01148826 -0.001997122 0.017042032 -0.014863909 0.0008860554
-0.011393139 -0.0071884473 -0.006147587 -0.002279135 0.0039814007 0.010742031 0.00786742 0.011540891
0.009671534 0.009868673 -0.00869932 0.0055331904 -0.0034125026 -0.0031982062 0.011001501 -0.003525174
-0.012652073 0.0128745595 -0.0065744426 -0.017543972 -0.0031054458 0.0052339514 -0.0048976103 0.00088446186
-0.0004248215 0.000403442 -0.012523217 -0.00636215 -0.006079828 -0.0050032027 -0.0059405407 0.013762484
-0.002329808 0.008296324 -0.0069117006 0.00723713 -0.012097471 0.010691878 0.009364218 -0.008133541
0.010703728 -0.008943551 -0.0050372262 0.0070813242 -0.016850082 -0.0077035404 0.013012438 -0.014713918
0.004321534 -0.0012960696 0.0018611782 0.005757287 -0.004888213 0.0043088007 -0.0046680677 0.003589498
-0.0006429891 0.00882829 0.012585041 -0.013955926 0.0013304686 -0.00094423693 -0.010585197 -0.013701939
8.5977525e-05 -5.2303694e-05 -0.0030161943 -0.0012257813 0.008860502 0.012571016 0.010883761 -0.008242605
0.005306463 0.009166153 -0.011143536 -0.011143577 -0.011601589 0.0024469756 0.0043769036 -0.00015083299
-0.01113734 0.00015173781 -0.0069873696 0.012749129 0.0121713355 0.010622026 -0.009112843 -0.006076617
0.0014518253 0.007655067 -0.006236491 -0.0039376603 -0.002832725 -0.00428364 -0.004457386 -0.011123516
-0.00940338 -0.007430408 0.015502445 0.007402669 -0.007592297 -0.0018887848 0.01049417 -0.010002281
-0.010587928 -0.0027531867 -0.0026590184 0.012593343 0.0111107 0.009576896 0.0031831646 0.009362755
0.0018640249 -0.0019276997 -0.0060342755 -0.0097553525 0.015444829 0.0045092274 0.0053137946 0.0012251671
-0.0026248395 0.0040739966 -0.013480226 -0.002831062 0.00070611323 0.00039102952 0.012534354 0.013371982
-0.00041061317 -0.002866175 0.0032176343 -0.010588304 -0.0008776785 0.012037676 -0.007293288 0.01619478
0.015087904 0.0074920645 0.0039640632 -0.0018099509 -0.008860732 0.0075784232 0.010060217 0.0046570096
0.018219525 -0.012030285 -0.00097126915 -0.009811516 0.0072515425 0.002023403 -0.0071146074 0.011518186
-0.004820989 -0.0032442329 0.015223987 0.007708012 0.0031034928 0.016089331 -0.006138181 0.014311742
-0.010044834 -0.013029102 0.0068801465 0.0025057686 0.0052756206 0.0012906273 -0.0064850445 -0.008285708
-0.0049595027 0.004339713 0.008410528 -0.008307397 0.007914312 -0.004500135 -0.0047263973 0.01147111
0.005706815 -6.452568e-05 0.006323024 0.016120475 0.005014802 -0.008042933 0.0011831546 0.011216373
00000000: 13dd 273c 16fe 46bc ce38 79bc 6d89 81bc
00000010: 9896 94bb e6db 9a39 e668 f13b eee7 b8ba
00000020: 3399 993b 253b 8abc d0ce a6bb 8c48 98bb
00000030: 3e16 2f3b 5e5c eebb f0ae 76ba 9da5 febb
00000040: 07bb 103c 2b10 30bc 3ad1 4bbc 0172 6dbc
00000050: fa39 e63b 9a60 fdbb 204a 8f3b 74f8 83bc
00000060: 942f 45bc f190 383c 742c afbb 95cd 47bc
00000070: c496 963b ffb5 79bc db58 3bbb c825 84bb
00000080: 9aa3 783c d451 5e3c feb3 f03b c338 2ebc
00000090: cc66 b13a 4816 1b3c 9d6d 123c 6cec e83b
000000a0: 9ff5 8cbc eb2e 62bc 15b8 793c fe94 63bc
000000b0: dc8f 54bc e0c1 1d3c 0811 57bb 1581 a13a
000000c0: 31e8 b0bb aa21 39bb 0236 b73a af86 93bb
000000d0: 3cc4 22bc f619 58bc 2967 24bb 5b68 41bc
000000e0: ee68 76bc 04d7 b93b 361c 19bb 69f9 213c
000000f0: d578 55bc d7b7 9cbb ee34 d3bb a6d2 85bb
00000100: 2152 3a3c 14fb 243c 2b21 b93a 4139 3c3c
00000110: 26e2 02bb bb9b 8b3c c187 73bc 2c46 683a
00000120: 4aaa 3abc 118d ebbb b371 c9bb 8a5d 15bb
00000130: 6976 823b 58ff 2f3c 5ae6 003c 0116 3d3c
00000140: 5b75 1e3c 37b0 213c 9887 0ebc c44f b53b
00000150: 4ba4 5fbb ff98 51bb a43f 343c 9b06 67bb
00000160: a44a 4fbc d1ef 523c 6c6e d7bb 60b8 8fbc
00000170: bc84 4bbb 9181 ab3b 227c a0bb 3bdb 673a
00000180: 94ba deb9 1285 d339 2e2e 4dbc 9579 d0bb
00000190: 4b39 c7bb e8f1 a3bb dea8 c2bb 0b7c 613c
000001a0: b1af 18bb 4eed 073c 8c7b e2bb 7225 ed3b
000001b0: 7934 46bc fd2c 2f3c 616c 193c 8b42 05bc
000001c0: b05e 2f3c f987 12bc 510f a5bb 740a e83b
000001d0: 2f09 8abc fb6d fcbb 1f32 553c a512 71bc
000001e0: a89b 8d3b e1e0 a9ba c7f2 f33a a0a7 bc3b
000001f0: 4d2d a0bb d730 8d3b 97f6 98bb c93d 6b3b
00000200: 458e 28ba 88a4 103c 7d31 4e3c 65a7 64bc
00000210: 1e63 ae3a ab86 77ba 896d 2dbc 197e 60bc
00000220: d54e b438 aa60 5bb8 58ab 45bb 65aa a0ba
00000230: a42b 113c aaf6 4d3c cd51 323c fe0b 07bc
00000240: d7e1 ad3b a22d 163c 6193 36bc 8d93 36bc
00000250: 9714 3ebc 705d 203b 216c 8f3b ec28 1eb9
00000260: 6479 36bc cf1b 1f39 4ef6 e4bb b9e1 503c
00000270: 486a 473c 0208 2e3c 094e 15bc 5c1e c7bb
00000280: 2c4b be3a 5bd7 fa3b 7a5b ccbb 7d07 81bb
00000290: 3da5 39bb c75d 8cbb 440f 92bb 683f 36bc
000002a0: a210 1abc c87a f3bb f8fd 7d3c 1792 f23b
000002b0: cec8 f8bb 1a91 f7ba bdef 2b3c 9be0 23bc
000002c0: fd78 2dbc cf6e 34bb ed42 2ebb 4f54 4e3c
000002d0: a709 363c 6ae8 1c3c a49c 503b 3e66 193c
000002e0: 4c52 f43a deaa fcba 2cbb c5bb ead4 1fbc
000002f0: 4f0c 7d3c 24c2 933b 571f ae3b c995 a03a
00000300: 8005 2cbb 297f 853b 2adc 5cbc 5789 39bb
00000310: 751a 393a 1803 cd39 e45c 4d3c 2816 5b3c
00000320: 9147 d7b9 70d6 3bbb f2de 523b 917a 2dbc
00000330: 0214 66ba ac39 453c 89fc eebb eaaa 843c
00000340: 4233 773c fe7f f53b f9e4 813b e03b edba
00000350: 9b2c 11bc 6c54 f83b 9cd3 243c d499 983b
00000360: 1d41 953c ac1a 45bc c59c 7eba 7bc0 20bc
00000370: 599e ed3b 129b 043b a721 e9bb c6b6 3c3c
00000380: 63f9 9dbb 329d 54bb 086e 793c 7e93 fc3b
00000390: f863 4b3b c6cd 833c cb22 c9bb cc7b 6a3c
000003a0: 1693 24bc 0478 55bc da72 e13b d237 243b
000003b0: 1ddf ac3b 442a a93a 7f80 d4bb c7c0 07bc
000003c0: 5383 a2bb 2734 8e3b 50cc 093c c01b 08bc
000003d0: 08ab 013c de75 93bb e5df 9abb 53f1 3b3c
000003e0: 3c00 bb3b f651 87b8 5f31 cf3b 160f 843c
000003f0: 3553 a43b 82c6 03bc 1514 9b3a e1c4 373c

fc1.bias f4 [10]
0.008586215 -0.012002666 -0.009454349 -0.0025365828 0.0010124436 0.003971328 0.005869154 0.004278928
0.014967134 -0.006387982
00000000: 32ad 0c3c d4a6 44bc 6ae6 1abc cc3c 26bb
00000010: f8b3 843a ea21 823b 0852 c03b 4036 8c3b
00000020: b638 753c 4752 d1bb
