data/model.pt (torch, 289867 bytes, 26 tensors)

weight f4 [12, 3, 5, 5]
0.030055024 0.09985154 0.012997881 -0.0388289 0.020574143 0.085004754 -0.09801813 -0.03556947
0.010815139 0.041035276 -0.067807056 -0.036726665 0.10818314 -0.004625894 0.054396216 0.09030051
-0.09506367 0.1150177 -0.0116331475 -0.07275154 -0.07913347 0.01204761 0.083392374 -0.0718343
0.06934848 -0.065996595 0.107705824 0.03498753 -0.04187042 -0.003159198 0.058452744 0.04659977
-0.022225512 0.09687607 -0.092016205 -0.025120256 0.0474841 -0.039254416 0.11199945 0.038641036
0.06192943 -0.015408321 0.03369953 0.041074447 -0.010384536 0.025200898 -0.08487015 0.07239423
0.10206088 0.051470704 -0.06495549 -0.07994998 0.07518641 -0.013124165 0.055345163 0.017952094
0.08533771 0.011611586 -0.10193665 -0.015527954 0.09372171 0.08053982 -0.020430258 -0.072851345
-0.042171378 -0.04422846 -0.09546011 -0.008424649 0.08028587 -0.002082815 0.077902906 0.112569295
0.028507398 0.033000194 0.07199267 0.11688434 0.06328252 -0.09630035 0.091390334 0.056983087
0.0035222387 0.0985237 -0.059360534 0.020561991 -0.046206918 -0.065303944 0.035746917 0.014443762
-0.038621977 0.07711593 -0.019763514 -0.024109941 0.024982775 -0.04563313 -0.012307228 -0.06539451
0.04281074 -0.08021594 -0.10497663 0.08862451 0.036379885 0.08234752 0.085751146 0.026723683
0.06485207 -0.062095646 -0.004778697 0.06788056 -0.10601003 0.032550424 -0.08969266 0.08467185
0.055527415 -0.11036471 0.06645027 0.06603987 -0.10226643 0.08988784 -0.006580771 -0.054741185
0.035079904 0.0064377873 0.059711024 -0.067308374 0.061708726 -0.051102426 -0.0003795666 0.035859972
0.105456375 -0.104014866 -0.017423656 0.05727731 -0.06678057 -0.102382734 0.076228 0.058135044
-0.07968285 -0.071927756 -0.059861843 0.038585853 -0.009248848 -0.058842182 -0.020301083 0.021697428
0.018610911 -0.10264605 0.048687264 -0.003123237 0.089563295 -0.04796983 0.058453143 0.037425734
-0.097300276 -0.017906765 0.018780481 0.059460633 -0.039894335 0.036449585 -0.09797645 0.013900355
0.100800194 -0.015952073 -0.07355056 0.08734876 -0.0033193463 0.03469111 0.037962794 -0.04767794
0.029854096 0.08587435 -0.10143645 -0.106503114 0.07656017 -0.100517765 0.07157007 -0.06838459
-0.04546368 -0.08054639 0.04695307 0.018772017 0.021291882 0.07645502 -0.112507366 -0.002582892
0.038801607 -0.03228032 -0.04555386 -0.021334194 -0.025583982 0.09785531 -0.107186906 -0.05295182
-0.074719846 -0.0006143056 -0.033541076 -0.017453454 0.073691115 -0.110063836 0.02972634 0.11716077
0.04663665 0.064248785 -0.050216645 -0.07478778 0.060545277 0.094163075 -0.08633208 -0.1192068
-0.061131198 -0.099212304 -0.053488027 -0.052699395 -0.12112642 0.08570592 -0.025780054 0.021889199
-0.069314 -0.024489308 -0.095699504 -0.041537534 0.119414695 -0.073461615 -0.08739771 -0.07651216
0.08762567 -0.050733835 0.043733537 -0.007433477 0.04711471 0.09016264 -0.022318969 0.09065614
0.016656196 -0.08042404 0.10989083 -0.058800768 0.02718827 0.057472005 0.06028031 0.022402229
0.06324598 -0.042392522 0.015109622 0.10899649 0.013268164 0.08902716 0.0049003037 0.10893021
-0.04495606 0.019710815 0.04051734 0.09702745 0.024070183 0.07717294 -0.064081244 0.084779136
00000000: f435 f63c f77e cc3d 10f5 543c 0d0b 1fbd
00000010: 1b8b a83c f916 ae3d bbbd c8bd 4bb1 11bd
00000020: fb31 313c 9b14 283d 6dde 8abd b36e 16bd
00000030: 1f8f dd3d d094 97bb 91ce 5e3d 79ef b83d
00000040: beb0 c2bd 668e eb3d f598 3ebc c2fe 94bd
00000050: bb10 a2bd 5763 453c 9fc9 aa3d dd1d 93bd
00000060: 9306 8e3d 3929 87bd df94 dc3d 164f 0f3d
00000070: 5180 2bbd 8c0a 4fbb 256c 6f3d 67df 3e3d
00000080: 4712 b6bc f666 c63d fe72 bcbd ffc8 cdbc
00000090: b07e 423d 3dc9 20bd f85f e53d 1046 1e3d
000000a0: b7a9 7d3d 2f73 7cbc 8508 0a3d ae3d 283d
000000b0: e723 2abc 1d72 ce3c 67d0 adbd 6d43 943d
000000c0: 4b05 d13d f2d2 523d 6207 85bd d1bc a3bd
000000d0: 55fb 993d bd06 57bc 9cb1 623d 4510 933c
000000e0: 8ac5 ae3d 863e 3e3c 2ac4 d0bd f668 7ebc
000000f0: 2bf1 bf3d 10f2 a43d 5b5d a7bc 1633 95bd
00000100: e5bb 2cbd e728 35bd 9780 c3bd 8a07 0abc
00000110: eb6c a43d d67f 08bb 8f8b 9f3d bb8a e63d
00000120: 5988 e93c 362b 073d e570 933d 0f61 ef3d
00000130: 449a 813d 1e39 c5bd db2a bb3d 1967 693d
00000140: 5cd5 663b cbc6 c93d 0824 73bd 9f71 a83c
00000150: 7743 3dbd 13be 85bd 5c6b 123d 87a5 6c3c
00000160: 1432 1ebd f5ee 9d3d 18e7 a1bc 3682 c5bc
00000170: ada8 cc3c cee9 3abd 41a4 49bc 8fed 85bd
00000180: 515a 2f3d 4148 a4bd fdfd d6bd c480 b53d
00000190: 1303 153d d1a5 a83d 4c9e af3d a0eb da3c
000001a0: 29d1 843d 0158 7ebd 9e96 9cbb f704 8b3d
000001b0: c91b d9bd 9853 053d c9b0 b7bd 6f68 ad3d
000001c0: b770 633d e506 e2bd 1417 883d e93f 873d
000001d0: 1071 d1bd 1e17 b83d 82a3 d7bb 4b38 60bd
000001e0: f2af 0f3d 13f4 d23b 8c93 743d f9d8 89bd
000001f0: 4ac2 7c3d c750 51bd 9100 c7b9 e8e1 123d
00000200: 83f9 d73d bf05 d5bd 0ebc 8ebc 9d9b 6a3d
00000210: 40c4 88bd 0aae d1bd 6d1d 9c3d 031f 6e3d
00000220: c330 a3bd dc4e 93bd b131 75bd 330c 1e3d
00000230: 7b88 17bc 8004 71bd 754e a6bc cebe b13c
00000240: e975 983c 1838 d2bd 4c6c 473d 39af 4cbb
00000250: f66c b73d 037c 44bd 906c 6f3d ba4b 193d
00000260: 5e45 c7bd 35b1 92bc 86d9 993c fe8c 733d
00000270: 3e68 23bd 294c 153d e1a7 c8bd 51be 633c
00000280: 5570 ce3d ecad 82bc ada1 96bd e8e3 b23d
00000290: 6489 59bb 4418 0e3d e07e 1b3d f249 43bd
000002a0: 9490 f43c e4de af3d eabd cfbd 4e1e dabd
000002b0: 94cb 9c3d 42dc cdbd 5493 923d 380d 8cbd
000002c0: 2038 3abd 81f5 a4bd dd51 403d c6c7 993c
000002d0: 506c ae3c 7394 9c3d 436a e6bd bd45 29bb
000002e0: 6fee 1e3d 5e38 04bd af96 3abd 0cc5 aebc
000002f0: 8095 d1bc 5d68 c83d cf84 dbbd 02e4 58bd
00000300: b806 99bd 5a09 21ba 5e62 09bd 8cfa 8ebc
00000310: 5eeb 963d 2669 e1bd a784 f33c fcf1 ef3d
00000320: 1206 3f3d de94 833d f8af 4dbd 562a 99bd
00000330: 53fe 773d 92d8 c03d e0ce b0bd b222 f4bd
00000340: b564 7abd d22f cbbd 4316 5bbd 52db 57bd
00000350: 2111 f8bd 9686 af3d b130 d3bc fa50 b33c
00000360: 80f4 8dbd cd9d c8bc 1afe c3bd 4323 2abd
00000370: b18f f43d 0b73 96bd 92fd b2bd 68b2 9cbd
00000380: 1675 b33d 48ce 4fbd f021 333d 8694 f3bb
00000390: 5bfb 403d 31a7 b83d 45d6 b6bc eda9 b93d
000003a0: 9372 883c 5cb5 a4bd 720e e13d 13d9 70bd
000003b0: efb9 de3c c467 6b3d 7de8 763d e184 b73c
000003c0: 1c87 813d c8a3 2dbd 598e 773c 8d39 df3d
000003d0: b762 593c df53 b63d ba92 a03b cd16 df3d
000003e0: d823 38bd 9378 a13c 83f5 253d 54b6 c63d
000003f0: d52e c53c d90c 9e3d 073d 83bd afa0 ad3d

bias f4 [12]
-0.09263384 -0.08543853 -0.065916605 -0.013436008 0.05115647 -0.06624028 -0.00035346395 -0.04292219
-0.076141044 0.10722444 -0.06146668 -0.057989612
00000000: d0b6 bdbd 65fa aebd 49ff 86bd b422 5cbc
00000010: 7289 513d fca8 87bd 2151 b9b9 2ecf 2fbd
00000020: d6ef 9bbd 7d98 db3d 7cc4 7bbd 8486 6dbd

weight f4 [12]
1.0078785 1.014187 1.0098244 1.007362 1.014692 1.0041218 1.0011222 1.0049378
1.006841 1.0203953 1.0204384 1.01147
00000000: 2a02 813f e1d0 813f ed41 813f 3df1 803f
00000010: 6de1 813f 1087 803f c624 803f cda1 803f
00000020: 2ae0 803f 509c 823f ba9d 823f d977 813f

bias f4 [12]
0.0001785261 0.0051591294 0.005424044 0.0029109037 0.002550273 0.0040855953 0.003956168 0.0030666192
0.0009448831 0.0013875953 0.0075272867 0.0015689686
00000000: bc32 3b39 ea0d a93b 2ebc b13b dcc4 3e3b
00000010: 7b22 273b 75e0 853b bea2 813b 55f9 483b
00000020: 08b2 773a f9df b53a 75a7 f63b daa5 cd3a

running_mean f4 [12]
0.295795 -0.047161628 -0.55737597 0.14748889 -0.0013252319 0.2021881 0.27183762 -0.39578643
0.043547675 0.004072633 -0.28338143 -0.26232296
00000000: 7172 973e 8d2c 41bd 31b0 0ebf 5407 173e
00000010: 67b3 adba 660a 4f3e 4d2e 8b3e 85a4 cabe
00000020: 0c5f 323d b973 853b 5f17 91be 324f 86be

running_var f4 [12]
0.03741123 0.012323963 0.09652491 0.030012567 0.021278808 0.07120329 0.032971717 0.034341216
0.015381058 0.008260662 0.028298037 0.015287673
00000000: 853c 193d 73ea 493c daae c53d eadc f53c
00000010: e550 ae3c 08d3 913d 5a0d 073d 60a9 0c3d
00000020: d500 7c3c ba57 073c 49d1 e73c 2679 7a3c

weight f4 [12, 12, 5, 5]
-0.024068683 -0.029827353 0.051549114 0.05166612 0.008563009 -0.027930522 -0.025172768 -0.051098756
0.01131188 0.017193684 0.038615655 0.043696534 -0.012694311 -0.011551622 -0.050703686 0.026668387
0.037391014 0.006998535 -0.03919689 -0.033902287 0.051899564 0.018099498 0.04874562 0.049868103
0.04646164 -0.021570502 -0.0060737357 0.04934872 0.046821214 0.04922153 0.037775338 -0.045618683
-0.05260269 0.052886315 -0.00059434655 0.04873348 0.040839013 -0.03644733 -0.023197869 -0.037940692
0.004199985 0.026691897 0.031490244 -0.029734947 -0.010793033 0.044924837 -0.03346351 -0.038713697
-0.021893075 0.051376957 0.02635336 -0.049652983 -0.02666219 0.0024569028 -0.030217413 -0.024102002
-0.014915328 -0.009402634 0.020377109 -0.0424168 -0.05023469 -0.048237048 -0.026301013 -0.056913994
-0.031381603 -0.0041070217 0.016375594 0.0037557317 -0.05224482 -0.003352227 0.049894746 0.03991234
0.0290074 0.009581174 -0.017137496 -0.046580583 0.024226926 -0.00963644 0.04065586 0.0028880485
-0.031198869 0.057901096 0.04542363 -0.022384718 -0.029102596 0.03991991 -0.0012333321 -0.0028357226
-0.029160991 0.045537602 -0.04073321 -0.050503995 -0.05427371 0.024179913 -0.034427784 -0.035417307
-0.009280986 -0.054088898 -0.022870487 0.038465124 -0.055520967 -0.03005717 -0.00056285824 -0.030546287
0.0338192 0.05280165 0.03392712 0.039068628 0.007752099 -0.030535275 -0.051348872 0.040631846
0.01842034 -0.039453056 0.056335613 0.017839538 0.023429893 0.047135744 0.04002717 -0.044998977
-0.024578976 0.06254547 -0.004826598 0.062447708 -0.023896594 -0.047927536 -0.013157753 0.02691095
0.059543636 0.059206612 0.034865778 0.06530052 0.03721302 0.017395334 -0.02316611 0.03897891
0.036600705 0.008347083 -0.002790223 0.0380292 -0.025425874 0.029936211 0.06310173 0.050490115
0.048344813 -0.033148717 -0.012341196 -0.011826482 0.018529722 0.013947593 0.049305987 0.05611847
0.024640374 0.0032122645 0.031078393 0.014092715 0.007842333 0.04261248 -0.0043746145 0.025740528
0.049184702 0.014455327 0.010342308 0.012210396 -0.03745159 -0.010964376 0.038343906 -0.05020114
-0.05983259 -0.013989253 0.0068140943 -0.034595534 -0.03456259 -0.02180659 0.027922943 -0.052267753
0.012351709 -0.032729812 0.046940707 -0.006984507 -0.04046679 0.055943597 -0.0029999325 0.053088423
0.049729794 -0.048927847 -0.029905682 -0.032266866 -0.03229418 0.039317705 0.0514974 -0.030060908
-0.04525578 0.03769332 0.0074631353 -0.026582891 0.0005885437 0.056183394 0.048278186 -0.02747156
0.054045282 -0.035652068 -0.017282508 0.02236718 -0.04242399 -0.04245661 0.047675498 0.023087282
0.02353308 0.048733555 -0.020853031 0.032141596 0.010187478 -0.03625858 0.010131113 0.042439584
0.004180585 0.024535917 -0.0010238285 0.009267563 -0.03456249 -0.03246259 0.019232918 0.016726939
0.028153723 -0.033567358 -0.04198436 0.006789224 -0.010741791 0.0023743268 0.057628825 -0.040535636
-0.021738837 0.03541161 -0.041140303 0.025377441 -0.045240182 0.032200184 -0.022973655 -0.0026175892
0.027550962 0.028380677 0.062077228 0.031418912 -0.008406744 -0.05214075 0.0030768756 0.0050610746
0.021059899 -0.0018695289 0.060873836 -0.036780577 0.015453875 0.050061937 0.046410978 0.03267719
00000000: b02b c5bc 7e58 f4bc 2a25 533d da9f 533d
00000010: dd4b 0c3c 8dce e4bc 1f37 cebc ee4c 51bd
00000020: 7755 393c c5d9 8c3c 732b 1e3d 23fb 323d
00000030: cdfb 4fbc 0443 3dbc abae 4fbd a977 da3c
00000040: 5227 193d f753 e53b eb8c 20bd 20dd 0abd
00000050: a394 543d 6645 943c 7da9 473d 7f42 4c3d
00000060: 904e 3e3d 9fb4 b0bc 3006 c7bb e221 4a3d
00000070: 9ac7 3f3d 849c 493d 50ba 1a3d a8da 3abd
00000080: eb75 57bd 529f 583d eccd 1bba c29c 473d
00000090: cf46 273d cc49 15bd 7509 bebc b367 1bbd
000000a0: 07a0 893b f7a8 da3c eafb 003d b496 f3bc
000000b0: 43d5 30bc 1b03 383d 0911 09bd 4192 1ebd
000000c0: 1b59 b3bc a570 523d 00e3 d73c ed60 4bbd
000000d0: aa6a dabc fd03 213b 828a f7bc 9071 c5bc
000000e0: 6b5f 74bc 810d 1abc e5ed a63c 3dbd 2dbd
000000f0: e4c2 4dbd 3694 45bd 3975 d7bc a61e 69bd
00000100: ff89 00bd 3294 86bb 1c26 863c b922 763b
00000110: aafe 55bd 09b1 5bbb 6f5e 4c3d 1f7b 233d
00000120: eda0 ed3c 5bfa 1c3c ef63 8cbc 48cb 3ebd
00000130: 8c77 c63c 29e2 1dbc c286 263d 6a45 3d3b
00000140: c594 ffbc b329 6d3d 210e 3a3d 2860 b7bc
00000150: 9168 eebc 0f83 233d c2a7 a1ba 88d7 39bb
00000160: 08e3 eebc a385 3a3d ded7 26bd 47dd 4ebd
00000170: 1c4e 5ebd f414 c63c 2604 0dbd bd11 11bd
00000180: 470f 18bc 528c 5dbd e35a bbbc 9b8d 1d3d
00000190: f469 63bd 743a f6bc c78c 13ba 353c fabc
000001a0: 0086 0a3d 8b46 583d 2af7 0a3d 6d06 203d
000001b0: 5205 fe3b 1d25 fabc 3253 52bd 946d 263d
000001c0: 41e6 963c 8799 21bd 2cc0 663d 3924 923c
000001d0: 0cf0 bf3c 6911 413d 88f3 233d d950 38bd
000001e0: d959 c9bc d717 803d 7028 9ebb 2bc9 7f3d
000001f0: cac2 c3bc aa4f 44bd 9e93 57bc 5a74 dc3c
00000200: 07e4 733d a282 723d 6bcf 0e3d 47bc 853d
00000210: ae6c 183d a980 8e3c dbc6 bdbc 59a8 1f3d
00000220: 9fea 153d 34c2 083c 2ddc 36bb 82c4 1b3d
00000230: ec49 d0bc c93c f53c 7b3b 813d b9ce 4e3d
00000240: 3605 463d f3c6 07bd ba32 4abc dcc3 41bc
00000250: a5cb 973c 7284 643c 13f5 493d 7bdc 653d
00000260: 9cda c93c db84 523b 1d98 fe3c 22e5 663c
00000270: 217d 003c 6d8a 2e3d ed58 8fbb cddd d23c
00000280: e675 493d 09d6 6c3c c972 293c 1d0e 483c
00000290: d766 19bd eda3 33bc 800e 1d3d b69f 4dbd
000002a0: 0513 75bd 2e33 65bc c448 df3b 0cb4 0dbd
000002b0: 8191 0dbd bca3 b2bc a8be e43c b616 56bd
000002c0: d35e 4a3c b20f 06bd e644 403d 4bde e4bb
000002d0: 81c0 25bd 1d25 653d 849a 44bb 3f73 593d
000002e0: 78b1 4b3d 9168 48bd c3fc f4bc 432a 04bd
000002f0: e746 04bd 9a0b 213d f0ee 523d 4b42 f6bc
00000300: 205e 39bd 5064 1a3d 518d f43b 5dc4 d9bc
00000310: 8048 1a3a 8f20 663d 59bf 453d 090c e1bc
00000320: 965e 5d3d e707 12bd 0c94 8dbc 603b b73c
00000330: c7c4 2dbd fbe6 2dbd 6247 433d 8a21 bd3c
00000340: 72c8 c03c d69c 473d fad3 aabc e8a6 033d
00000350: 61e9 263c e083 14bd f8fc 253c 21d5 2d3d
00000360: 4afd 883b 8cff c83c fc31 86ba fad6 173c
00000370: 6691 0dbd 7ef7 04bd 5a8e 9d3c ef06 893c
00000380: a3a2 e63c ed7d 09bd cbf7 2bbd 2478 de3b
00000390: 56fe 2fbc 989a 1b3b 340c 6c3d b208 26bd
000003a0: a515 b2bc c40b 113d bc82 28bd 5ae4 cf3c
000003b0: c54d 39bd 57e4 033d 3f33 bcbc dc8b 2bbb
000003c0: 8eb2 e13c 987e e83c b144 7e3d 1eb1 003d
000003d0: 71bc 09bc 8a91 55bd 68a5 493b 5fd7 a53b
000003e0: cf85 ac3c fb0a f5ba d856 793d 3ba7 16bd
000003f0: 4032 7d3c bf0d 4d3d 7019 3e3d 84d8 053d

bias f4 [12]
0.045766 -0.01133736 -0.016220817 0.012347625 -0.00270673 0.039714318 -0.026076972 -0.04419428
-0.049293052 -0.011519576 0.0079943 0.037372258
00000000: 2175 3b3d 56c0 39bc 85e1 84bc b14d 4a3c
00000010: 6563 31bb 7bab 223d 609f d5bc 1005 35bd
00000020: 83e7 49bd 9bbc 3cbc 86fa 023c a713 193d

weight f4 [12]
1.0130794 1.0057667 1.0104035 1.0115623 1.0088853 1.0113417 1.0116979 1.0217139
1.0132841 1.0113024 1.0093057 1.0153548
00000000: 96ac 813f f7bc 803f e754 813f e07a 813f
00000010: 2723 813f a573 813f 517f 813f 85c7 823f
00000020: 4bb3 813f 5b72 813f ee30 813f 25f7 813f

bias f4 [12]
0.0036963997 -0.001859732 0.0019075057 -0.0032584842 0.00037998857 0.007985436 0.0010471117 0.0032680018
0.004337989 0.005001086 0.0025725395 0.00036227328
00000000: 4c3f 723b 40c2 f3ba 4505 fa3a 4b8c 55bb
00000010: 3439 c739 59d5 023c 3d3f 893a f92b 563b
00000020: b025 8e3b 26e0 a33b 0d98 283b 7fef bd39

running_mean f4 [12]
0.30113363 0.0024061694 0.114409536 0.56894386 0.1346738 -0.461036 0.40161312 -0.17242625
-0.42255497 -0.15678522 0.11119214 0.28385377
00000000: 302e 9a3e d3b0 1d3b 8c4f ea3d 4ea6 113f
00000010: eee7 093e e90c ecbe 3ca0 cd3e 8290 30be
00000020: 2059 d8be 4e8c 20be b4b8 e33d 4855 913e

running_var f4 [12]
0.09705691 0.14627497 0.065313846 0.08942729 0.06787498 0.06656672 0.14631972 0.07992799
0.05779917 0.0847929 0.096399896 0.0651472
00000000: c6c5 c63d 1bc9 153e 44c3 853d a825 b73d
00000010: 0a02 8b3d 2254 883d d6d4 153e 49b1 a33d
00000020: d3be 6c3d e6a7 ad3d 4f6d c53d e56b 853d

weight f4 [24, 12, 5, 5]
-0.050408933 0.050849188 -0.006465616 -0.05656954 -0.05823904 0.0074536717 0.020861823 0.011008453
-0.018206036 0.014027096 -0.021905174 0.014529408 0.052546274 0.036973093 -0.044843715 0.045367904
0.027741466 -0.009751184 0.026473548 -0.044549156 0.017065048 -0.019050675 0.021990476 0.02044807
-0.050714698 0.030279737 -0.021517722 -0.01658807 0.0105536245 -0.04589673 0.0038064849 0.028907964
-0.04919211 0.060496707 0.003784997 -0.036310334 0.060791135 -0.006048749 -0.033658605 -0.032058243
-0.059996307 -0.009773949 0.026139092 -0.018085657 0.017506778 -0.026943054 -0.005842882 0.040424608
0.02037555 0.042843994 0.02288932 0.021602077 -0.024908302 -0.009553892 0.0063032308 0.059622895
-0.021122467 -0.043767184 -0.025267024 0.036198266 0.05459547 0.008835647 -0.004914703 -0.047184613
0.01872783 0.003901816 0.05515933 0.06401965 -0.03430577 -0.009409674 -0.028669983 -0.0012624108
-0.042749375 0.044925194 0.044083666 -0.04831653 0.046711948 0.018184192 -0.045863498 -0.03473934
0.02237373 -0.016508007 -0.022750197 0.027311394 0.028733859 0.028804446 0.031590942 -0.046379667
0.0061005545 0.0042263055 0.0046114065 -0.018376987 -0.0481486 0.050240736 -0.007529261 -0.0318727
0.027241819 0.011184899 -0.018764805 0.04703066 -0.031106042 0.05651066 0.02229841 -0.055456698
-0.041491523 -0.040778726 0.0047460184 -0.046215564 -0.01374535 -0.03762299 0.038223434 0.0005986831
-0.035964765 -0.011372022 0.004154924 -0.0056740283 -0.015696868 0.049023584 0.0400435 -0.004135165
0.046087146 -0.0060574613 -0.011008927 0.052189197 0.040502574 0.015254115 0.033692792 0.05383102
0.050187495 0.013685854 0.06784665 0.044026326 0.029868197 0.011559447 -0.041248795 0.0063868226
0.046041936 0.018544458 -0.038351208 -0.01736006 0.016925717 -0.044692703 -0.047924533 -0.052281186
-0.005130875 0.0073317313 0.024136858 0.0054085013 -0.05290781 -0.036861382 0.06412734 0.046773117
-0.038181417 -0.029367132 0.0025680894 -0.0038498738 -0.015917247 0.0019961607 -0.026872098 0.044342596
0.031970926 -0.020597443 -0.03358167 -0.0061717597 -0.02460765 0.0007172616 0.0003379427 0.016698163
-0.046366047 -0.052862927 -0.019898297 0.03022889 0.009677927 -0.039331988 -0.027431685 -0.007253331
-0.0047123088 0.028758718 0.037826553 -0.01726621 0.057549506 0.019691432 -0.049016453 0.023103904
0.052880324 -0.025829718 0.040375542 -0.037885074 -0.015308272 -0.0067543034 -0.044856276 -0.041322257
-0.019504635 -0.0054127118 -0.030439697 0.013046631 -0.027752692 0.010771591 -0.003370647 0.06277393
-0.025768753 0.04566295 -0.061666742 -0.036672793 0.030119564 0.046178848 0.028748566 0.05179512
0.007247784 0.046618138 0.0007548488 0.009145068 -0.03814346 0.048073623 0.0031026036 0.046486624
-0.022199262 0.032730624 0.027468888 0.05798447 0.03937982 -0.037102543 0.006803545 0.056943864
-0.004324256 -0.05433298 0.020556478 -0.03916914 -0.062123336 -0.03251213 -0.003795155 -0.056177743
-0.02486556 0.017637366 -0.036046952 0.009455396 -0.019072706 -0.030428946 0.050691552 -0.040042516
0.011861313 -0.048647508 -0.034966733 -0.03805068 0.0028880707 0.030418761 -0.032118496 0.027979707
0.03545389 0.047644462 -0.034104936 0.038833223 0.046702027 0.025895536 0.014538483 0.039644405
00000000: 9979 4ebd 3d47 503d 85dd d3bb 76b5 67bd
00000010: 0f8c 6ebd ee3d f43b 6ae6 aa3c cc5c 343c
00000020: d324 95bc e8d1 653c 7b72 b3bc c10c 6e3c
00000030: c33a 573d 1971 173d 0bae 37bd b2d3 393d
00000040: 1242 e33c 6ec3 1fbc 0edf d83c 2d79 36bd
00000050: 00cc 8b3c 2910 9cbc 5f25 b43c b682 a73c
00000060: 37ba 4fbd 360d f83c ef45 b0bc b4e3 87bc
00000070: 1ce9 2c3c 36fe 3bbd 3876 793b 65d0 ec3c
00000080: aa7d 49bd 65cb 773d b60d 783b 25ba 14bd
00000090: 2000 793d 9634 c6bb 9bdd 09bd 814f 03bd
000000a0: b0be 75bd ea22 20bc a621 d63c 5f28 94bc
000000b0: 606a 8f3c aeb7 dcbc a675 bfbb 4694 253d
000000c0: a0ea a63c 2f7d 2f3d 6282 bb3c d7f6 b03c
000000d0: 7f0c ccbc ed87 1cbc 558b ce3b 2337 743d
000000e0: 0609 adbc 3845 33bd cafc cebc a244 143d
000000f0: 809f 5f3d 64c3 103c 840b a1bb a744 41bd
00000100: 1b6b 993c 9cb5 7f3b c0ee 613d bc1c 833d
00000110: 3584 0cbd 092b 1abc 50dd eabc 7a77 a5ba
00000120: f819 2fbd 7b03 383d 1391 343d 8ee7 45bd
00000130: 0755 3f3d 04f7 943c 5ddb 3bbd d74a 0ebd
00000140: 1d49 b73c cd3b 87bc 9f5e babc 25bc df3c
00000150: 4563 eb3c 4df7 eb3c 8165 013d 9bf8 3dbd
00000160: 29e7 c73b d27c 8a3b 481b 973b 568b 96bc
00000170: 7737 45bd 3bc9 4d3d 05b8 f6bb f38c 02bd
00000180: 3c2a df3c de40 373c a6b8 99bc 39a3 403d
00000190: 19d2 febc b977 673d 28ab b63c 9026 63bd
000001a0: 04f3 29bd 9807 27bd 7d84 9b3b 884c 3dbd
000001b0: 2d34 61bc 901a 1abd 2d90 1c3d f1f0 1c3a
000001c0: ca4f 13bd b851 3abc 0726 883b 33ed b9bb
000001d0: b896 80bc f4cc 483d a704 243d 4780 87bb
000001e0: e0c5 3c3d ab7d c6bb c95e 34bc 57c4 553d
000001f0: 07e6 253d 65ec 793c 7401 0a3d ea7d 5c3d
00000200: 6791 4d3d a23a 603c 2ff3 8a3d f354 343d
00000210: 26ae f43c d663 3d3c 7ff4 28bd 8d48 d13b
00000220: 7896 3c3d 8cea 973c 2816 1dbd af36 8ebc
00000230: cda7 8a3c b20f 37bd 844c 44bd cc24 56bd
00000240: e620 a8bb 053f f03b a9ba c53c cc39 b13b
00000250: dcb5 58bd f6fb 16bd 3255 833d 2b95 3f3d
00000260: 1e64 1cbd 5793 f0bc 644d 283b 2a4e 7cbb
00000270: e364 82bc 05d2 023b e022 dcbc 95a0 353d
00000280: f2f3 023d f8bb a8bc ef8c 09bd 793c cabb
00000290: fb95 c9bc 9c06 3c3a e72d b139 96ca 883c
000002a0: 53ea 3dbd cc86 58bd c101 a3bc 94a2 f73c
000002b0: 2b90 1e3c 941a 21bd 6ab8 e0bc 5aad edbb
000002c0: b669 9abb 6797 eb3c 04f0 1a3d de71 8dbc
000002d0: 08b9 6b3d ed4f a13c 7ac5 48bd 6644 bd3c
000002e0: 0a99 583d d898 d3bc d360 253d 612d 1bbd
000002f0: 8ccf 7abc 3453 ddbb 37bb 37bd 8741 29bd
00000300: 2fc8 9fbc 1e5d b1bb ac5c f9bc 89c1 553c
00000310: 9d59 e3bc 547b 303c 13e6 5cbb 9e8f 803d
00000320: fe18 d3bc 1309 3b3d 4496 7cbd 3636 16bd
00000330: 4ebd f63c 0826 3d3d 1d82 eb3c 1f27 543d
00000340: d27e ed3b a9f2 3e3d 0ce1 453a 32d5 153c
00000350: 513c 1cbd d9e8 443d 0d55 4b3b c268 3e3d
00000360: 3adb b5bc 8c10 063d 6f06 e13c 2081 6d3d
00000370: bc4c 213d d6f8 17bd 46f0 de3b f83d 693d
00000380: 7db2 8dbb 428c 5ebd 0f66 a83c d26f 20bd
00000390: 0a75 7ebd 702b 05bd 23b8 78bb a21a 66bd
000003a0: dcb2 cbbc 3d7c 903c f8a5 13bd ceea 1a3c
000003b0: 5d3e 9cbc 2046 f9bc f2a1 4f3d 9f03 24bd
000003c0: f455 423c 9c42 47bd 4739 0fbd 08db 1bbd
000003d0: c945 3d3b c430 f93c af8e 03bd b335 e53c
000003e0: 1938 113d d726 433d 9eb1 0bbd 960f 1f3d
000003f0: a04a 3f3d e022 d43c d132 6e3c 2c62 223d

bias f4 [24]
0.034041196 -0.04778879 -0.044625957 -0.0521816 -0.010208349 -0.030566767 0.022087436 0.0052807624
0.044397507 0.012364883 -0.018331485 -0.051332936 0.01185112 -0.009514359 -0.0005946001 0.054058965
0.008530794 -0.0252073 -0.020422911 -0.031320807 0.039122414 -0.040560745 -0.0313641 0.048895594
00000000: c86e 0b3d 2ebe 43bd b5c9 36bd 60bc 55bd
00000010: eb40 27bc 2867 fabc b6f0 b43c 3f0a ad3b
00000020: 29da 353d 1496 4a3c e92b 96bc 7c42 52bd
00000030: 332b 423c 1de2 1bbc f0de 1bba ef6c 5d3d
00000040: bec4 0b3c 8a7f cebc f34d a7bc 3f4a 00bd
00000050: d33e 203d 0623 26bd a477 00bd bf46 483d

weight f4 [24]
1.0034716 1.0095605 1.0089751 1.0079107 0.99974304 1.0016782 1.0010062 1.008383
1.0071787 1.0035647 1.001914 1.0025396 1.001256 1.0056885 0.99317306 1.0062244
1.0075253 1.0157802 1.0127509 1.008676 1.0060786 1.0052191 1.0114905 1.0031718
00000000: c271 803f 4739 813f 1926 813f 3803 813f
00000010: 29ef 7f3f fe36 803f f920 803f b212 813f
00000020: 3beb 803f cf74 803f b83e 803f 3853 803f
00000030: 2829 803f 67ba 803f 9740 7e3f f6cb 803f
00000040: 97f6 803f 1605 823f d2a1 813f 4c1c 813f
00000050: 2fc7 803f 05ab 803f 8578 813f ef67 803f

bias f4 [24]
0.0035568534 0.0022471403 0.0037747042 -0.004324019 0.0047392556 0.0028479188 -0.0017506575 -0.00082651176
-0.0066043925 -0.0014957802 -0.002678791 0.0023449606 0.00413454 -0.0019720022 -0.00064882974 0.0028756072
0.0021952752 0.0016438769 0.00753644 0.00020460295 0.0026299458 -0.0014105716 0.002559243 0.00457407
00000000: 191a 693b c244 133b 0761 773b 80b0 8dbb
00000010: c24b 9b3b 26a4 3a3b 5176 e5ba 44aa 58ba
00000020: a969 d8bb 0e0e c4ba a88e 2fbb e9ad 193b
00000030: 097b 873b b53c 01bb 3a16 2aba af74 3c3b
00000040: 9bde 0f3b 5b77 d73a 3ef4 f63b b08a 5639
00000050: 2b5b 2c3b eee2 b8ba f9b8 273b 15e2 953b

running_mean f4 [24]
-0.043402493 0.25885332 0.23983562 0.40105742 -0.5468679 -0.09692179 0.74293566 0.22260213
0.59250295 0.5618696 0.14838593 -0.28271607 -0.48306733 0.5455072 0.3637405 0.11866644
-0.055990428 0.029244127 -0.4581451 0.34232596 0.06090249 0.096555784 -0.17751388 -0.24093561
00000000: d0c6 31bd 6c88 843e 7897 753e 6657 cd3e
00000010: 89ff 0bbf ee7e c6bd 0831 3e3f d0f1 633e
00000020: 46ae 173f b0d6 0f3f 7bf2 173e 29c0 90be
00000030: 9a54 f7be 5ca6 0b3f 323c ba3e 6407 f33d
00000040: 3856 65bd 6191 ef3c ff91 eabe 5945 af3e
00000050: e474 793d 0abf c53d 33c6 35be d3b7 76be

running_var f4 [24]
0.16494592 0.14659035 0.10892413 0.12280037 0.17381805 0.17861836 0.31068414 0.12746106
0.18687189 0.17583127 0.26786503 0.17566459 0.25865453 0.18243589 0.20471765 0.13344376
0.19510844 0.10415862 0.21353576 0.12866929 0.16734196 0.1444219 0.112541854 0.15434061
00000000: 95e7 283e c81b 163e 9d13 df3d c37e fb3d
00000010: 5cfd 313e bbe7 363e fe11 9f3e 2785 023e
00000020: 585b 3f3e 1d0d 343e 9b25 893e 6be1 333e
00000030: 5e6e 843e 79d0 3a3e 81a1 513e 7ba5 083e
00000040: 82ca 473e 1d51 d53d 1ea9 5a3e e2c1 033e
00000050: b15b 2b3e 56e3 133e 587c e63d 770b 1e3e

weight f4 [48, 24, 5, 5]
0.032484017 -0.00489668 0.0005456148 -0.001627598 0.008287306 0.034363948 -0.02708316 -0.017961716
-0.004290106 -0.0054566045 -0.020908967 -0.02942652 -0.032577135 -0.04947986 -0.015640786 0.010221372
-0.0321364 -0.033046607 -0.017436568 -0.022225032 -0.012659247 -0.026966874 0.031868335 -0.012767254
-0.042199347 0.0140204625 -0.039167836 0.024758255 0.023805615 0.018976469 0.03567786 0.010101019
-0.016421143 0.009070209 0.0113628805 -0.007870312 -0.013794857 -0.03565547 -0.034724306 0.017239071
0.018460374 0.028128909 0.028776335 0.02073968 -0.0053670825 -0.021397421 0.034137655 0.030897617
0.034184884 -0.024887789 -0.010897941 -0.030690903 0.031240294 -0.001102219 0.011740405 -0.032603316
-0.01761914 0.019678874 -0.009796558 0.017360264 -0.030426847 0.040256687 -0.012073696 0.0010108975
-0.0058711893 -0.028820034 -0.025826193 0.020133164 -0.018047037 -0.03553771 -0.038993575 0.03782123
0.025458906 -0.027537325 0.006996812 0.0075680097 0.012961871 -0.023804316 -0.01580882 -0.013746487
-0.03392875 -0.007867158 -0.009939771 -0.024221247 -0.0060979826 0.0039236248 -0.020546243 0.014068654
-0.03855759 -0.031083802 -0.023468714 -0.030662224 0.04065141 0.011934683 0.03167747 -0.029277116
-0.041020066 0.016018085 0.013326478 -0.037110005 0.022127116 -0.025210802 0.02694098 -0.0040722345
0.009359147 0.009592439 0.028765704 0.01737948 -0.025133995 -0.014060297 0.040440023 -0.019524107
-0.030590158 0.030890359 -0.021193773 0.039716095 -0.03351051 0.040773485 0.041270904 -0.0024355736
0.014751546 0.03709633 0.03739747 -0.0116580315 0.03450468 0.005287773 0.0040979465 0.026230184
0.025896028 0.016808925 -0.026761876 0.025277855 0.03383922 0.022842083 -0.030819949 -0.0015530108
-0.028343411 0.010073637 0.00796463 -0.03254651 0.028318867 0.013970108 0.03328383 0.006092094
-0.015643204 0.017195469 0.013440169 -0.02717778 0.009391 0.0038943365 -0.029579658 -0.03513658
0.020165714 0.0023826957 -0.0063446513 0.0017109414 -0.0010186069 -0.005655596 0.011451304 -0.008616382
-0.0063919593 0.017177368 0.0014072952 0.0051873485 0.03758018 -0.021602707 0.031526417 -0.025539309
-0.002256041 0.02930356 -0.034866583 0.015991041 -0.012963812 -0.029611109 0.03979295 0.017960735
0.012284889 -0.031146571 0.008834496 0.0002168321 -0.031367376 -0.022570435 0.04126008 -0.013161853
-0.027748885 -0.043436628 -0.03931773 0.037393928 -0.0032611536 0.030777406 0.03921724 0.014805297
0.034850884 -0.0022656415 0.00427555 0.03298733 -0.023119705 -0.024588801 0.008356651 0.04058031
0.035576254 -0.034659207 -0.0059974613 -0.002454361 -0.019371204 -0.031521514 0.013709272 -0.02825807
0.007993152 -0.005849116 -0.027161548 -0.03761219 0.015553625 0.04440995 0.005273359 -0.016210325
-0.026088793 0.03650766 0.018640697 0.024528325 0.019795492 -0.02581457 0.039634462 0.013873832
0.018528668 0.041499365 -0.03198856 0.009432206 0.011921377 -0.00056883396 0.036198433 -0.0044833403
0.023537552 0.009961728 0.008095817 0.004941272 0.025179533 -0.010178556 0.0026500998 0.039615337
-0.018851576 0.0018921504 -0.013866929 -0.022465738 -0.029707689 0.005167914 -0.02092518 -0.008631805
0.033486307 0.01974655 -0.03556269 0.02048148 -0.024547914 0.033975665 -0.012421141 -0.02115821
00000000: f60d 053d 5474 a0bb 9707 0f3a 2055 d5ba
00000010: 7bc7 073c 36c1 0c3d 81dd ddbc 7324 93bc
00000020: 0494 8cbb 51cd b2bb 4849 abbc e30f f1bc
00000030: 9a6f 05bd 65ab 4abd 1b21 80bc 8b77 273c
00000040: 75a1 03bd e15b 07bd 22d7 8ebc 4511 b6bc
00000050: bb68 4fbc a2e9 dcbc 5f88 023d bf2d 51bc
00000060: 39d9 2cbd 15b6 653c 746e 20bd d3d1 ca3c
00000070: fe03 c33c 8a74 9b3c f322 123d bf7e 253c
00000080: a285 86bc 379b 143c 602b 3a3c 7bf2 00bc
00000090: d303 62bc 780b 12bd 133b 0ebd f438 8d3c
000000a0: 363a 973c 996e e63c 59bc eb3c 43e6 a93c
000000b0: 5ade afbb a549 afbc edd3 0b3d 001d fd3c
000000c0: 7305 0c3d 7ae1 cbbc 478d 32bc 7d6b fbbc
000000d0: a5eb ff3c 5578 90ba d45a 403c 0e8b 05bd
000000e0: 0456 90bc 9735 a13c be81 20bc 1d37 8e3c
000000f0: b941 f9bc 32e4 243d c0d0 45bc 1780 843a
00000100: 1b63 c0bb fe17 ecbc 7491 d3bc 4eee a43c
00000110: 61d7 93bc fd8f 11bd bab7 1fbd 6fea 1a3d
00000120: 328f d03c f595 e1bc 8345 e53b 11fd f73b
00000130: 075e 543c 4501 c3bc 8081 81bc f238 61bc
00000140: dff8 0abd 41e5 00bc 6cda 22bc a36b c6bc
00000150: 96d1 c7bb c091 803b 9850 a8bc 3680 663c
00000160: 90ee 1dbd 75a3 febc 7641 c0bc 582f fbbc
00000170: 1882 263d b089 433c 3cc0 013d 90d6 efbc
00000180: a804 28bd 5c38 833c 4d57 5a3c a900 18bd
00000190: ed43 b53c e286 cebc 55b3 dc3c 6170 85bb
000001a0: 1c57 193c 9b29 1d3c 0ea6 eb3c 695f 8e3c
000001b0: cfe5 cdbc 295d 66bc 70a4 253d 05f1 9fbc
000001c0: 3698 fabc c70d fd3c 909e adbc 58ad 223d
000001d0: 5142 09bd 1902 273d ae0b 293d 259e 1fbb
000001e0: 78b0 713c 52f2 173d 172e 193d 5401 3fbc
000001f0: c854 0d3d 0e45 ad3b 1148 863b afe0 d63c
00000200: e823 d43c dfb2 893c b93b dbbc 8113 cf3c
00000210: fe9a 0a3d 521f bb3c 1e7a fcbc 658e cbba
00000220: 7130 e8bc e50b 253c 147e 023c 7d4f 05bd
00000230: f8fc e73c e1e2 643c a054 083d 30a0 c73b
00000240: 2d26 80bc 83dd 8c3c 2834 5c3c f0a3 debc
00000250: b5dc 193c 2038 7f3b 0a51 f2bc 60eb 0fbd
00000260: 9132 a53c 0027 1c3b cbe6 cfbb ab41 e03a
00000270: c782 85ba 9452 b9bb 409e 3b3c ba2b 0dbc
00000280: a473 d1bb 8db7 8c3c fe74 b83a a2fa a93b
00000290: aded 193d 29f8 b0bc d821 013d d037 d1bc
000002a0: 16da 13bb 050e f03c 43d0 0ebd a5ff 823c
000002b0: 2b66 54bc ff92 f2bc effd 223d 6422 933c
000002c0: 8f46 493c 1827 ffbc 90be 103c 6c5d 6339
000002d0: 147b 00bd a2e5 b8bc 5400 293d d0a4 57bc
000002e0: a151 e3bc 9bea 31bd a10b 21bd 602a 193d
000002f0: 14b9 55bb e620 fc3c 42a2 203d eb91 723c
00000300: cdbf 0e3d 287b 14bb ea19 8c3b b91d 073d
00000310: 8965 bdbc 746e c9bc 56ea 083c 8a37 263d
00000320: 68b8 113d d0f6 0dbd 5a86 c4bb 58d9 20bb
00000330: 5cb0 9ebc b41c 01bd db9c 603c 787d e7bc
00000340: b6f5 023c f1a9 bfbb e581 debc 3d0f 1abd
00000350: a2d4 7e3c 35e7 353d 24cc ac3b 84cb 84bc
00000360: 2ab8 d5bc 0e89 153d 60b4 983c a0ef c83c
00000370: 282a a23c 1479 d3bc bf57 223d 124f 633c
00000380: 6fc9 973c 3dfb 293d 7006 03bd 8a89 1a3c
00000390: e151 433c cd1d 15ba cf44 143d fce8 92bb
000003a0: d3d1 c03c 8436 233c 51a4 043c 65ea a13b
000003b0: 4f45 ce3c f5c3 26bc 4cad 2d3b b143 223d
000003c0: 9f6e 9abc 0802 f83a 1e32 63bc 110a b8bc
000003d0: 8a5d f3bc 9b57 a93b 486b abbc 6a6c 0dbc
000003e0: f028 093d 84c3 a13c 2faa 11bd c7c8 a73c
000003f0: b518 c9bc 112a 0b3d 0b82 4bbc fb53 adbc

bias f4 [48]
0.008399142 0.0152812945 -0.029715845 -0.012239248 0.02679123 0.03303708 -0.008495071 0.023549894
-0.022108158 -0.030639645 0.027019484 0.020692999 -0.03544826 0.030841587 -0.03527065 0.011439183
0.03855581 0.021684777 0.025249692 -0.021210447 0.02678189 0.023123575 0.035716552 -0.020673817
-0.0033446457 0.029859912 0.0015283304 0.0051378743 -0.02805094 0.01701094 -0.014337186 0.036018085
-0.02219537 -0.030702773 -0.034859993 0.03299485 0.034602556 0.019577838 -0.02946499 -0.030057646
-0.028576164 0.009898455 0.017129814 0.02645458 0.02022923 -0.0039607524 0.021197025 0.011322083
00000000: 8e9c 093c 655e 7a3c a56e f3bc 2087 48bc
00000010: 4879 db3c e451 073d e92e 0bbc b5eb c03c
00000020: 2b1c b5bc feff fabc f757 dd3c 5d84 a93c
00000030: 3232 11bd 7fa7 fc3c f577 10bd 696b 3b3c
00000040: b2ec 1d3d 46a4 b13c 71d8 ce3c 88c1 adbc
00000050: b265 db3c a76d bd3c 854b 123d 235c a9bc
00000060: d831 5bbb c69c f43c 4252 c83a 9d5b a83b
00000070: 16cb e5bc 875a 8b3c 84e6 6abc b387 133d
00000080: 11d3 b5bc 6284 fbbc 5ac9 0ebd 9c25 073d
00000090: 69bb 0d3d b461 a03c 9060 f1bc 743b f6bc
000000a0: 8f18 eabc 212d 223c d353 8c3c 46b7 d83c
000000b0: c5b7 a53c 33c9 81bb 62a5 ad3c 4280 393c

weight f4 [48]
0.9885192 0.9916092 0.9888155 0.986928 0.9926934 0.9989806 0.990043 0.9831555
0.99352866 0.9961615 0.9907191 0.9969583 0.9951046 0.99894136 0.9941288 0.98421496
0.99098486 1.0027778 0.9901276 1.0079 0.9939936 0.99274576 0.99345326 0.99754846
1.004548 0.9933435 0.9849423 0.9887115 1.0028199 0.9857828 0.99895 0.9968469
0.9989578 0.99156255 0.9924458 1.0001578 0.99394715 0.9787092 0.98252326 0.98922557
0.9925246 0.9844059 0.99076676 0.9973777 0.97903854 1.0046521 0.9849344 1.0009543
00000000: 980f 7d3f 1ada 7d3f 0323 7d3f 50a7 7c3f
00000010: 2821 7e3f 31bd 7f3f 7573 7d3f 14b0 7b3f
00000020: e557 7e3f 7104 7f3f c49f 7d3f a938 7f3f
00000030: 2dbf 7e3f 9fba 7f3f 3a7f 7e3f 83f5 7b3f
00000040: 2fb1 7d3f 065b 803f 0179 7d3f de02 813f
00000050: 5d76 7e3f 9624 7e3f f452 7e3f 565f 7f3f
00000060: 0795 803f c24b 7e3f 2e25 7c3f 321c 7d3f
00000070: 675c 803f 435c 7c3f 30bb 7f3f 5c31 7f3f
00000080: b3bb 7f3f 0bd7 7d3f ee10 7e3f 2c05 803f
00000090: 5273 7e3f b08c 7a3f a586 7b3f e33d 7d3f
000000a0: 1816 7e3f 0602 7c3f e4a2 7d3f 2554 7f3f
000000b0: 45a2 7a3f 7198 803f a924 7c3f 451f 803f

bias f4 [48]
2.5901116e-05 -0.0014834022 -0.00037012057 8.658965e-05 -0.0012949957 -0.0018664837 -0.0005731861 -0.0006851721
-0.000797479 0.004068217 -0.0009198153 0.005000238 0.0008997867 0.0018425849 -0.00056712935 -0.0027089524
0.0029985413 0.003950279 0.002689092 0.0075776437 -0.0006003998 0.0007964691 0.00080219336 0.0053416803
0.0022903187 -0.0017795305 0.0008789245 -0.0012657957 0.0019215912 -0.00074035063 0.0012950132 -0.0013525424
0.0024930174 0.0006654343 0.0006779668 4.4105764e-06 0.0003453646 0.0010529654 0.0020516578 -0.0013553232
-0.0014308516 -0.00034098787 0.0054331585 -0.00026888665 -0.0015887402 0.004634376 0.0043022363 0.0025424494
00000000: 3946 d937 b86e c2ba be0c c2b9 7797 b538
00000010: d8bc a9ba cda4 f4ba de41 16ba 1f9d 33ba
00000020: e90d 51ba ad4e 853b c31f 71ba 09d9 a33b
00000030: aadf 6b3a e482 f13a 68ab 14ba ae88 31bb
00000040: 2d83 443b 5871 813b 7a3b 303b e24d f83b
00000050: 2664 1dba 23ca 503a 494a 523a 4309 af3b
00000060: 2c19 163b 233f e9ba a067 663a 0ee9 a5ba
00000070: e7dd fb3a 1714 42ba 6fbd a93a cb47 b1ba
00000080: e461 233b 8a70 2e3a 95b9 313a 90fe 9336
00000090: 0d12 b539 a803 8a3a 1b75 063b 1aa5 b1ba
000000a0: 6a8b bbba 9ec6 b2b9 a308 b23b 5bf9 8cb9
000000b0: 463d d0ba f7db 973b c6f9 8c3b 399f 263b

running_mean f4 [48]
0.14058569 0.535371 0.01960727 -0.04498164 0.1703805 0.03057571 0.548032 0.14116398
0.12518165 -0.2534396 0.22167353 -0.3401221 0.06495957 0.075405866 0.064040914 0.24129838
0.009052934 -0.12714835 0.0020414197 -0.6211419 0.1328761 -0.22837614 0.051115207 -0.0944345
-0.029810984 0.20864752 0.06768274 0.2780286 -0.15357189 0.3733564 0.12194592 0.10860358
-0.16952316 0.06304244 -0.024216155 -0.09177442 0.19507544 0.25402257 -0.19135337 0.20478128
0.3608785 0.050821923 -0.41437554 0.2713724 0.28638834 -0.28619358 -0.14515848 -0.12306242
00000000: b2f5 0f3e 130e 093f 6d9f a03c ab3e 38bd
00000010: 3a78 2e3e e979 fa3c d34b 0c3f 4a8d 103e
00000020: 9e2f 003e d6c2 81be 63fe 623e 7c24 aebe
00000030: 8609 853d 646e 9a3d e227 833d ec16 773e
00000040: c252 143c 2d33 02be 57c9 053b 2803 1fbf
00000050: ac10 083e 6fdb 69be 2e5e 513d e066 c1bd
00000060: 2a36 f4bc b2a7 553e 409d 8a3d c459 8e3e
00000070: f341 1dbe 9228 bf3e c8be f93d 8e6b de3d
00000080: 7b97 2dbe 651c 813d f560 c6bc 3af4 bbbd
00000090: dbc1 473e 3f0f 823e 23f2 43be 2fb2 513e
000000a0: 11c5 b83e a62a 503d 0829 d4be 53f1 8a3e
000000b0: 7ea1 923e f787 92be 6da4 14be 2608 fcbd

running_var f4 [48]
0.11327772 0.11815308 0.14430457 0.11971843 0.09379065 0.13589306 0.16574998 0.11992168
0.1253917 0.10279613 0.08422045 0.118408196 0.08068252 0.10059745 0.08533427 0.17337722
0.1274873 0.08913502 0.1504986 0.112800986 0.11269505 0.10143967 0.12518613 0.121456206
0.11320988 0.08570712 0.14886326 0.17867646 0.087065876 0.1058104 0.08198224 0.08800316
0.11683115 0.09893359 0.10389304 0.0796035 0.14100662 0.11056808 0.15164779 0.14433013
0.12328439 0.14675146 0.12667413 0.1061441 0.16860309 0.08310553 0.23004684 0.08633131
00000000: 26fe e73d 3efa f13d 94c4 133e f02e f53d
00000010: 5015 c03d 8d27 0b3e 5dba 293e 7f99 f53d
00000020: af66 003e c786 d23d c57b ac3d ff7f f23d
00000030: e13c a53d 0906 ce3d bcc3 ae3d cc89 313e
00000040: 088c 023e 6c8c b63d 4e1c 1a3e 3404 e73d
00000050: aacc e63d 9abf cf3d cb30 003e 08be f83d
00000060: 95da e73d 3787 af3d 9c6f 183e f6f6 363e
00000070: 984f b23d 1fb3 d83d 4ee6 a73d 003b b43d
00000080: 2c45 ef3d b29d ca3d e0c5 d43d 2907 a33d
00000090: 0a64 103e 8471 e23d 8f49 1b3e 47cb 133e
000000a0: 877c fc3d 0446 163e ddb6 013e 1462 d93d
000000b0: 4aa6 2c3e 3b33 aa3d 6691 6b3e 78ce b03d

weight f4 [6, 4800]
-0.014547881 -0.009943428 -0.002115021 -0.0048897234 0.006900957 -0.014628214 -0.0123007465 -0.013352794
-0.0040311525 -0.0016974517 0.00839928 -0.016124438 -0.0059520663 -0.019554006 -0.002253397 -0.01642923
0.0026024443 0.0020798463 0.0058641904 0.0038322955 -0.013546221 -0.008533729 0.004055367 0.006167739
0.009294208 0.006484344 0.0078065316 0.004912698 -0.0046894727 -0.011746541 -0.010892095 -0.016435169
-0.00034732674 -0.012435927 0.0012835762 -0.01207117 0.008705333 -0.0067458744 0.012773616 -0.011198285
0.0034532114 -0.0013307303 0.0052529885 -0.009573116 0.0058992184 -0.010423807 -0.007824763 -0.0021779041
-0.0051398226 0.012911572 -0.0072288173 -0.002498638 0.010844177 0.009317099 0.008696584 -0.005047205
-0.00042913755 0.00987138 0.00054623256 0.012506854 0.011923555 -0.0023393484 0.010235345 -0.005422444
0.014825024 0.017005205 -0.005842467 -0.00021944904 -0.016750656 0.0054976735 0.003947549 0.013648354
-0.0030151356 -0.010848649 0.0099356035 -0.011384758 -0.012958344 0.0030624538 0.0054364856 -0.0095265135
-0.012414569 0.013434227 0.011629235 0.009656076 0.013372595 0.007959045 0.006155306 -0.0018970235
-0.011063911 -0.0052096825 0.011864704 -0.009588326 0.0031234592 -0.0009285008 0.0028234627 -0.014874305
-0.0057686092 0.0047363304 -0.0049743275 0.0039496627 0.002547901 0.011874663 0.0033010647 -0.010609233
-0.0026787955 -0.014943252 0.0021190853 -0.00029839377 -0.006938508 -0.009200716 0.0068838303 0.0025901687
0.0044344 -0.009265648 -0.009223761 -0.007826537 0.008632542 -0.0005447285 -0.01215865 -0.010296288
-0.0016891053 0.008465183 0.0074063228 0.0059715514 -0.011497021 0.007141094 -0.010284352 -0.009864114
0.011669478 0.0032555852 -0.0050584455 0.00058849435 -0.0056014615 -0.005924 -0.008785059 -0.00034165982
-0.011556316 -0.012662168 -0.0077363043 -0.013722084 -0.006299888 -0.0063878074 0.003035405 -0.012565365
0.0041776816 -0.002449088 -0.007612823 -0.010065601 0.0067560137 -0.0049079224 -0.016279954 0.00051168725
-0.011448467 0.010030687 -0.013538207 -0.007094624 0.011561821 -0.0042420793 0.0019224248 0.006802581
0.009569931 -0.0042080143 0.0035386556 -0.0047383993 -0.011824104 -0.009471323 -0.005046129 -0.0133556435
0.00777196 0.012895898 0.0042440128 0.0057057356 -0.0042228997 -0.011411138 0.0010878135 -0.008205001
0.00244061 -0.008183995 -0.010555573 -0.0010015082 0.00739542 -0.015868647 -0.00020569286 -0.0038574499
0.00030026192 0.012705527 0.012949568 -0.009989313 0.0020126887 0.0057846345 0.0073491493 0.0008559838
0.016900772 -0.010047829 0.012813974 -0.00092006766 0.01477994 -0.014431529 -0.003518229 0.0018274881
0.012405792 0.014177699 -0.012839941 -0.0052824784 0.008304847 0.0012553988 -0.014175296 0.003513969
-0.00981597 -0.0060119433 -0.008576192 0.0034852212 -0.01182489 -0.0009758574 -0.0119701885 0.010109151
-0.0060811276 -0.0029517675 -0.0056171967 -0.008339877 0.011440334 -0.018835124 -0.0038045568 -0.0136049865
0.0049174973 -0.009733972 -0.007811105 0.000109342254 -0.0048306333 0.0016285819 -0.0049769008 -0.020109853
-0.00084649236 -0.00692167 -0.0053794747 -0.016898703 -0.010601312 -0.009610482 -0.0063545085 -0.0059524574
-0.028402362 -0.017267333 -0.012701707 -0.0034490637 -0.003336626 0.0021334318 0.009517414 0.0152694145
-0.00842181 0.0064863297 -0.0030407736 -0.01855445 -0.011129594 -0.010612579 -0.013712875 0.0035458684
00000000: 3c5a 6ebc c3e9 22bc 2a9c 0abb f939 a0bb
00000010: 6c21 e23b 2dab 6fbc 1289 49bc adc5 5abc
00000020: c217 84bb 077d deba 229d 093c 6617 84bc
00000030: 8d09 c3bb b92f a0bc baad 13bb 9896 86bc
00000040: c58d 2a3b 084e 083b 6528 c03b 4027 7b3b
00000050: f8f0 5dbc 0ed1 0bbc e2e2 843b bf1a ca3b
00000060: bc46 183c 9f7a d43b efcd ff3b b3fa a03b
00000070: 26aa 99bb 9074 40bc c274 32bc 0ca3 86bc
00000080: 6819 b6b9 0fc0 4bbc ac3d a83a 28c6 45bc
00000090: d0a0 0e3c 7f0c ddbb 6e48 513c 0379 37bc
000000a0: 464f 623b e66b aeba 4321 ac3b 8fd8 1cbc
000000b0: 3b4e c13b 9ec8 2abc 6f33 00bc 2bbb 0ebb
000000c0: f56b a8bb 0f8b 533c b7df ecbb 30c0 23bb
000000d0: c6ab 313c bfa6 183c 1e7c 0e3c 0663 a5bb
000000e0: defd e0b9 92bb 213c 0c31 0f3a 8ce9 4c3c
000000f0: 045b 433c c14f 19bb 26b2 273c c2ae b1bb
00000100: a8e4 723c 804e 8b3c 2a72 bfbb e71b 66b9
00000110: ac38 89bc d425 b43b 715a 813b 599d 5f3c
00000120: 9599 45bb 88be 31bc f1c8 223c 2387 3abc
00000130: 3c4f 54bc 73b3 483b 8c24 b23b 1815 1cbc
00000140: 7a66 4bbc 3b1b 5c3c 8c88 3e3c 8534 1e3c
00000150: bb18 5b3c a766 023c 73b2 c93b 8ca5 f8ba
00000160: 6845 35bc fcb5 aabb 2d64 423c 5b18 1dbc
00000170: f3b2 4c3b a266 73ba d809 393b 5bb3 73bc
00000180: 9a06 bdbb 3833 9b3b afff a2bb 2c6c 813b
00000190: affa 263b f28d 423c ad56 583b 59d2 2dbc
000001a0: bb8e 2fbb 8bd4 74bc 5ae0 0a3b bc71 9cb9
000001b0: 6c5c e3bb 9abe 16bc c191 e13b d2bf 293b
000001c0: 714e 913b f2ce 17bc 421f 17bc e03a 00bc
000001d0: 816f 0d3c 1ccc 0eba 1335 47bc c3b1 28bc
000001e0: f864 ddba 8db1 0a3c bdb0 f23b 01ad c33b
000001f0: 005e 3cbc d7ff e93b b37f 28bc 189d 21bc
00000200: 5731 3f3c a85b 553b 51c1 a5bb 3045 1a3a
00000210: 778c b7bb 1d1e c2bb 35ef 0fbc ce20 b3b9
00000220: b456 3dbc fb74 4fbc d380 fdbb 98d2 60bc
00000230: 4a6f cebb d050 d1bb a5ed 463b f6de 4dbc
00000240: efe4 883b e180 20bb fd74 f9bb 31ea 24bc
00000250: 8d61 dd3b a3d2 a0bb 8a5d 85bc c022 063a
00000260: 5a92 3bbc c057 243c 5bcf 5dbc 057a e8bb
00000270: cb6d 3d3c 2401 8bbb dff9 fb3a 2fe8 de3b
00000280: 33cb 1c3c 62e3 89bb cae8 673b 9344 9bbb
00000290: e3b9 41bc 9c2d 1bbc 005a a5bb a1d1 5abc
000002a0: edab fe3b 5149 533c 5c11 8b3b 2ef7 ba3b
000002b0: 4060 8abb c8f5 3abc f794 8e3a 456e 06bc
000002c0: a4f2 1f3b 2a16 06bc 48f1 2cbc 0a45 83ba
000002d0: 4855 f23b f7fe 81bc 42af 57b9 45cd 7cbb
000002e0: 796c 9d39 d82a 503c 6d2a 543c 37aa 23bc
000002f0: 50e7 033b 088d bd3b 22d1 f03b 1a64 603a
00000300: 7d73 8a3c a69f 24bc b4f1 513c b230 71ba
00000310: 9027 723c 3872 6cbc 1692 66bb 5388 ef3a
00000320: aa41 4b3c 9449 683c 9e5e 52bc a418 adbb
00000330: 0e11 083c 328c a43a 803f 68bc 9e4a 663b
00000340: 2ad3 20bc d6ff c4bb 2883 0cbc 4f68 643b
00000350: 2fbd 41bc aed0 7fba 9c1e 44bc daa0 253c
00000360: 3244 c7bb 7172 41bb 7610 b8bb fba3 08bc
00000370: 3d70 3b3c 1e4c 9abc df55 79bb 73e7 5ebc
00000380: f522 a13b 3d7b 1fbc 4cf4 ffbb ad4e e538
00000390: 4a4a 9ebb 2476 d53a 4515 a3bb 6bbd a4bc
000003a0: 24e7 5dba 2dcf e2bb 4e46 b0bb 266f 8abc
000003b0: 20b1 2dbc 4875 1dbc 7b39 d0bb d50c c3bb
000003c0: 12ac e8bc 3974 8dbc d21a 50bc b009 62bb
000003d0: 4cab 5abb 0cd1 0b3b edee 1b3c 912c 7a3c
000003e0: a2fb 09bc 478b d43b b747 47bb 80ff 97bc
000003f0: e758 36bc 62e0 2dbc f7ab 60bc cd61 683b

bias f4 [6]
-0.0077368817 -0.0025899694 -0.008284118 -0.0069608847 -0.010373823 0.000367062
00000000: ab85 fdbb 7abc 29bb 1cba 07bc 2218 e4bb
00000010: f8f6 29bc 3a72 c039
