data/model.pt (torch, 289867 bytes, 26 tensors)

weight f4 [12, 3, 5, 5]
0	0x3c6da4f6	0.014504662
1	0xbd2e4fc4	-0.04255654
2	0xbc76f4a2	-0.015072973
3	0xbc9fb29e	-0.019494351
4	0x3d00df08	0.0314627
5	0x3cdc90e9	0.026924567
6	0xbd0be31e	-0.034152143
7	0xbdc4dbb3	-0.09612217
8	0x3dbe26b9	0.092847295
9	0xbde0e434	-0.10981026
10	0xbcc07112	-0.023491416
11	0xbd2169b6	-0.039407454
12	0xbd1103c1	-0.03540397
13	0x3dc897ff	0.09794616
14	0x3d0436ba	0.032278754
15	0xbd9c7bb8	-0.07640785
16	0x3db2e66d	0.087353565
17	0xbd54d7d6	-0.05196365
18	0xbde56285	-0.11200432
19	0xbda630ce	-0.081147775
20	0x3de397e7	0.111129574
21	0xbd01e911	-0.03171641
22	0xbb426a25	-0.0029665318
23	0xbdddd3d1	-0.108314164
24	0xbde36320	-0.11102891
25	0x3d8ccc5c	0.06874916
26	0xbc72e608	-0.014825352
27	0x3d4a0761	0.049323443
28	0xbb368505	-0.0027850282
29	0x3dccd807	0.100021414
30	0xbda398fe	-0.07988165
31	0xbce010b6	-0.027351718
32	0x3d6e8c4e	0.058239274
33	0x3cd3f981	0.025875809
34	0xbcd391e5	-0.025826404
35	0x3dcb60d7	0.0993058
36	0x3d9c80a7	0.07641726
37	0xbd5b5c45	-0.053554792
38	0x3dcdc8d1	0.10048068
39	0xbcb62beb	-0.022237739
40	0x3ddf2168	0.108950436
41	0xbc5074f7	-0.012723199
42	0x3d891350	0.06693137
43	0xbdd9b5ff	-0.10630416
44	0x3db2a0e5	0.087220944
45	0xbc57c96e	-0.013170583
46	0xbcc85bae	-0.024457779
47	0x3d26b221	0.04069722
48	0x3c5c9674	0.013463605
49	0x3cb98a36	0.022648912
50	0xbd0d149c	-0.034443483
51	0xbdb69e6e	-0.08916937
52	0x3c91abc7	0.017782105
53	0x3c04d72c	0.008107942
54	0x3dc2a1bc	0.09503505
55	0x3de5dc25	0.1122363
56	0xbd7e6ae6	-0.062113665
57	0xbddfe7cb	-0.10932883
58	0x3de50a3b	0.11183592
59	0xbdce5b33	-0.100759886
60	0x3d6ff3d6	0.05858215
61	0x3dcd33ff	0.10019683
62	0xbdad4478	-0.08460325
63	0xbcf9c239	-0.03048812
64	0xbbd6e099	-0.006557536
65	0x3de1c79b	0.110244
66	0xbc0c0461	-0.008545966
67	0x3ddfedcc	0.10934028
68	0x3da8aed9	0.082364745
69	0x3cfc0802	0.030765537
70	0x3dc4ffed	0.096191265
71	0x3d47b553	0.04875691
72	0xbdcfdeab	-0.101498924
73	0x3ccd2152	0.025040302
74	0x3d9c8a1b	0.07643529
75	0x3a676176	0.00088264735
76	0xbd369bfa	-0.044582345
77	0xbd4bc37a	-0.049746968
78	0x3dae56ba	0.085126355
79	0xbd2c0765	-0.04199924
80	0x3c8bbd43	0.01705802
81	0x3d22aa7d	0.03971337
82	0xbd9c5d41	-0.07634974
83	0x3dd8504d	0.10562191
84	0x3da4597c	0.0802488
85	0xbd43f0f6	-0.04783722
86	0xbd788b47	-0.0606797
87	0x3d061598	0.032735437
88	0x3ceb5ba1	0.028730216
89	0x3d39124a	0.045183457
90	0x3bdc6979	0.0067264405
91	0x3de543b7	0.11194556
92	0xbdd094a4	-0.10184601
93	0xbdbc14e2	-0.091836706
94	0x3c56d5f9	0.0131125385
95	0xbdcf3304	-0.10117152
96	0xbd969f9d	-0.073546626
97	0x3dc27b2b	0.09496149
98	0xbd132952	-0.035928078
99	0xbcc92c79	-0.024557339
100	0x3da1562f	0.07877766
101	0x3cae6571	0.021288605
102	0x3d4664a4	0.048435822
103	0xbc1aa7de	-0.009439437
104	0xbda6aa5b	-0.081379615
105	0x3d43c862	0.04779852
106	0xbd377b77	-0.04479548
107	0x3d875cc6	0.06609492
108	0x3d8c65c9	0.068553515
109	0x3dba5f80	0.091002464
110	0xbd5e2c2f	-0.054241356
111	0xbdaf286c	-0.08552632
112	0xbc08b0ed	-0.008342964
113	0xbd3bc708	-0.045844108
114	0xbdcf6b50	-0.1012789
115	0x3d5721f9	0.052522633
116	0x3dd29861	0.1028297
117	0x3c63a15a	0.01389345
118	0x3d492ff8	0.049118012
119	0x3d85df89	0.065367766
120	0x3d84f4ad	0.06491981
121	0x3dbace73	0.09121408
122	0xbc26a5d3	-0.0101713715
123	0x3cf98cba	0.030462611
124	0xbd784b0c	-0.060618445
125	0xbc379588	-0.011205085
126	0x3c01f90b	0.007932912
127	0xbde79d05	-0.11309246
128	0xbde7705c	-0.11300728
129	0xbd1bb288	-0.038012058
130	0xbdd5a71b	-0.104322635
131	0xbc542f68	-0.012950756
132	0xbb91c3fd	-0.0044484125
133	0x3d27ffed	0.041015554
134	0xbd42e320	-0.047579885
135	0xbbe023ac	-0.00684019
136	0xbca03ac3	-0.01955927
137	0xbdc7b5bb	-0.09751459
138	0xbd4100d6	-0.047119938
139	0xbdd49836	-0.103805944
140	0xbd9988b6	-0.07496779
141	0xbd1cd1ff	-0.038286205
142	0xbdac7090	-0.08419907
143	0x3cfc7cd0	0.030821234
144	0xbbdaed72	-0.0066811377
145	0x3ce2ace3	0.02767033
146	0x3ddea1ee	0.108707294
147	0x3b1a2c7d	0.0023525052
148	0x3dc85c2c	0.097832054
149	0xbda98e47	-0.082790904
150	0xbdba7d0a	-0.091058806
151	0x3de9940e	0.11405192
152	0x3c3c6ef8	0.011501066
153	0xbce7dc44	-0.028303273
154	0xbce1c2d7	-0.027558727
155	0xbde8df0b	-0.11370667
156	0xbdad797d	-0.08470438
157	0xbb0a72c6	-0.002112554
158	0x3bd0f4a5	0.00637682
159	0xbd3ec683	-0.046576034
160	0xbcfd0b52	-0.030889187
161	0xbd565403	-0.052326214
162	0xbddb6b73	-0.10713854
163	0x3d47600f	0.048675593
164	0x3dd88769	0.105727024
165	0xbdd3d8db	-0.10344096
166	0xbc74b22d	-0.014935059
167	0xbdeac45d	-0.114632346
168	0x3c1c00e8	0.0095217
169	0xbd9cb331	-0.076513655
170	0x3bf1d547	0.007380161
171	0xbdaa7ca1	-0.08324552
172	0xbd62e25b	-0.05539165
173	0x3c855697	0.01627664
174	0x3de2aaba	0.1106772
175	0xbc783b6b	-0.015150885
176	0x3dcdf029	0.100555725
177	0x3d969836	0.07353251
178	0xbd40389b	-0.046928983
179	0x3c88edae	0.016714897
180	0x3dda6cc4	0.10665277
181	0x3d480b47	0.04883888
182	0xbde37bc9	-0.111075945
183	0xbd19b988	-0.037530452
184	0xbd8ea584	-0.06965163
185	0x3c02632b	0.007958214
186	0xbd752dc9	-0.059858117
187	0x3de77fb8	0.11303657
188	0xbda249f5	-0.079242624
189	0xbd6e5133	-0.058182906
190	0x3de53125	0.11191014
191	0x3c352fca	0.011058757
192	0x3c932e76	0.01796649
193	0x3a507505	0.00079520076
194	0x3b994e70	0.00467854
195	0x3daee275	0.08539287
196	0x3ca831bb	0.020531526
197	0xbb025e8d	-0.0019892782
198	0x3d5e85f2	0.05432696
199	0x3c9cb8ce	0.01913109
200	0xbdb52c96	-0.08846395
201	0xbd369a28	-0.04458061
202	0x3d465d8e	0.048429064
203	0x3d252ce2	0.040326007
204	0x3dad627c	0.0846605
205	0xbd5fb25c	-0.054613456
206	0x3d3164a9	0.043308888
207	0x3dba4985	0.09096054
208	0xbccdd18b	-0.025124332
209	0x3cd66ed0	0.026175886
210	0x3dec7421	0.11545587
211	0x3dd14ed2	0.10220112
212	0xbdd8a80e	-0.10578929
213	0x3d382c3d	0.044964064
214	0x3de275bd	0.11057613
215	0xbdcd8538	-0.10035175
216	0x3d1743f4	0.03693004
217	0x3d968628	0.07349807
218	0xbc41682d	-0.011804623
219	0x3d4c02ce	0.049807362
220	0xbd5512c9	-0.052019868
221	0x3d9bc557	0.07605999
222	0xbd224523	-0.039616715
223	0x3d24eb7f	0.04026365
224	0xbd3cc15f	-0.04608285
225	0x3b42eeae	0.0029744315
226	0xbd01f8d7	-0.031731453
227	0x3d83d3c4	0.064368755
228	0x3cf804f2	0.030275796
229	0xbd9afbbb	-0.07567545
230	0x3db37b5f	0.087637655
231	0x3da6e990	0.08150017
232	0x3d93cc52	0.072167054
233	0xbc788890	-0.015169278
234	0xbdef27e2	-0.11677529
235	0xbd30c69c	-0.04315816
236	0xbc93a765	-0.018024156
237	0xbc1e946c	-0.009678941
238	0x3c9b492c	0.01895579
239	0xbd034cca	-0.032055654
240	0x3c1ad215	0.0094495015
241	0xbd503571	-0.050832216
242	0xbc6c544c	-0.014424395
243	0xbd7ac8b6	-0.06122657
244	0xbda73f84	-0.081664115
245	0xbdda1fb1	-0.10650576
246	0x3dddaff1	0.10824574
247	0x3de4c2c5	0.11169962
248	0xbce167e1	-0.027515354
249	0xbdbea10f	-0.09308063
250	0xbd3718f8	-0.044701546
251	0x3df26333	0.11835327
252	0xbdd9c8eb	-0.10634025
253	0xba8aa571	-0.001057787
254	0xbd816b81	-0.06319333
255	0x3dee2d71	0.11629761

bias f4 [12]
0	0x3de67eb4	0.112546355
1	0xbda273b7	-0.07932227
2	0xbd5e9ef0	-0.054350793
3	0xbdada78e	-0.08479224
4	0xbd8e49a9	-0.06947643
5	0x3ce163aa	0.027513344
6	0xbd8dae0d	-0.06917963
7	0xbd72e537	-0.059300628
8	0xbdc3349e	-0.0953152
9	0x3d5d6a43	0.054056417
10	0x3d9b3190	0.07577813
11	0x3bf70816	0.0075388057

weight f4 [12]
0	0x3f813a8e	1.0095994
1	0x3f80c657	1.0060529
2	0x3f809b09	1.0047313
3	0x3f80f3f6	1.0074451
4	0x3f80ca3f	1.0061721
5	0x3f819bf6	1.012572
6	0x3f809f8e	1.0048692
7	0x3f80ecac	1.0072227
8	0x3f80809f	1.0039252
9	0x3f801f07	1.0009469
10	0x3f810ecb	1.008264
11	0x3f80b8e0	1.0056419

bias f4 [12]
0	0x3b495581	0.003072113
1	0xb888a0e5	-6.514954e-05
2	0x3b24d905	0.0025153768
3	0x3ab84c2e	0.0014060789
4	0x3aca9271	0.001545502
5	0x39f3ce11	0.00046502103
6	0x3ac48ae9	0.0014995012
7	0x3b1a5d38	0.0023554098
8	0x39bc1159	0.0003587108
9	0x3b08353d	0.0020783686
10	0x3b344512	0.002750699
11	0x3b86ed33	0.004117632

running_mean f4 [12]
0	0x3e2760a3	0.16345458
1	0xbe622c29	-0.22087158
2	0xbd9cd386	-0.076575324
3	0xbe996e9e	-0.29967207
4	0xbe899338	-0.26870131
5	0x3bf2f670	0.0074146315
6	0xbeec5bf3	-0.46163902
7	0xbeac4ca8	-0.33652234
8	0x3d287267	0.041124728
9	0x3f02b286	0.51053655
10	0xbe22f775	-0.1591471
11	0x3ea252b7	0.3170373

running_var f4 [12]
0	0x3cc348a0	0.023838341
1	0x3ca91d41	0.020643832
2	0x3ca83fd6	0.020538252
3	0x3c84bc7c	0.016203158
4	0x3cd35d64	0.025801368
5	0x3bd48009	0.0064849895
6	0x3d467d6a	0.048459448
7	0x3d43eb33	0.047831725
8	0x3c6b07a8	0.014345087
9	0x3d687786	0.05675461
10	0x3c947a2f	0.018124668
11	0x3d1af449	0.037830625

weight f4 [12, 12, 5, 5]
0	0x3d1338bc	0.035942778
1	0xbbe1cf59	-0.006891173
2	0x3d238579	0.03992221
3	0xbcbd97df	-0.023143707
4	0x3d2b6979	0.041848633
5	0xbbdb900b	-0.006700521
6	0x3d6d226c	0.057894155
7	0x3d5d5372	0.054034658
8	0xbcf6ffc6	-0.03015126
9	0xbd40583f	-0.046959158
10	0x3cb6237e	0.02223372
11	0x3b0a27ae	0.002108078
12	0x3d043548	0.032277375
13	0x3c49dc11	0.012320534
14	0x3c443331	0.011975096
15	0xba68b8c6	-0.0008877631
16	0x3d76ae59	0.060224865
17	0xba925a79	-0.0011165879
18	0xbd428897	-0.047493543
19	0xbb36a13a	-0.0027867095
20	0x3d503038	0.050827235
21	0x3a8da716	0.0010807242
22	0xbcdfa442	-0.027300004
23	0x3cc28b2d	0.023748005
24	0xbcca5031	-0.024696441
25	0x39853a69	0.00025411256
26	0x3c79787c	0.01522648
27	0xbb3237e6	-0.0027193963
28	0xbce2685b	-0.027637651
29	0xbd1cb802	-0.03826142
30	0xbc1c32cb	-0.009533594
31	0x3ccd43e8	0.025056794
32	0xbd30604a	-0.04306058
33	0xbcd6946e	-0.026193824
34	0xbd2c2e84	-0.04203655
35	0xbc38ca29	-0.0112786675
36	0x3d37f273	0.044908952
37	0xbd2963c7	-0.04135492
38	0x3d626426	0.05527129
39	0x3c403e1e	0.01173356
40	0xbd195fbd	-0.03744482
41	0x3d749ad4	0.059717968
42	0xbc584b0a	-0.013201484
43	0xbc9a949b	-0.018869689
44	0xbd26ac72	-0.0406918
45	0xbc1fe21b	-0.009758498
46	0x3d1bcd38	0.03803751
47	0x3cc454d5	0.023966232
48	0xbc98348d	-0.018579746
49	0x3c841d12	0.016127143
50	0xbc9f4b41	-0.019445064
51	0x3b816935	0.0039493092
52	0x3cefd543	0.029276496
53	0x3c0fa304	0.008766893
54	0x3cb27f4e	0.02178922
55	0x3cdf4831	0.027256103
56	0x3d126b77	0.035747018
57	0xbbd279ee	-0.0064232266
58	0x3c14447d	0.009049532
59	0xbcaee9f3	-0.02135179
60	0xbc702d0e	-0.014659179
61	0xbc8968b2	-0.016773555
62	0x3c1c09dc	0.009523835
63	0x3c479f54	0.012183983
64	0xbd58ca0d	-0.052927066
65	0xbd34fc23	-0.04418577
66	0x3d528562	0.051396735
67	0x3c8780eb	0.016540965
68	0x3c32aec5	0.010905926
69	0xbcbfe7c7	-0.02342595
70	0x3cae8518	0.021303698
71	0x3cdb2906	0.02675296
72	0xbd5ae82a	-0.053444065
73	0xbc442284	-0.01197112
74	0xbd0fc4cf	-0.0350998
75	0x3d34d7c9	0.0441511
76	0x3d32a58d	0.043614913
77	0xbd24a07d	-0.040192116
78	0x3ca75d65	0.020430276
79	0x3d6f3e7e	0.058409207
80	0x3cc86f2e	0.024467077
81	0x3d50db20	0.050990224
82	0xbcee973f	-0.029124854
83	0xbd548c43	-0.051891576
84	0x3d5e0cb9	0.054211352
85	0x3cdb060d	0.026736284
86	0xbca6f9d8	-0.020382807
87	0xbcd398fb	-0.025829783
88	0x3d66f5ec	0.056386873
89	0x3c2d6060	0.01058206
90	0x392e2ec3	0.00016611353
91	0xbd517507	-0.051136997
92	0x3d6e43d8	0.05817017
93	0xbcec45b0	-0.028841823
94	0xbd0197e2	-0.031638987
95	0xbc21bb55	-0.009871324
96	0xbd2b9523	-0.041890275
97	0xbad2c566	-0.0016080558
98	0xbc8c813e	-0.017151471
99	0xbcccd48f	-0.0250037
100	0x3d3e3671	0.046438638
101	0xbd046d8d	-0.03233104
102	0xbc7c2e78	-0.015391938
103	0x3c8cd3f4	0.01719091
104	0x3a4bb824	0.00077712745
105	0xbc81522d	-0.015786255
106	0x3c548fad	0.012973708
107	0xbd169d2d	-0.03677099
108	0xbd2b33af	-0.041797336
109	0xba93ba21	-0.0011270681
110	0x3d269348	0.040667802
111	0xbc55887a	-0.013033027
112	0xbd35b612	-0.04436309
113	0x3cdacbb5	0.026708463
114	0xbd6437a4	-0.055717126
115	0xbb1f3280	-0.0024291575
116	0x3d41d0a0	0.0473181
117	0xbcbe74b8	-0.023249015
118	0xbc9a1b7f	-0.01881194
119	0x3c357ac1	0.01107663
120	0x3cba1bf4	0.022718407
121	0xbb048eaa	-0.0020226636
122	0xbd4eef8b	-0.050521415
123	0xbc86ec65	-0.016470144
124	0x3c1efbfd	0.009703633
125	0x3d5646be	0.05231356
126	0xbcce8248	-0.025208607
127	0xbce9ebbd	-0.028554792
128	0xbd061f26	-0.03274455
129	0xbd59965a	-0.053121902
130	0x3d3c3026	0.045944355
131	0xbcd8ceb8	-0.026465759
132	0x3cf6533a	0.030068982
133	0x3ba6b52e	0.0050875163
134	0xbd5485c7	-0.051885393
135	0x3d66aada	0.05631528
136	0x3c5847a2	0.013200672
137	0x3cdd517f	0.0270164
138	0xbc2e265e	-0.010629265
139	0x3c5c5f71	0.013450489
140	0x3d6c239e	0.057651155
141	0xbd1f1369	-0.03883687
142	0xbcb09cbe	-0.021559115
143	0x3d48b58f	0.049001273
144	0x3d59d741	0.053183798
145	0x39e14a88	0.00042970874
146	0x3bacaa12	0.0052692974
147	0xbc3b0a85	-0.011416082
148	0x3d34e72c	0.044165775
149	0xbcc2ca24	-0.023778029
150	0x3cda6db1	0.026663633
151	0xbbb82e50	-0.0056207553
152	0x3bcbe95a	0.006222886
153	0xbc107e7a	-0.008819217
154	0x3d239b7a	0.039943196
155	0xbc0b502a	-0.008502999
156	0x3d15ac24	0.03654112
157	0x3c9ddc30	0.019270033
158	0xbccef7d6	-0.025264662
159	0x3bdb772f	0.0066975574
160	0x3d015dcd	0.031583596
161	0x3c665c41	0.014060081
162	0xbd29dc3f	-0.04146981
163	0xbd3a0b96	-0.045421205
164	0xbd033559	-0.0320333
165	0xbc30a29c	-0.010780957
166	0x3d14f09b	0.03636227
167	0xbcabe279	-0.020982014
168	0xbd3e0b41	-0.04639745
169	0xbc89791c	-0.016781382
170	0xbd201126	-0.039078854
171	0x3abc7acc	0.0014379858
172	0x3d1f197d	0.038842667
173	0x3b18e979	0.002333252
174	0xbc43d40c	-0.011952411
175	0x3ccd464f	0.02505794
176	0x3d484031	0.048889343
177	0xbd4cb183	-0.049973976
178	0x3cd3a38a	0.025834817
179	0x3cbaefbd	0.022819394
180	0xbd28886e	-0.041145734
181	0x3c1fe16b	0.009758334
182	0xbd6cfa0d	-0.057855655
183	0xbd79023a	-0.06079314
184	0xbd4d8ff2	-0.050186105
185	0xbc871ccc	-0.016493224
186	0xbcb384c8	-0.021913901
187	0x3d0b66ae	0.03403347
188	0xbb24d482	-0.0025151079
189	0x3cb98f40	0.022651315
190	0x3bcfbee5	0.006339895
191	0x3d5e1beb	0.054225843
192	0x3d02180d	0.031761218
193	0xbb615780	-0.003438443
194	0xbd25294d	-0.04032259
195	0xbc00a264	-0.007851217
196	0x3c08c52d	0.008347792
197	0x3d1669ee	0.036722116
198	0x3b0fb480	0.0021927655
199	0x3ce2e7f6	0.027698498
200	0xbd1e1c1e	-0.038601033
201	0xbc371a39	-0.011175686
202	0xbaf9416e	-0.0019016692
203	0x3d4eb34b	0.050463956
204	0xbc7999af	-0.015234395
205	0xbd5239fd	-0.051324833
206	0xbd3357b5	-0.043784816
207	0x3d3c7be0	0.046016574
208	0x394e6f73	0.00019687209
209	0x3c1fc00d	0.009750378
210	0x3d6bceb7	0.057570186
211	0x3cafc859	0.021457838
212	0x3d54d5fa	0.051961876
213	0x3d63d176	0.05561968
214	0xbd090539	-0.033452246
215	0xbba25627	-0.004954118
216	0x3d75a414	0.05997093
217	0xbc531ebc	-0.012885746
218	0x3ccdcf1e	0.025123175
219	0xbd1092bb	-0.035296183
220	0x3bf9900f	0.00761605
221	0x3c246a2c	0.010035079
222	0xbb90f6da	-0.0044239582
223	0x3c778142	0.015106501
224	0x3b12e149	0.0022412112
225	0x3d55125e	0.05201947
226	0xbd04d2b8	-0.03242752
227	0xbab87209	-0.0014072071
228	0xbcdee7a1	-0.027210059
229	0xbcc9a792	-0.024616037
230	0x3d1dcf62	0.038527854
231	0xbc818077	-0.015808327
232	0xbd16478f	-0.036689337
233	0x3c5885dd	0.013215509
234	0xbd294f74	-0.041335538
235	0x3d42642c	0.047458813
236	0xbcd5a973	-0.026081776
237	0xbd404981	-0.0469451
238	0x3cbf18b7	0.023327215
239	0x3d651418	0.055927366
240	0xbc8a09aa	-0.016850311
241	0xbc31632c	-0.010826867
242	0xbd4b7d72	-0.04968018
243	0xbd4c1646	-0.04982593
244	0xbcad2452	-0.021135483
245	0x3c814e22	0.015784327
246	0x3bd42a94	0.0064748023
247	0xbd3ce207	-0.046113994
248	0x3c48abae	0.012247963
249	0xbd4bac1f	-0.049724694
250	0x3d3f9f4a	0.04678277
251	0xbd14a164	-0.036286727
252	0x3cb6f13e	0.02233183
253	0x3c7fc40e	0.015610708
254	0x3d50cb02	0.050974853
255	0x3c7d15d4	0.015447099

bias f4 [12]
0	0xbcbfe45b	-0.023424318
1	0x3cf00c13	0.029302632
2	0x3d259837	0.040428367
3	0x3c52a481	0.012856604
4	0x3c3b40ee	0.011429055
5	0xbd500bbd	-0.050792444
6	0x3d518b69	0.051158343
7	0xbd2618cb	-0.04055099
8	0xbcb0713a	-0.021538366
9	0xbcf9a1c3	-0.030472642
10	0xbbb10c38	-0.005403068
11	0xbbbc6eb9	-0.005750504

weight f4 [12]
0	0x3f814e2b	1.010198
1	0x3f81d8a3	1.0144237
2	0x3f8156f7	1.0104665
3	0x3f80d686	1.0065467
4	0x3f80991e	1.0046728
5	0x3f8125f6	1.008971
6	0x3f816838	1.010993
7	0x3f816575	1.0109087
8	0x3f8144b9	1.0099097
9	0x3f80ed18	1.0072355
10	0x3f80b797	1.0056027
11	0x3f807686	1.003617

bias f4 [12]
0	0x3b89f1c0	0.004209727
1	0x3aeedbcc	0.0018223464
2	0x3b78f2f7	0.0037986615
3	0x3a42fb4e	0.000743796
4	0x3b7daf4b	0.003870922
5	0xb9f53376	-0.00046768383
6	0x3b0088cc	0.0019612787
7	0x39f26604	0.00046233844
8	0xb94984a0	-0.0001921826
9	0x3922166f	0.00015457881
10	0x3ac61700	0.0015113056
11	0x3a99c008	0.0011730203

running_mean f4 [12]
0	0xbe8638ad	-0.26215115
1	0xbc42400d	-0.011856091
2	0xbc952318	-0.01820521
3	0xbd79d70d	-0.060996104
4	0xbdf19f08	-0.11797911
5	0x3c4cb860	0.01249513
6	0xbd189ec0	-0.03726077
7	0xbda852ea	-0.082189396
8	0x3d89e424	0.067329675
9	0xbe1ff9d2	-0.15622643
10	0xbe54d428	-0.20784056
11	0x3ebecc5b	0.37265286

running_var f4 [12]
0	0x3d9b822a	0.07593186
1	0x3dd4d8f3	0.10392942
2	0x3d9b2462	0.07575299
3	0x3d53dbe6	0.051723383
4	0x3d7ea328	0.062167317
5	0x3d4de209	0.050264392
6	0x3d2be13a	0.04196284
7	0x3dbb0196	0.09131162
8	0x3d6735bb	0.056447726
9	0x3d74e560	0.05978906
10	0x3dac4edd	0.084134795
11	0x3e221eeb	0.15832107

weight f4 [24, 12, 5, 5]
0	0x3d6e3729	0.058158074
1	0x3d43cd4e	0.047803216
2	0xbcbb2782	-0.022845987
3	0x3d40980f	0.047020014
4	0x3d63b61a	0.055593587
5	0x3d0abd2e	0.033871822
6	0x3d2a479d	0.041572202
7	0xbd46daf3	-0.04854865
8	0x3b21a818	0.0024666842
9	0xbd0a7657	-0.033804264
10	0xbd29babe	-0.041437857
11	0x3be68f2e	0.0070361113
12	0xbd43366b	-0.04765932
13	0x3c84e15a	0.016220737
14	0xbc329949	-0.010900804
15	0xbc83c41d	-0.016084725
16	0xbd08295d	-0.033242572
17	0xbc93f5e3	-0.018061584
18	0xbd60cc40	-0.054882288
19	0xbd5c4843	-0.05377985
20	0xbc838c72	-0.01605818
21	0x3d218c97	0.039440718
22	0xbd087887	-0.03331807
23	0xbcf6f189	-0.03014447
24	0xbd6e4476	-0.05817076
25	0xbd278653	-0.040899586
26	0x3d308e9b	0.04310475
27	0x3cf9334d	0.03041997
28	0xbccf5446	-0.02530874
29	0x3cd82216	0.026383441
30	0xbc42f75e	-0.011899797
31	0xba974ae3	-0.0011542704
32	0xbc2c83a5	-0.010529433
33	0xbd17643d	-0.03696083
34	0xbc4d0618	-0.01251366
35	0x3d6b41ce	0.057435803
36	0xbd3c0639	-0.045904372
37	0xbb89891e	-0.004197254
38	0xbcbb9b20	-0.022901118
39	0x3d20ed4e	0.03928881
40	0x3d41e28a	0.047335185
41	0x3c5278b5	0.012846162
42	0xb9154831	-0.0001423664
43	0xbb2298d6	-0.0024810336
44	0xbbdcdd30	-0.006740235
45	0xbd1cbe72	-0.03826756
46	0x3d342c32	0.04398746
47	0xbd024693	-0.031805586
48	0x3cbbc1c4	0.022919543
49	0xbc19eedd	-0.009395328
50	0xbc8540ca	-0.016266245
51	0xbc31f888	-0.010862477
52	0xbd40a761	-0.047034625
53	0xbc8b819d	-0.017029578
54	0x395b9452	0.00020940721
55	0x3d6ca514	0.05777462
56	0x3d336c35	0.043804366
57	0x3d0fe480	0.035130024
58	0xbd21ab2c	-0.039469883
59	0x3d34f3d2	0.044177838
60	0xbc94a457	-0.01814477
61	0x3d1e883e	0.03870415
62	0xbae2db56	-0.0017307799
63	0xbd409552	-0.047017403
64	0xbd0125ad	-0.03153007
65	0x3d6ee7eb	0.058326643
66	0xbca0da24	-0.019635268
67	0xbd0d871a	-0.03455267
68	0xbbdce1cb	-0.006740784
69	0xbd6ea592	-0.05826337
70	0x3d651c1d	0.055935014
71	0x3d72b441	0.059253935
72	0x3cec18d1	0.028820427
73	0xbc9032a3	-0.01760227
74	0xbb04d09f	-0.002026595
75	0xbccdaa85	-0.025105724
76	0xbd40c5fe	-0.04706382
77	0x3ba79f63	0.005115436
78	0xbd0402df	-0.0322293
79	0x3be5914c	0.007005846
80	0x3d3e40f6	0.04644867
81	0xbd45ef57	-0.048323955
82	0x3d196e8f	0.037458953
83	0x3b08635a	0.0020811171
84	0x3cce0280	0.025147676
85	0xbce2de3b	-0.027693858
86	0x3d6b8c40	0.0575068
87	0xbd1c4cba	-0.03815911
88	0xbcde7652	-0.027156029
89	0xbd1bf767	-0.038077738
90	0x3d3c8c8f	0.046032485
91	0x3ba2bcdc	0.0049663614
92	0xbbfb7287	-0.007673565
93	0xbc139483	-0.009007576
94	0xbcf545c2	-0.02994049
95	0x3d4be6ae	0.04978054
96	0xbc8e1671	-0.017344685
97	0x3d079813	0.033104014
98	0x3d178909	0.03699592
99	0xbba4a241	-0.005024225
100	0xbd5a4bb0	-0.053294837
101	0xbd14ac6c	-0.036297247
102	0x3d47962a	0.048727192
103	0x3c2e8f50	0.010654286
104	0xbc6795ce	-0.014134837
105	0xbd2fcefd	-0.04292201
106	0x3c085751	0.008321599
107	0x3d5454a8	0.051838547
108	0xbd5e555a	-0.054280616
109	0x3a9b7878	0.0011861464
110	0x3d4276a2	0.04747642
111	0xbce51cf0	-0.0279679
112	0xbc7a6fe9	-0.0152854705
113	0x3c166ab9	0.009180718
114	0xbc6404c9	-0.0139171565
115	0x3d179164	0.03700389
116	0x3d265474	0.040607885
117	0xbaa3b16a	-0.0012488787
118	0x3d54009e	0.0517584
119	0xbb10297f	-0.002199739
120	0xbd53c81a	-0.051704504
121	0xbd3e00c4	-0.04638745
122	0xbd6a4e51	-0.057203595
123	0xbbe59587	-0.0070063504
124	0xbd15719b	-0.036485296
125	0xbc8bf179	-0.017082917
126	0x3cbbbc35	0.022916893
127	0x3b8ee75c	0.0043610763
128	0x3cb49b09	0.022046583
129	0x3ca064e4	0.019579358
130	0xbd0617b3	-0.032737445
131	0x3d028a15	0.031869967
132	0x3d1f28fb	0.03885744
133	0x3d1f7731	0.03893203
134	0x3cfe6953	0.031056082
135	0xbd2f7c8b	-0.042843383
136	0x3d01a7e1	0.031654242
137	0x3d4e36b4	0.050345138
138	0xbcac07c2	-0.020999793
139	0x3d3e6c39	0.046489928
140	0x3ca7edd1	0.020499142
141	0x3d518d31	0.05116004
142	0x3cb4abb2	0.022054527
143	0xbcdcbc11	-0.026945146
144	0xbce9b435	-0.028528312
145	0x3d4a46e8	0.049384028
146	0x3d56011c	0.05224715
147	0xbd54b2e7	-0.051928427
148	0xba7bc3f0	-0.0009604087
149	0x3c0e72a6	0.0086943265
150	0xbc6b2ced	-0.014353973
151	0x3d41aa52	0.04728157
152	0xbcbe5a39	-0.02323638
153	0xbd6c93d7	-0.05775818
154	0xbd2ee09a	-0.042694665
155	0xbc3b3b94	-0.011427779
156	0xbd5be743	-0.053687345
157	0xbc880ffe	-0.016609188
158	0x3c8bc2e5	0.017060706
159	0x3c91b6db	0.017787388
160	0xbca0f234	-0.019646741
161	0xbce325f1	-0.027728053
162	0xbc8452a4	-0.016152687
163	0x3cd1b42b	0.025598606
164	0x3cd84ff3	0.02640531
165	0x3d2046d2	0.03913004
166	0x3d547b51	0.051875416
167	0xbd6b65ca	-0.05747012
168	0xbc27ac60	-0.0102339685
169	0x3d0e001f	0.034668084
170	0x3ceed1b4	0.029152729
171	0xbcf11d6e	-0.029432978
172	0x3cb41af5	0.02198551
173	0xbd04a5ef	-0.03238481
174	0x3d685e55	0.056730587
175	0xbd0f9184	-0.035050884
176	0x3d1c6761	0.038184527
177	0x3d8064d7	0.06269234
178	0x3d6a3c98	0.057186693
179	0x3c0e5bdf	0.008688896
180	0x3d5d821e	0.054079168
181	0xbd1d78b2	-0.038445182
182	0x3d68b24d	0.056810666
183	0xbc90fa3a	-0.017697442
184	0x3cc22553	0.023699438
185	0xbc9dcbef	-0.019262282
186	0x3ca38c0c	0.01996424
187	0xbcdc2d4b	-0.026877066
188	0x3d31173b	0.043235045
189	0x3bc4d62e	0.0060069775
190	0xbd14c49d	-0.036320318
191	0x3ccc00d5	0.02490274
192	0x3d054abf	0.032541987
193	0x3c0cc9f0	0.0085930675
194	0x3d0d1f88	0.0344539
195	0x3cf07abf	0.029355405
196	0xbcd66b5a	-0.026174236
197	0x3d2317b3	0.039817523
198	0x3d5febc7	0.054668214
199	0xbbb4be53	-0.0055158525
200	0x3c7d1c52	0.015448647
201	0xbcc46655	-0.023974577
202	0x3d127b34	0.035762027
203	0x3d650db8	0.055921286
204	0xbd076588	-0.033055812
205	0xbc42715f	-0.01186785
206	0xbd1cdf25	-0.038298745
207	0xbc4eefaa	-0.012630383
208	0x3d0d6d8b	0.034528296
209	0xbd1359ac	-0.03597419
210	0x3c9cc0d3	0.019134915
211	0xbd08f130	-0.03343314
212	0xbd41e361	-0.047335986
213	0x3b8214ef	0.0039697806
214	0xbd3051e2	-0.04304684
215	0xbca58421	-0.020204606
216	0xbd050676	-0.032476865
217	0x3bc16714	0.0059021804
218	0x3d81393b	0.06309744
219	0x3d4a72ec	0.049426004
220	0xbc88ceb8	-0.016700134
221	0xbd2acfb7	-0.041702
222	0xbd28bb59	-0.041194294
223	0x3cbd1fad	0.023086393
224	0x3d3ecca3	0.046581876
225	0xbcb4d164	-0.022072501
226	0x3cb74403	0.022371298
227	0xbd346eeb	-0.044051092
228	0x3c89b724	0.016810961
229	0x3cded9ed	0.027203524
230	0xbcc83891	-0.024441035
231	0xbd525fcf	-0.0513609
232	0x3cd2efeb	0.025749167
233	0xbd5a862d	-0.053350616
234	0x3d60fbd1	0.05492765
235	0x3cb05582	0.021525148
236	0xbb89a4b5	-0.004200543
237	0xbc611637	-0.013738207
238	0x3d772b45	0.060344
239	0xbcedc21e	-0.029023226
240	0x3d7b17b8	0.061301917
241	0xbca44eec	-0.020057164
242	0xbb25cfd2	-0.0025300873
243	0xbd613a9a	-0.054987527
244	0xbaa6959d	-0.0012709383
245	0xbcfd6057	-0.030929727
246	0xbd4776d8	-0.048697323
247	0x3c921dee	0.017836537
248	0x3d1f5ed5	0.0389088
249	0x3d6eee8f	0.058332976
250	0x3d582843	0.05277277
251	0x3d23f9b9	0.040033076
252	0xbcfc03e8	-0.030763581
253	0xbc411b63	-0.011786315
254	0x3c6ae474	0.014336694
255	0xbd46f2b3	-0.0485713

bias f4 [24]
0	0xbce83136	-0.028343778
1	0xbd3f1bd6	-0.046657406
2	0x3cc591cd	0.024117375
3	0x3d63ca40	0.055612803
4	0x39aa4aa4	0.00032480538
5	0xbd1e78c2	-0.038689382
6	0x3d155fd7	0.036468353
7	0xbd0f7b23	-0.03502954
8	0xbd2a1a7b	-0.04152916
9	0xbd26dbb0	-0.040736854
10	0x3ce60332	0.028077696
11	0xbd6b8206	-0.057497047
12	0x3d04e263	0.03244246
13	0x3c36dbba	0.011160785
14	0x3cfc911d	0.030830914
15	0xbd53eb00	-0.051737785
16	0x3caf54b1	0.021402689
17	0xbd09cb12	-0.03364093
18	0x3cb1c5ff	0.021700857
19	0x3d3439d1	0.04400045
20	0x3ba84bf6	0.0051360084
21	0xbc149a2c	-0.009069961
22	0xbd28680e	-0.04111486
23	0x3d34630c	0.04403977

weight f4 [24]
0	0x3f811b7f	1.0086516
1	0x3f80b779	1.0055991
2	0x3f80a461	1.0050164
3	0x3f814af6	1.0101001
4	0x3f8105c5	1.0079886
5	0x3f8114dd	1.0084492
6	0x3f80e648	1.0070276
7	0x3f80755f	1.0035819
8	0x3f80d0fe	1.0063779
9	0x3f80b697	1.0055722
10	0x3f8058db	1.0027117
11	0x3f80f675	1.0075213
12	0x3f81770b	1.0114454
13	0x3f80d89c	1.0066104
14	0x3f80b50e	1.0055254
15	0x3f809fec	1.0048804
16	0x3f810ef2	1.0082686
17	0x3f80eda1	1.0072519
18	0x3f80dad8	1.0066786
19	0x3f805202	1.0025027
20	0x3f81089d	1.0080754
21	0x3f80dbe4	1.0067105
22	0x3f80b600	1.0055542
23	0x3f80ba63	1.0056881

bias f4 [24]
0	0x3ad33542	0.0016113895
1	0x3ba259e1	0.004954562
2	0xbb5766f4	-0.0032867761
3	0x3b2778e7	0.002555424
4	0x3ab7a562	0.001401108
5	0x3acb82e1	0.0015526676
6	0xbae6e060	-0.0017614476
7	0x3a744afa	0.00093190337
8	0x3a8e1955	0.001084129
9	0x3b4587d2	0.003014077
10	0xbb0a7bb0	-0.0021130852
11	0xbab5bd62	-0.0013865645
12	0xb8d59be7	-0.000101856705
13	0x3bce117d	0.006288706
14	0x3bac5a49	0.0052597863
15	0xbb1e2a6f	-0.002413418
16	0x3b8f5d7c	0.004375158
17	0x3b37725a	0.0027991743
18	0xbab871f4	-0.0014072047
19	0x3bd3a6ab	0.0064590774
20	0x3b319864	0.0027098889
21	0x39743c81	0.00023292193
22	0x3b9da5ac	0.0048110094
23	0x3b2c7003	0.0026311881

running_mean f4 [24]
0	0x3dc4053e	0.09571312
1	0xbf211da7	-0.6293587
2	0x3ef513b1	0.47866586
3	0x3e95da38	0.2926805
4	0xbdc6b620	-0.09702706
5	0x3e2622d1	0.16224219
6	0x3ebcfd62	0.36912066
7	0x3cfa6a94	0.030568399
8	0xbc757984	-0.014982585
9	0xbe6e5cdb	-0.23277609
10	0x3f0ece12	0.5578319
11	0x3e83e171	0.25757936
12	0x3ef3a214	0.47584593
13	0xbf185762	-0.59508336
14	0xbe897597	-0.26847526
15	0x3f39c15c	0.7256067
16	0xbf194716	-0.59874094
17	0x3dc9ffee	0.09863268
18	0x3ebafd24	0.36521256
19	0xbda42e7d	-0.080166794
20	0xbe20b85c	-0.15695328
21	0x3eb5ddf6	0.35520905
22	0xbd9b225f	-0.07574915
23	0xbdd53ac5	-0.104116

running_var f4 [24]
0	0x3e04f73f	0.12984942
1	0x3e7d96a9	0.24764504
2	0x3e13865c	0.14406723
3	0x3e07715b	0.13226835
4	0x3e35209a	0.17688218
5	0x3e4f9fca	0.20275798
6	0x3e02654f	0.12733959
7	0x3e0e3b9a	0.13889924
8	0x3e295018	0.1653446
9	0x3e298097	0.1655296
10	0x3e795773	0.24349765
11	0x3e76a16b	0.24085014
12	0x3e002af9	0.12516393
13	0x3e336ec3	0.17522721
14	0x3e384091	0.1799338
15	0x3e8f892b	0.28034338
16	0x3e1d12c1	0.15339185
17	0x3e14ea92	0.14542606
18	0x3e0567e6	0.13027915
19	0x3e0bcaa7	0.13651524
20	0x3e2c0461	0.16798545
21	0x3e02c0f8	0.12768924
22	0x3e2467a5	0.16055162
23	0x3e0bf46b	0.13667457

weight f4 [48, 24, 5, 5]
0	0x3d02ba7b	0.031916123
1	0xbb8b0135	-0.0042420872
2	0x3c308c51	0.010775642
3	0xbb0588da	-0.002037576
4	0x3cd95cf6	0.026533585
5	0xbb0a3988	-0.002109142
6	0x3d06edcb	0.03294162
7	0xbd142d69	-0.03617612
8	0xbc9dc1b3	-0.019257402
9	0xbce025bd	-0.027361745
10	0xbba10bea	-0.0049147503
11	0x3d04015e	0.032227866
12	0x3cf862fc	0.030320637
13	0x3a713e0a	0.0009202665
14	0xbd01b9cd	-0.031671334
15	0x3ba4b034	0.005025888
16	0x3cb06a66	0.02153511
17	0x3c805119	0.01566367
18	0xbd089b5d	-0.03335129
19	0xbd17e69d	-0.037085164
20	0xbd113125	-0.03544726
21	0x3b4dcf0a	0.0031403922
22	0x3d2abb66	0.041682623
23	0xbcd71f36	-0.02626
24	0xbd02dfce	-0.031951718
25	0x3ca65e20	0.020308554
26	0x3cbaca16	0.02280144
27	0x3cc72fa0	0.024314702
28	0x3d27277b	0.040809136
29	0xbd09a3b0	-0.03360337
30	0x3d034934	0.032052234
31	0xbce933cf	-0.028467087
32	0x3d052ffa	0.032516457
33	0xbbb92db3	-0.0056511997
34	0x3ce5bf3e	0.028045293
35	0xbcd528f1	-0.026020499
36	0xbd1979ae	-0.03746956
37	0xbcd46c47	-0.025930537
38	0x3d14c794	0.036323145
39	0x3c851e7a	0.016249884
40	0xbd174f05	-0.036940593
41	0xbcd5db0e	-0.02610543
42	0xbbe5de50	-0.007015027
43	0x3c4342a4	0.011917744
44	0x3c846434	0.016161062
45	0xbcdd9854	-0.027050175
46	0x3c1422a6	0.009041464
47	0x3d2f16b0	0.042746246
48	0x3b4e0f8e	0.0031442377
49	0xbc4137de	-0.011793105
50	0x3b495247	0.0030719207
51	0xbce3e91b	-0.027821114
52	0x3ccdc5ac	0.025118671
53	0x3c3818d4	0.011236388
54	0x3d326617	0.04355439
55	0xbcded9ca	-0.02720346
56	0x3bd18d19	0.006394994
57	0x3d36dff4	0.044647172
58	0xbba72f44	-0.00510207
59	0x3cbbdf51	0.022933634
60	0xbb5e94a5	-0.003396311
61	0xbc2be775	-0.010492195
62	0x3c8ae04c	0.016952656
63	0x3cf20e05	0.0295477
64	0xbc4c3961	-0.012464852
65	0xbb1cfc79	-0.0023954196
66	0x3cc71ffc	0.024307244
67	0x3cb9fbeb	0.022703132
68	0x3ba34f12	0.004983791
69	0xbc7822b2	-0.015144991
70	0xbca732af	-0.02040991
71	0x3c07453d	0.008256254
72	0x3c72bee4	0.01481602
73	0x3cb4f44f	0.022089152
74	0xbcef56a2	-0.029216114
75	0xbd1f924b	-0.038957875
76	0x3c28fbf6	0.010313978
77	0xbc8f1ca4	-0.017469712
78	0xbc2dbceb	-0.010604124
79	0x3c08a404	0.008339886
80	0xbb92e5d3	-0.0044829636
81	0x3c2174ef	0.009854539
82	0x3d05d897	0.03267726
83	0xbca59df3	-0.020216918
84	0x3c2e882e	0.010652585
85	0xbd0eabe7	-0.034831908
86	0x3c30f1de	0.010799853
87	0x3cfecda0	0.031103909
88	0x3d1880fd	0.037232388
89	0x3c7d92f3	0.01547693
90	0x3b89b2e2	0.0042022327
91	0xbd29c864	-0.041450873
92	0xbcc19215	-0.023629228
93	0x3cc9722d	0.024590576
94	0xbcc90184	-0.024536856
95	0x3a5a81a6	0.0008335359
96	0xbcc04c4d	-0.023473883
97	0x3cd81eb0	0.02638182
98	0xbc5a5830	-0.01332669
99	0x3ab7e34e	0.0014029534
100	0x3aafaf9b	0.0013403775
101	0xbc4b7e0b	-0.012420188
102	0xbcebf079	-0.02880119
103	0xbc701341	-0.014653028
104	0x3bb91e6e	0.0056493795
105	0x3d306087	0.043060806
106	0xbcf1034c	-0.029420517
107	0xbbe6416d	-0.0070268423
108	0xbca98cd7	-0.02069704
109	0x3d216411	0.03940207
110	0xbceeca23	-0.02914912
111	0x3cf97fcd	0.030456448
112	0x3d15831f	0.036502
113	0xbc9f2e59	-0.01943128
114	0xbcb93644	-0.022608884
115	0xbccb2483	-0.024797684
116	0xbd05b837	-0.032646384
117	0x3d0b0293	0.033938
118	0x3c9a762b	0.018855175
119	0x3c56db40	0.013113797
120	0x3c447227	0.011990107
121	0x3c24388f	0.01002325
122	0x3c9bcd5f	0.019018827
123	0x3ce9f63d	0.028559798
124	0x3bdaafe6	0.0066738008
125	0xba1b64cc	-0.00059278007
126	0x3cdb18b4	0.026745178
127	0xb89905c0	-7.2966795e-05
128	0x3ceebef2	0.029143784
129	0x3b864d9d	0.0040986077
130	0xbd09dfa7	-0.033660557
131	0xbc9908f4	-0.018681027
132	0xbcdf3208	-0.027245536
133	0x3b9528ce	0.0045519834
134	0x3c9d1d34	0.019178964
135	0x3cb3ba2b	0.021939358
136	0x3c7e4b5a	0.015520895
137	0xbd1d246d	-0.038364816
138	0xbd043fe1	-0.032287482
139	0xbd098d1a	-0.03358183
140	0xbd292627	-0.04129615
141	0xbd1e999e	-0.03872072
142	0xbbde019e	-0.006775095
143	0x3c14c12f	0.009079262
144	0xbcd3c0aa	-0.025848705
145	0x3bc6b141	0.006063611
146	0xbd29d488	-0.04146245
147	0x3a7c3b6b	0.0009621891
148	0xbd0a1ce0	-0.033718944
149	0xbba75c92	-0.005107471
150	0xbb2a1120	-0.0025950149
151	0x3cf304f0	0.02966544
152	0xbcb9efea	-0.022697408
153	0xba96d6b2	-0.0011508076
154	0xbc2d0861	-0.01056108
155	0x3c102b05	0.008799319
156	0x3c94525f	0.018105684
157	0x3c552738	0.013009839
158	0xbbd82733	-0.00659647
159	0x3c35d746	0.0110986885
160	0x3d0dc8e4	0.034615412
161	0x3a94e22f	0.0011358912
162	0xbd0114a4	-0.031513825
163	0x3cc3f4f3	0.023920512
164	0xbcb2f364	-0.021844573
165	0x3d20963c	0.039205775
166	0x3cea8cc0	0.028631568
167	0x3b97284a	0.004612957
168	0x3d09b5b4	0.03362055
169	0xbd02d60d	-0.031942416
170	0x3ca2979f	0.01984769
171	0x3d255189	0.04036096
172	0x3d04c516	0.03241452
173	0x3c8a380b	0.016872426
174	0xbccbe0de	-0.024887498
175	0x3ce78ee7	0.028266383
176	0xbd038054	-0.032104805
177	0x3cb87378	0.022515997
178	0x3ca80ba5	0.020513365
179	0xbcecee27	-0.028922154
180	0x3c4e04b8	0.012574367
181	0x3cd9ff57	0.026611013
182	0xbd1848b4	-0.03717871
183	0x3cfe4ff3	0.031043982
184	0x3cafd2b9	0.021462785
185	0x3d029da9	0.031888638
186	0xbd116d73	-0.03550477
187	0xbc8b6eaa	-0.017020542
188	0x3ca22c46	0.019796502
189	0x3d0b88f4	0.034066156
190	0xbc14a2d2	-0.0090720225
191	0xbc154523	-0.009110722
192	0x3d1d1209	0.038347278
193	0x3b9c5019	0.0047702906
194	0xbc2cf8a7	-0.01055733
195	0xbccb7559	-0.02483623
196	0x3b8d8c07	0.004319671
197	0xbbb0b61f	-0.0053928043
198	0x3ccad16c	0.024758063
199	0x3cb172f2	0.021661256
200	0xbcb88f8c	-0.022529386
201	0xbc9ddd36	-0.01927052
202	0x3c1cf4b4	0.009579826
203	0xbd1002a9	-0.035158787
204	0x3cf586e3	0.029971546
205	0x3cfc0246	0.030762803
206	0x3b730978	0.0037084501
207	0x3ccea2b5	0.02522407
208	0xbd1a527d	-0.037676323
209	0xbcdbee8f	-0.026847152
210	0xbab3def0	-0.0013723057
211	0xbc8c99ef	-0.017163245
212	0x3d129311	0.035784785
213	0x3cd83987	0.026394619
214	0x3ba28849	0.004960094
215	0xbcf0a4d5	-0.029375473
216	0xbd018a1c	-0.031625852
217	0xbccfe072	-0.025375579
218	0x3babd864	0.0052443016
219	0xbd077b1f	-0.0330764
220	0x3c493187	0.012279875
221	0x3c2b5693	0.010457653
222	0x3c1b9892	0.009496825
223	0x3d0bdc6b	0.034145754
224	0xbcf251cc	-0.02958002
225	0x3cd106b1	0.025515886
226	0xbc7bda35	-0.015371849
227	0xbcada7ae	-0.02119812
228	0xbcfdf19e	-0.030999001
229	0x3c89515f	0.016762434
230	0xbc874924	-0.016514368
231	0x3cfd1e90	0.030898362
232	0x3ca499fc	0.020092957
233	0x3ccb6929	0.024830418
234	0x3a48e5e4	0.0007663651
235	0x3d08568a	0.033285655
236	0x3c527df4	0.012847412
237	0xbd27b056	-0.04093965
238	0x3be0a63e	0.006855755
239	0x3cb218b8	0.021740302
240	0xbcbdc31b	-0.023164323
241	0xbb5f4576	-0.0034068502
242	0x3c91ea50	0.017811924
243	0x3c595d8f	0.013266935
244	0x3c78c413	0.0151834665
245	0x3c279caa	0.010230223
246	0x3d0e4ec6	0.034743093
247	0xbc346cd2	-0.011012273
248	0x3c3dbae4	0.011580203
249	0x3cc1369b	0.023585608
250	0x3cbc65c2	0.02299774
251	0xbcdd72c2	-0.02703226
252	0x3c1eab97	0.009684465
253	0xbb6791bf	-0.0035334674
254	0xbca6c538	-0.020357713
255	0x3d1712e4	0.03688325

bias f4 [48]
0	0xbcc3b1ad	-0.023888433
1	0x3bf504b8	0.007477369
2	0x3ce9dd1b	0.028547814
3	0x3cd299e0	0.025708139
4	0x3c1bc249	0.00950677
5	0x3c2d00b4	0.01055925
6	0x3cd90643	0.026492244
7	0xbcbe3db2	-0.023222778
8	0x3d1df4d7	0.038563576
9	0xbce97514	-0.02849821
10	0xbb12aa09	-0.002237918
11	0x3cb6d278	0.022317156
12	0x3ceb39b8	0.028714046
13	0xbd143c09	-0.036190066
14	0xbb3c774e	-0.0028757635
15	0x3d1ef47a	0.03880737
16	0x3ce655bf	0.028117059
17	0xbd15f0c8	-0.03660658
18	0x3cc3422c	0.023835264
19	0xbd18912e	-0.03724783
20	0x3d03f11f	0.032212373
21	0xbbc70ac9	-0.0060742837
22	0x3b887fdc	0.0041656327
23	0xbcbd30e5	-0.023094604
24	0x3d0b1b66	0.033961676
25	0xbc7f2f70	-0.015575275
26	0x3d1abbd5	0.037776787
27	0xbd11f0be	-0.03562998
28	0x3cf20fd7	0.029548569
29	0x3bec901b	0.007219327
30	0x3cf5328d	0.029931331
31	0x3bb93967	0.005652595
32	0xbc99c5ce	-0.018771078
33	0x3cd716b0	0.026255935
34	0xbce0107b	-0.027351608
35	0xbbc7a95b	-0.006093187
36	0xbbc10571	-0.0058905412
37	0x3c48c525	0.012254034
38	0xbd1ca2f5	-0.038241345
39	0x3c474d86	0.012164479
40	0x3cc49230	0.023995489
41	0x3ba13a94	0.004920313
42	0x3b6e3b74	0.0036351355
43	0x3bbff684	0.0058582444
44	0xbcda5958	-0.02665393
45	0xbcad7da1	-0.021178069
46	0x3c3d2b07	0.011545903
47	0x3b3d55e2	0.0028890301

weight f4 [48]
0	0x3f8119ad	1.0085961
1	0x3f80497a	1.0022423
2	0x3f807135	1.0034548
3	0x3f8030bb	1.0014871
4	0x3f80a64a	1.0050747
5	0x3f7ff6a8	0.9998574
6	0x3f8089e6	1.0042083
7	0x3f80afce	1.0053651
8	0x3f80bc50	1.0057468
9	0x3f80787d	1.003677
10	0x3f7e8110	0.99415684
11	0x3f800ef2	1.0004561
12	0x3f810916	1.0080898
13	0x3f808ffc	1.004394
14	0x3f8046be	1.0021589
15	0x3f7f1db3	0.9965469
16	0x3f7ff72a	0.9998652
17	0x3f80715c	1.0034595
18	0x3f809a07	1.0047005
19	0x3f80032f	1.0000972
20	0x3f80525a	1.0025132
21	0x3f809249	1.0044643
22	0x3f8031e8	1.001523
23	0x3f80ffcc	1.0078063
24	0x3f80a2a1	1.004963
25	0x3f7fbe32	0.9989959
26	0x3f8065b1	1.0031034
27	0x3f804f68	1.0024233
28	0x3f807c28	1.003789
29	0x3f801001	1.0004884
30	0x3f7fb47c	0.9988477
31	0x3f807569	1.0035831
32	0x3f8030e2	1.0014918
33	0x3f805fc6	1.0029228
34	0x3f8095c6	1.0045707
35	0x3f8098a0	1.0046577
36	0x3f80016d	1.0000435
37	0x3f802538	1.0011358
38	0x3f7e8ebd	0.9943655
39	0x3f800a88	1.0003214
40	0x3f808fea	1.0043919
41	0x3f80b079	1.0053855
42	0x3f7f54bf	0.9973869
43	0x3f80a99c	1.0051761
44	0x3f803025	1.0014693
45	0x3f804d48	1.0023584
46	0x3f809162	1.0044367
47	0x3f7fa274	0.9985726

bias f4 [48]
0	0x3a8c6c94	0.0010713511
1	0x3aa9c2df	0.0012951753
2	0xba294c2b	-0.0006458188
3	0x39fde341	0.00048425238
4	0x3b375c25	0.0027978506
5	0x3ab8ec74	0.0014108554
6	0x3b3bca48	0.0028654505
7	0x3b22d981	0.002484888
8	0x3b62d3fd	0.0034611218
9	0x3ac8fb15	0.0015333617
10	0xbaa68a10	-0.0012705941
11	0x3ad48b66	0.001621586
12	0x3b198115	0.0023422886
13	0xbad89b37	-0.001652575
14	0xbaa57b6b	-0.0012625282
15	0x39a9f442	0.00032416178
16	0x3a3dc724	0.0007239452
17	0x35f33708	1.8120927e-06
18	0x3b9f4b04	0.0048612375
19	0xb8b45406	-8.5987194e-05
20	0xba8dadce	-0.0010809244
21	0xb9487ac9	-0.00019119227
22	0x3b8a3b15	0.004218469
23	0x3b3d1c32	0.0028855917
24	0x3b37773a	0.0027994649
25	0x39cd030a	0.0003910291
26	0x3abe9f0f	0.0014543253
27	0x3b087f7b	0.0020827937
28	0x3b378ad6	0.0028006337
29	0xbb14483c	-0.0022626063
30	0xbb31869b	-0.0027088288
31	0xbb31b4b6	-0.0027115769
32	0x3b940731	0.004517459
33	0x3b6cd9de	0.00361406
34	0xba84da81	-0.001013592
35	0x3a8c81e6	0.0010719865
36	0xb95440ce	-0.00020242037
37	0x3b823b10	0.003974326
38	0xba56695c	-0.0008179152
39	0x3aa844a5	0.001283784
40	0x3b7f420e	0.0038949284
41	0x3b927815	0.0044698813
42	0x3b6ec763	0.0036434762
43	0x3a59ae84	0.0008303898
44	0xbb13c331	-0.0022546763
45	0xbb4b6b63	-0.003103935
46	0xb8e1852e	-0.00010753643
47	0x3b17cb20	0.0023161843

running_mean f4 [48]
0	0x3dd1b4f0	0.10239589
1	0xbd1147bd	-0.035468806
2	0x3e20fdff	0.15721892
3	0x3d8fd2c4	0.07022622
4	0xbe6b44a9	-0.2297541
5	0xbe36130d	-0.17780705
6	0xbdcfe048	-0.101502
7	0x3ddbba20	0.1072886
8	0xbda62b77	-0.08113759
9	0xbdb17f6e	-0.086668834
10	0xbe718511	-0.23585917
11	0xbe336f06	-0.17522821
12	0xbdea986f	-0.11454856
13	0x3e8c3de5	0.27390972
14	0x3e739eca	0.23791042
15	0xbd472f5c	-0.04862915
16	0x3e2cee89	0.16887869
17	0x3e83b67c	0.25725162
18	0xbe6fc005	-0.23413093
19	0x3eb4d26a	0.35316783
20	0x3d925195	0.07144467
21	0x3d518a87	0.0511575
22	0xbe757213	-0.23969297
23	0xbcc478b7	-0.023983343
24	0xbcc0e983	-0.023548847
25	0x3eb1f9e0	0.34760952
26	0xbd98062b	-0.074230514
27	0x3dfe73f8	0.12424463
28	0xbd9c6f5e	-0.07638429
29	0x3e8ff33c	0.2811526
30	0x3f12b4e3	0.5730726
31	0x3e8b1f96	0.27172536
32	0xbe34a76e	-0.17641994
33	0xbebba3e4	-0.36648476
34	0x3e2c8342	0.16846946
35	0xbd9b7820	-0.075912714
36	0x3e4940f0	0.19653678
37	0xbe2c693a	-0.16837016
38	0xbbcc7d8b	-0.006240552
39	0x3ad5e4e5	0.0016318826
40	0xbe9687bf	-0.2940044
41	0xbe0a283e	-0.13491914
42	0xbeaee1f1	-0.34156755
43	0xbd86473e	-0.06556557
44	0x3e053910	0.13010049
45	0x3dd10031	0.10205115
46	0x3e46ee73	0.19426899
47	0xbe02a5b6	-0.12758526

running_var f4 [48]
0	0x3db9f332	0.09079589
1	0x3dc002de	0.09375547
2	0x3dcc3f9c	0.0997307
3	0x3dc8e254	0.09808794
4	0x3db81a10	0.08989346
5	0x3dc01226	0.093784615
6	0x3de530b3	0.11190929
7	0x3e02868d	0.1274664
8	0x3e0ea6e4	0.13930851
9	0x3dcf5189	0.101229735
10	0x3dd4f9c5	0.10399202
11	0x3e091d14	0.13389999
12	0x3db11086	0.0864573
13	0x3e1e86b0	0.15481067
14	0x3e1d1bf8	0.153427
15	0x3dd4ba72	0.10387124
16	0x3e12b21a	0.14325753
17	0x3df47316	0.119360134
18	0x3dde1f32	0.10845794
19	0x3dd0d493	0.10196795
20	0x3dcf23e0	0.101142645
21	0x3e03675c	0.12832397
22	0x3e337a79	0.17527188
23	0x3dec012f	0.11523663
24	0x3e122c73	0.14274769
25	0x3dff68fe	0.124711975
26	0x3e022a5c	0.12711471
27	0x3ddc7fe4	0.10766581
28	0x3e26fcda	0.16307393
29	0x3e27818c	0.16358012
30	0x3e1e6616	0.1546863
31	0x3dda5566	0.1066082
32	0x3e05b978	0.13059032
33	0x3e11727a	0.14203826
34	0x3db385d7	0.08765762
35	0x3db5e62c	0.088817924
36	0x3df48674	0.119397074
37	0x3dd96400	0.106147766
38	0x3dd48d9b	0.103785716
39	0x3dcc348a	0.099709585
40	0x3dcab809	0.09898383
41	0x3db7139e	0.089392886
42	0x3e82c53f	0.25541112
43	0x3df7dbca	0.12102468
44	0x3dd49497	0.10379904
45	0x3dd60270	0.10449684
46	0x3db3203a	0.08746381
47	0x3e3392f0	0.17536521

weight f4 [6, 4800]
0	0x3c25e142	0.010124506
1	0xbc0a9bfe	-0.008460043
2	0xbc0bc132	-0.008529948
3	0x3be2f192	0.00692577
4	0x3b627143	0.0034552373
5	0x3a8c3852	0.0010697937
6	0xbb8d803e	-0.004318266
7	0x3c312651	0.010812358
8	0xbb9e96f0	-0.0048397705
9	0xbb436dbb	-0.0029820043
10	0xbc37cc7b	-0.011218186
11	0xbc188836	-0.009309819
12	0x3bff419a	0.0077898027
13	0x3c3ae214	0.01140644
14	0xbc930c53	-0.017950213
15	0xbc03bcb6	-0.008040598
16	0x3bdbe70c	0.0067108925
17	0x3b1f786f	0.0024333259
18	0xbc151088	-0.00909818
19	0xbc7df3b3	-0.015499997
20	0xbc8c5ff9	-0.017135607
21	0x3a95d748	0.0011431957
22	0x3c67619e	0.014122395
23	0xbb9422a6	-0.004520732
24	0x3ab6dd21	0.00139514
25	0xbbf6a701	-0.0075272326
26	0xbc19f51c	-0.009396818
27	0xb8e9e326	-0.000111526155
28	0x3c051cfa	0.008124584
29	0xbc0e03dd	-0.008667913
30	0xbc63008a	-0.013855109
31	0x3beeb41d	0.007284655
32	0xbae4bd34	-0.0017451406
33	0x3c6a2274	0.014290441
34	0x3c708f34	0.01468258
35	0x3c7cd941	0.015432657
36	0x3b2e2b91	0.002657626
37	0xbc644fbd	-0.013935027
38	0xbc113a36	-0.008863976
39	0xbc03b53f	-0.008038818
40	0xbb8c3da5	-0.0042798095
41	0x3c0ce0d5	0.008598526
42	0x3c2d5710	0.010579839
43	0x3c912704	0.0177188
44	0xbc2c17fc	-0.010503765
45	0xbbea59f5	-0.007151837
46	0xbb96c2e8	-0.0046008714
47	0x3a899b8d	0.0010498628
48	0xbc3e4f4c	-0.011615586
49	0x3ac95554	0.0015360513
50	0x3895f03e	7.149622e-05
51	0xbb9a8199	-0.0047151563
52	0x3c637e8a	0.01388515
53	0xbc7dfd92	-0.01550235
54	0xba358647	-0.0006924611
55	0x3c6e13ec	0.014531117
56	0xbbaa247f	-0.005192339
57	0x3b713a2a	0.003680835
58	0x3a99cfa2	0.0011734853
59	0x3b9bf4dc	0.004759414
60	0xbc7650ca	-0.01503391
61	0xbc3a6163	-0.011375758
62	0x3c2adcc8	0.010428615
63	0xbc3fbe93	-0.011703151
64	0x3c87fd89	0.016600387
65	0x3a9e6611	0.0012084862
66	0x39f0e743	0.0004594867
67	0x3c48d0a5	0.012256776
68	0x3c4f97a8	0.012670435
69	0x3c8becf1	0.017080756
70	0xbc2b3ace	-0.010451032
71	0xbb70a3a9	-0.0036718643
72	0x3a215a11	0.00061550835
73	0xba8b791b	-0.0010640951
74	0x3bc1fcfb	0.00592005
75	0x3c0ffe83	0.008788708
76	0x3bd5609d	0.0065117613
77	0x3ae0bb08	0.0017145583
78	0xbc1a743b	-0.009427126
79	0x3b812a15	0.003941784
80	0xbb6edf69	-0.003644908
81	0xbc469020	-0.012119323
82	0xbb363c36	-0.0027806885
83	0x3b5542b7	0.0032540986
84	0x3c8c3688	0.017115846
85	0x3c83f4c4	0.016107924
86	0x3c10e569	0.008843758
87	0xbbecc1cb	-0.0072252504
88	0xbbafb423	-0.00536205
89	0xbc28b6ba	-0.010297472
90	0xbc3c26a1	-0.011483819
91	0xbc32639a	-0.010888005
92	0x3c8adfa0	0.016952336
93	0x3b6ae9fc	0.0035845032
94	0x3c6eff7f	0.014587282
95	0x3b3ea73a	0.0029091374
96	0x3c27157b	0.010197992
97	0x3ab40e40	0.0013737157
98	0x3bf628c1	0.0075121825
99	0xbbf547ca	-0.0074853646
100	0xbc3e25f6	-0.01160573
101	0x3c2bbc09	0.010481843
102	0xbbeb666a	-0.0071838396
103	0xbc108b3d	-0.0088222595
104	0x3b628f8e	0.0034570429
105	0xbba94b27	-0.0051664296
106	0x3b5ddc57	0.0033853257
107	0xbc007c64	-0.007842157
108	0x3bdd4b8c	0.0067533907
109	0xbc388884	-0.011263017
110	0xbb213c0f	-0.0024602448
111	0xbbaaa7e1	-0.005208001
112	0xbac3ea60	-0.0014947169
113	0x3c3f8e20	0.0116916
114	0xbb855c94	-0.004069874
115	0xbabb984a	-0.0014312353
116	0x3c02ef0a	0.007991562
117	0x3b9f98f5	0.004870529
118	0xbc2a8202	-0.010406973
119	0xbb0bdfd9	-0.002134314
120	0xbc183890	-0.009290829
121	0x3bd46ae3	0.0064824685
122	0x3b6cc091	0.003612552
123	0xbba9801f	-0.005172744
124	0x3c98839b	0.018617442
125	0x3b19390f	0.0023379957
126	0xbbbe2df0	-0.005803816
127	0xbac15489	-0.0014749925
128	0x3c3062a2	0.010765703
129	0x3955819c	0.00020361546
130	0x3c3b9155	0.011448224
131	0x3c615bfd	0.013754842
132	0xbc078bc5	-0.00827307
133	0x3b549faf	0.0032443812
134	0x3a0af1c7	0.000530031
135	0xbc4a18a7	-0.012334979
136	0xbc08bb87	-0.008345491
137	0x3ae2e527	0.0017310724
138	0xb9dbade6	-0.000419005
139	0x3b585d43	0.0033014573
140	0xbb873560	-0.004126236
141	0x3c1a3eb7	0.009414366
142	0x3c788544	0.015168492
143	0xba88f4c9	-0.0010448928
144	0x3c4bfd6e	0.012450559
145	0x39687f5b	0.00022172688
146	0x3c50b7c8	0.012739129
147	0xbc3408a4	-0.010988388
148	0xbb121950	-0.002229292
149	0xbb849957	-0.0040466
150	0xba4d4dba	-0.00078317116
151	0x3c649450	0.013951376
152	0x3c946cca	0.01811828
153	0x3c62f097	0.013851306
154	0xbbca91e1	-0.006181941
155	0xbaceecf1	-0.0015787167
156	0xbc1ce1c7	-0.009575314
157	0xbc457b49	-0.012053319
158	0xb9282ba0	-0.0001603798
159	0xbbe5718c	-0.0070020612
160	0xba576222	-0.0008216222
161	0x3bab1a69	0.005221654
162	0x3c845ef0	0.016158551
163	0xb83ce1f4	-4.5033128e-05
164	0xbc052864	-0.008127306
165	0xbc81dcfd	-0.015852446
166	0xbb460b6f	-0.0030219217
167	0x3bb21086	0.0054340987
168	0xbb94a729	-0.0045365286
169	0x3c6fe0c1	0.014640988
170	0xbc0bb773	-0.008527624
171	0xbc40c311	-0.011765257
172	0xbba5ad7c	-0.0050560813
173	0x3a6332e5	0.00086669467
174	0xbc7ecaf0	-0.015551314
175	0x3a78e692	0.0009494807
176	0x3b77837f	0.0037767587
177	0xbb8b5fac	-0.0042533483
178	0x3c372fc0	0.011180818
179	0xbbcceea9	-0.0062540364
180	0xb91b842c	-0.0001483119
181	0x3b10e89f	0.002211131
182	0xbb2bad91	-0.0026195983
183	0x3c81f96e	0.015866008
184	0x3c36d9e8	0.011160351
185	0xbbc3eb5c	-0.0059789848
186	0xbc096011	-0.00838472
187	0x3c885adb	0.016644886
188	0xbc32edb1	-0.010920928
189	0x3b492871	0.003069427
190	0xbc2ecbb4	-0.010668684
191	0x3c8218e6	0.015881013
192	0xbc449b37	-0.011999897
193	0xbc17e7d9	-0.009271585
194	0xbc4d6d71	-0.0125383
195	0x3a2edeec	0.0006670791
196	0x3c525f18	0.012840055
197	0xbbe0f925	-0.006865638
198	0x3ac1215a	0.0014734671
199	0x39481789	0.00019082254
200	0xbca78f23	-0.020453995
201	0x3c035dc6	0.008017963
202	0xbc252cb0	-0.010081455
203	0x3c3b85b5	0.011445452
204	0x3b649bc8	0.0034882892
205	0x3b993efb	0.0046766973
206	0x3a51390d	0.00079812185
207	0x3c22f745	0.009946649
208	0x3c51b704	0.012799982
209	0x39a5797d	0.00031561768
210	0x3a81c22c	0.0009899787
211	0x3bcba787	0.006215039
212	0xbc12ea6c	-0.008967023
213	0x3b2e58d3	0.0026603236
214	0xbbffe72a	-0.0078095393
215	0x3c76f041	0.015071929
216	0x3ba6a638	0.005085733
217	0x3c0194c6	0.0079090055
218	0xbc2ac787	-0.010423548
219	0xbc5810c7	-0.013187594
220	0x3b98dc3e	0.004664927
221	0x3c40aaff	0.011759519
222	0x3c5ced76	0.0134843495
223	0xbb36640a	-0.0027830624
224	0x3c1060b4	0.008812118
225	0xbc10ec23	-0.008845362
226	0x3c19c7f4	0.009386051
227	0x3b72c38a	0.003704282
228	0xbc574464	-0.013138864
229	0xba95b0cc	-0.0011420487
230	0x3be1e347	0.0068935486
231	0xbb352d3c	-0.002764537
232	0x3b0cb6d0	0.002147127
233	0x393b62c3	0.00017870501
234	0x3a21dbfc	0.0006174443
235	0x3c115846	0.008871144
236	0xbb99ca62	-0.0046933154
237	0x3c04059d	0.008057979
238	0x3c6f625c	0.014610853
239	0x3b5909bd	0.0033117377
240	0x3c8487e9	0.016178088
241	0x3c3c9174	0.011509288
242	0x3bb23c27	0.0054392996
243	0x3b87cd3a	0.004144338
244	0x3c3df537	0.011594108
245	0xba681c17	-0.00088542834
246	0xbc39b76d	-0.011335236
247	0xbc70b171	-0.014690743
248	0xbc21c89e	-0.009874491
249	0xbbdc58a5	-0.0067244344
250	0x392e991b	0.0001665097
251	0x3b653930	0.0034976713
252	0x38c8ccd5	9.574896e-05
253	0x3ab7292e	0.0013974064
254	0xbc0f64ce	-0.008752061
255	0xbad945c8	-0.0016576583

bias f4 [6]
0	0x3bc4a6b0	0.006001316
1	0xbb06d1b0	-0.002057176
2	0x3bed98be	0.0072508743
3	0xbb41fba9	-0.0029599464
4	0xbbfc5c5a	-0.007701439
5	0xbc4d42d6	-0.012528142
